output/ppo_model.pth (torch, 157219 bytes, 11 tensors)

actor.0.weight f4 [128, 79]
000000 53 39 99 bd 8f 65 0f bd a3 f9 d2 3d 28 7a b8 3d
       -0.07481637 -0.035008963 0.10301521 0.090076745
000010 bd 8a c6 bd 26 01 6c bd ee 77 13 bd ea b7 ab bd
       -0.09694431 -0.057618283 -0.036003046 -0.08384688
000020 7a 7d a2 bc 59 a6 35 bd 58 14 32 3d a4 c5 1e 3d
       -0.019835223 -0.044348095 0.043476433 0.038762704
000030 78 f9 e1 3c d8 50 37 3d 0c 98 7b bd 53 f8 a4 bd
       0.027584776 0.044754833 -0.0614243 -0.080551766
000040 a7 4a b0 bd 6e 6b de 3d 51 67 9d 3d 6f 86 d7 bd
       -0.08607989 0.10860334 0.07685722 -0.10523688
000050 cc 70 ed bd d4 af d5 3b 4b a7 c6 3d e0 ce 39 bd
       -0.1159378 0.0065212045 0.09699877 -0.045363307
000060 2d 61 80 bd 20 81 d4 3d 8c f8 ca bd c8 f9 b8 3d
       -0.06268535 0.10376191 -0.09910688 0.09032017
000070 ba 6c 84 bd c5 73 17 3d bb e3 81 3d d4 9c db bd
       -0.064660504 0.03697564 0.06342264 -0.10723272
000080 43 a5 6b bd a2 27 15 bd 53 3a 9f 3b f1 99 c4 bd
       -0.057530653 -0.03641475 0.0048592477 -0.095996745
000090 66 a9 4f bd 8b 3f e6 3d f3 06 86 bc 6f b8 c8 bd
       -0.05069866 0.112425886 -0.016360736 -0.09800803
0000a0 25 2c 18 3d 3a 04 b1 bd 7d b0 7c 3d 5a 43 b4 3d
       0.037151475 -0.08643384 0.06169175 0.08801909
0000b0 6c 91 68 bd 1a cb 21 3d 32 a6 bd 3d c6 b3 31 3d
       -0.05677931 0.039500333 0.09260215 0.043384336
0000c0 9e 3d a4 bd 08 6f 64 3d 19 a2 5d bd 75 f4 8d 3d
       -0.08019565 0.05576995 -0.054109666 0.06931392
0000d0 82 a2 06 3d c3 8a 4b 3d 3d 24 62 bd a4 f2 e6 3a
       0.032869823 0.04969288 -0.05521034 0.001761992
0000e0 20 6b 40 3c 57 92 aa 3d fd b1 29 bd 80 11 ae bd
       0.011744291 0.08328693 -0.04142951 -0.084994316
0000f0 f3 62 ea bc ab 7d 71 3d d3 e3 80 bd 75 7b b4 bd
       -0.028611636 0.058957737 -0.06293454 -0.0881261
000100 91 d6 19 3c c2 60 e3 bb 4e ca be bd fd 22 cd bd
       0.0093895355 -0.0069390247 -0.0931593 -0.10016439
000110 b6 6a 8a 3d 3d 08 58 bd 85 18 da bd 1a 5a f7 bc
       0.06758635 -0.05274223 -0.10649208 -0.030194331
000120 4a 47 bb bd ee db 72 3c 2e 6d d6 bd 9c f5 d1 bc
       -0.09144457 0.014822943 -0.10470043 -0.025629811
000130 db ca 02 3d c4 1a 29 bd 96 62 db 3c e8 17 85 3d
       0.03193174 -0.04128529 0.026780408 0.064987004
000140 8f 2e a1 bd 48 48 04 bc 0e 03 8f bd c4 b5 d2 3d
       -0.078702085 -0.008073874 -0.069830045 0.10288575
000150 a7 88 e4 bd f5 a9 ec 3c 05 b5 e5 bd 6a 24 84 bd
       -0.11158877 0.028889636 -0.11216167 -0.06452258
000160 30 8b 73 3c 2b 9b ba bd de f9 01 bd b8 ca 23 bc
       0.014864728 -0.09111627 -0.031732433 -0.009997062
000170 58 27 c0 3d 10 dc 8d bc 31 76 97 3d 50 41 0c 3d
       0.09382504 -0.017316848 0.0739559 0.034241974
000180 25 8c 35 3d 0d 58 98 bc a5 ac 89 3c c0 57 35 bc
       0.044323105 -0.018596673 0.016805956 -0.0110682845
000190 f5 82 18 bd f1 d3 b9 3d 6f ed a7 3d b9 0e 09 3d
       -0.037234265 0.09073628 0.08199584 0.033461306
0001a0 0c 29 b3 3d 90 ba dc 3d 52 06 c1 bc 43 e0 b7 bd
       0.087480634 0.107777715 -0.023562584 -0.089783214
0001b0 5e 53 bf bd 35 36 d3 bc 4f 32 28 bd 8f 20 de 3d
       -0.09342073 -0.025782684 -0.041063603 0.10846054
0001c0 9c 71 7f bd ca 37 e7 bc b4 1a aa bd 18 0b 0e 3d
       -0.062364206 -0.028224844 -0.083058745 0.03467855
0001d0 1b 92 c9 3c eb df cc 3c 84 fd d9 bd 54 89 ef 3a
       0.024605801 0.025009116 -0.106440574 0.001827518
0001e0 8c 41 7f bd f2 2e 21 3d fb fa e1 3d 0b 0a 46 3d
       -0.06231837 0.03935141 0.11034199 0.04834942
0001f0 ec a8 e1 bd 47 f5 27 3d a7 77 a7 3c 93 b3 ae 3c
       -0.110185474 0.0410054 0.020442797 0.021325862
000200 66 e2 ac bd 64 41 a6 3d 7c 29 67 3d 6a 51 c3 3d
       -0.084416196 0.08117941 0.056436047 0.09537013
000210 85 82 62 bc 69 f5 b1 bc 00 90 e0 3d 86 83 5f 3d
       -0.013825064 -0.021723466 0.10964966 0.05456879
000220 f4 5f 80 bd e4 1e fd 3c d0 e9 ff bc be 65 c9 bd
       -0.062683016 0.030898519 -0.03123942 -0.09833859
000230 55 ae 8f bd 24 be e1 bd 00 d9 9d bd c3 90 d5 3c
       -0.07015673 -0.110225946 -0.07707405 0.026070004
000240 6a d5 42 3d e5 fd c1 3d 53 5a 1d 3d eb 70 a4 3d
       0.04756681 0.09472255 0.038416218 0.0802935
000250 9d f4 94 3d 8d a7 ac bc 47 94 a2 bd b5 2e 0f 3c
       0.07273219 -0.021075988 -0.07938438 0.008739163
000260 d0 5f e0 bd 24 c2 a3 3d 39 d5 c6 bd e9 62 e0 3d
       -0.10955775 0.07996014 -0.09708638 0.109563656
000270 42 b3 5a bd 2f 18 34 3c 25 1f 8c bd 4e aa 2e bd
       -0.05339361 0.010992094 -0.06841878 -0.042642884
000280 d6 dc 0f 3d 34 55 92 3d 89 ef 08 bd f3 14 e8 bc
       0.035122715 0.071451575 -0.033431564 -0.028330302
000290 62 57 89 3d fc a8 00 3d e9 95 d1 bc 6a 85 2f 3d
       0.0670612 0.031411156 -0.025584178 0.042851843
0002a0 c7 4c 58 3c 0c 83 5e bd 82 28 bb 3d ce 8c 02 bd
       0.013201899 -0.054324195 0.091385856 -0.031872563
0002b0 90 35 80 3d ac 7d b5 3d 00 1b 89 bd 65 64 d3 3d
       0.06260216 0.08861861 -0.06694603 0.10321883
0002c0 a3 3b ce 3d 82 2e ad bd 2f db df 3d 1e 4f 64 bd
       0.100699686 -0.08456136 0.10930478 -0.055739515
0002d0 9c 7f d9 3c f5 b7 7b bd f1 24 b7 3d 00 da 8f bd
       0.026550107 -0.061454732 0.08942593 -0.07024002
0002e0 93 6b 8e 3d af ca d0 bd c3 9c 81 3d c8 99 99 39
       0.06954112 -0.10194909 0.06328728 0.0002929701
0002f0 90 83 8d 3b d5 b1 d9 3d db 09 a6 3d fc 5f 8b 3d
       0.004318662 0.10629622 0.081073485 0.06805417
000300 17 16 94 3c 6a 2b a9 3d 9d e4 50 bd dd d5 3f 3d
       0.01807694 0.08260234 -0.050999273 0.046834815
000310 c4 f7 56 3d d4 f3 3c bd 36 c2 ab bc 87 34 c2 3d
       0.05248238 -0.04613097 -0.02096663 0.09482675
000320 61 f8 b6 bd 86 90 d6 3d e5 59 7d bd f3 de d6 3d
       -0.08934093 0.104767844 -0.06185331 0.10491743
000330 54 2e 53 bd 7b 43 51 3d d2 3c ed bc ed 09 1d 3d
       -0.051557854 0.051089745 -0.028959665 0.038339544
000340 46 bb 06 3d 04 5c 2a 3d 5b 68 80 bd d8 0a b1 bc
       0.03289344 0.04159166 -0.06269904 -0.021611616
000350 0f 93 18 3d 2f e2 46 bd 22 99 d8 3c d3 34 9b bd
       0.03724962 -0.04855555 0.026440207 -0.07578435
000360 26 ed da 3d e0 af 93 bd c5 1a d0 3d 4a 69 a3 3d
       0.10689764 -0.0721128 0.10161356 0.07979067
000370 bf 13 00 3d 93 27 32 3c 3c f2 8a 3d 18 97 96 bd
       0.03126883 0.010873693 0.06784484 -0.073530376
000380 bb c4 d2 3d da 3e 1a 3d 1a c1 ab bd c1 aa 5c bd
       0.102914296 0.037657596 -0.083864406 -0.05387378
000390 79 97 c2 3d b9 72 b7 bc 8a ae e1 3b 07 e9 b6 3d
       0.09501547 -0.022393571 0.0068872618 0.08931165
0003a0 b5 e1 0f bd 61 73 36 bd d0 16 7c 3d b8 34 3d 3d
       -0.03512736 -0.044543628 0.061545193 0.046192855
0003b0 ee e7 79 3d 1d 00 b0 3d 85 22 da bd b9 86 d9 bd
       0.0610122 0.085937716 -0.10651115 -0.106213994
0003c0 28 ed b1 3d 59 c6 76 bd 18 e4 39 3d e5 e5 c0 bd
       0.08687812 -0.060247753 0.045383543 -0.09418849
0003d0 58 c6 60 3d 39 6d 56 bd 18 38 83 bd 9c bd 9d bd
       0.054876655 -0.052350257 -0.064071834 -0.07702181
0003e0 6c e6 27 3d 8e 64 37 bd 02 aa a3 3d 76 c1 c7 3d
       0.04099123 -0.04477363 0.07991411 0.097536966
0003f0 04 f0 a9 bc f2 af b2 bd 18 8d bc bc ae 6b 97 bd
       -0.020744331 -0.08724965 -0.023016497 -0.07393585

actor.0.bias f4 [128]
000000 f7 91 e2 bd 2c 7a a1 bd 22 44 c3 3d a9 5c 87 bd
       -0.11062997 -0.078846306 0.0953448 -0.066094704
000010 3f 40 f8 3c 8a d7 b2 3d 09 21 d6 bd d5 82 99 3c
       0.030304072 0.08732517 -0.1045552 0.018739143
000020 ee d6 78 3c a9 f4 fa bb fd c6 4a 3d 2a f1 93 3d
       0.015187962 -0.0076585603 0.049506176 0.07223733
000030 da 2f 2f bd 33 9e 91 3b fd 7d 22 3d d2 e0 b1 bd
       -0.042770244 0.0044439076 0.039670933 -0.08685459
000040 77 a6 40 3d 06 73 6d bd 07 bb ce bd f8 8c c1 bc
       0.047033753 -0.057971023 -0.100942664 -0.02362679
000050 93 aa 43 3d b2 0b f1 3c 38 ac 97 bd e1 3e f5 3c
       0.047770094 0.029424522 -0.07405895 0.02993721
000060 fa e0 6c bc 94 af db 3d af 6a cc bd 5b c4 b2 bd
       -0.0144579355 0.10726848 -0.09981286 -0.08728858
000070 bc e4 96 bd 24 82 96 bc 3a ac b4 3c 67 0a 38 3d
       -0.07367846 -0.018372603 0.02205478 0.044931795
000080 85 12 ad 3d 61 ca ac 3d a1 88 4c bd 16 dc 2f 3d
       0.08450798 0.08437038 -0.049934987 0.0429345
000090 32 37 a7 3d 8d 4b bb 3d ab ba 91 bd 29 84 f9 bc
       0.081648245 0.091452695 -0.07115682 -0.030458527
0000a0 6d b6 9b 3d e3 3a d9 bd 33 5a b0 bd fa 13 4d 3c
       0.07603154 -0.10606935 -0.08610954 0.01251697
0000b0 76 c9 fa 3c c7 ff b8 3d 5a 51 36 3d b6 5f c5 3d
       0.030613642 0.09033161 0.044511177 0.09637396
0000c0 e0 72 41 3d 0d 7b 81 bd ec 35 b9 3d c7 1a ac 3d
       0.047228694 -0.06322298 0.09043488 0.08403545
0000d0 4c 76 9e 3d 8e c0 ae bd b6 fa 5b 3d 5c 39 83 bd
       0.07737407 -0.08532821 0.053705893 -0.06407425
0000e0 0e 3d 9e 3d 88 50 3f 3d 63 ed b9 bd 83 8d cf bb
       0.07726489 0.04670766 -0.09078481 -0.006334008
0000f0 8b c7 39 bb 14 2c a3 3d 77 cc b9 bd 35 6d 26 3d
       -0.0028347697 0.079673916 -0.09072202 0.04063149
000100 30 4a af bd 6c fc 87 bd 6b 16 8e 3c 9f dc c4 3d
       -0.08559072 -0.066399425 0.017344674 0.09612393
000110 03 0c e2 3d 62 a4 ab 3d fd e7 a8 bc 6c 68 42 ba
       0.11037447 0.08380963 -0.020618433 -0.0007416073
000120 11 a3 3d bd d5 2c e8 bd b2 40 b7 3d e6 ce df bd
       -0.04629809 -0.11336676 0.089478865 -0.109281346
000130 e1 eb c6 bd 90 96 06 3c 05 7e 9b 3d 95 78 97 3d
       -0.09712959 0.008214608 0.07592396 0.07396046
000140 1e 53 0b bd 88 6f 9d 3c 0c 80 20 3d 15 57 3f bd
       -0.034014814 0.019218221 0.039184615 -0.046713907
000150 96 31 da bd 83 f9 05 bd c6 5b cf bd 24 2c 7e 3d
       -0.10653989 -0.032708656 -0.10124926 0.062053815
000160 1b bf ac 3c 79 b6 a2 bc de 91 a3 3d 19 17 b6 bb
       0.02108722 -0.0198624 0.07986806 -0.0055569527
000170 fa 09 22 3d 3a 5e 27 bd e7 28 25 bd 34 0e 85 bd
       0.039560296 -0.040861346 -0.04032221 -0.0649685
000180 75 a7 5d bd d0 74 7e 3c ce 98 c5 3c d6 c9 06 3d
       -0.054114778 0.01553078 0.024120715 0.03290733
000190 35 5c 67 bd 95 ba 44 bd 60 a1 96 3d 9a ce d1 bd
       -0.05648442 -0.0480295 0.073549986 -0.10244484
0001a0 5c 8d 90 3d f8 11 43 bd e3 79 bc bd ec 03 26 bc
       0.07058212 -0.04762456 -0.092029355 -0.010132771
0001b0 89 dc 0a 3d a8 d1 68 bd d5 61 19 bd 39 60 c9 bd
       0.033901725 -0.05684057 -0.037446816 -0.09832806
0001c0 d7 60 a4 3d 63 74 6e 3a b3 f4 81 3d 43 49 aa bd
       0.08026283 0.00090963225 0.06345501 -0.08314755
0001d0 55 11 0d 3c f9 0f 94 3d b2 ee 70 bd 95 a4 19 3c
       0.008610089 0.07229609 -0.058821388 0.009377618
0001e0 62 8b 18 3d 5d 48 b9 3d e9 7e c7 3d fc 26 87 3b
       0.0372423 0.09047005 0.09741003 0.0041245203
0001f0 2a 12 6b bd f4 16 c3 3c 4b 64 2d 3d ec 35 4e bd
       -0.05739037 0.023814656 0.042331975 -0.050344393

actor.2.weight f4 [64, 128]
000000 02 67 aa 3d 00 9a 88 3d fd da d9 3c 68 4b aa bd
       0.083204284 0.06669998 0.02659368 -0.08315164
000010 f8 12 c7 bc 85 c1 48 3d 50 bd b4 3d be 8e 7a bd
       -0.024301037 0.04901268 0.08825171 -0.061171286
000020 8c 4c ae 3d 32 1a df bc 06 22 97 3c 14 5e 5c 3d
       0.08510694 -0.02723417 0.01844884 0.053800657
000030 02 13 9a 39 04 2a 03 3d d9 1a 6d 3d e3 4c 7f bd
       0.0002938733 0.03202249 0.057886932 -0.062329184
000040 af 31 92 3d 95 93 14 bd ab e5 16 3d 9d a4 57 bd
       0.07138383 -0.036273558 0.036840122 -0.05264722
000050 8a 06 10 3d 6b 11 88 3d 7c 66 9c 3c e2 f9 ac 3d
       0.035162486 0.06643947 0.019091837 0.08446099
000060 c4 51 9e 3d e0 f2 53 bd 68 cc a2 3d f8 1e 68 bd
       0.07730439 -0.051745296 0.07949144 -0.05667016
000070 61 35 a4 bd 29 e6 8b bc 95 cc 78 bd 3b be ca ba
       -0.08017994 -0.017077522 -0.06074198 -0.001546807
000080 7c 37 ac bc 14 45 32 3d 16 3f 03 3d 7b ba 83 3d
       -0.02102255 0.04352291 0.032042585 0.06432053
000090 33 be b0 3d 04 ea 39 bc 69 9a d2 bb 2f e7 ac bd
       0.086300276 -0.011347298 -0.0064270985 -0.08442532
0000a0 68 af d7 3c 6a ce 8b bd 3d f8 98 bd 9b 1a a4 3b
       0.026328757 -0.0682648 -0.07469223 0.0050080544
0000b0 3b 93 76 3d 16 ad ae bd 4a f3 fa bc f7 08 f1 3c
       0.060199004 -0.08529107 -0.030633587 0.02942322
0000c0 4d f4 4e 3d 30 1c 41 3d 07 45 7f 3d ef a9 78 bd
       0.050525952 0.047146022 0.06232169 -0.060708936
0000d0 dd 98 bd bc c3 0a 67 3d bd 37 72 3b d3 d5 a9 bd
       -0.02314418 0.056406748 0.0036959492 -0.08292737
0000e0 39 b3 69 3d c7 5e 7f 3d 52 e1 93 bd 52 75 89 bd
       0.057055686 0.062346246 -0.07220711 -0.0671183
0000f0 86 eb 95 3a a9 be 45 bd 04 32 5b bd 03 dd 89 3c
       0.0011437989 -0.04827753 -0.053514495 0.01682902
000100 06 27 37 bd e9 9b 72 ba 49 2e 47 bd 39 6f 86 bd
       -0.04471495 -0.00092548 -0.048628125 -0.06564183
000110 47 d5 ab bd 77 af 8a 3d 25 8d 2c bd 70 7b 38 bd
       -0.08390289 0.067717485 -0.042126793 -0.045039594
000120 27 a8 f2 bc f4 42 70 3d 70 72 f5 bc 63 0f a3 3d
       -0.029621197 0.0586576 -0.029961795 0.07961919
000130 d8 7a 9f bd aa 3d 84 bc 4f ba 82 bd c7 ca b8 bd
       -0.077871025 -0.016142685 -0.06383192 -0.09023052
000140 6b 67 87 3d 6a 2c 03 3d 55 b4 14 bd 6d ec 4f 3d
       0.06611522 0.03202478 -0.03630479 0.050762583
000150 cd 4e 14 bd bd 92 3d 3c 03 b5 87 3d b4 c8 8e 3d
       -0.036207963 0.01157063 0.06626322 0.06971875
000160 9e 35 db bc fd 4e 8e bd 52 44 76 bd 0e 10 1d 3d
       -0.026758965 -0.069486596 -0.06012375 0.03834539
000170 52 21 c4 bb 77 bc 77 bd 6d af 1f bc f2 ac 95 bc
       -0.0059854174 -0.06048247 -0.009746415 -0.018270943
000180 cd 0f e0 bb 22 73 96 bc eb 7c 75 3c c3 71 34 3d
       -0.006837821 -0.018365446 0.014983396 0.044053804
000190 2d b3 42 bd 74 95 d3 3b a8 da f1 bc 75 a6 6d 3d
       -0.047534157 0.006457025 -0.029523209 0.058020074
0001a0 67 7a 6f 3d 34 8e bf 3c 16 6e df 3b 07 eb 15 3d
       0.05846634 0.023383237 0.006818543 0.036601093
0001b0 d6 6e b1 3d 5f 8e 89 bc 8e ad a2 3d 43 f2 39 bd
       0.086637184 -0.01679152 0.07943259 -0.045397054
0001c0 7b 80 a8 3d 99 38 f6 3b 74 29 f7 bc 5e e2 2b bd
       0.08227631 0.007514071 -0.030171134 -0.041963927
0001d0 b7 15 ab bd 61 0f a6 3d 79 ac 4b bd 98 a4 2d bd
       -0.08353751 0.08108402 -0.04972503 -0.042393297
0001e0 9f 68 52 bd 29 73 94 bd f1 86 e2 3b 6d e2 11 bd
       -0.051369306 -0.072485276 0.006913059 -0.035616327
0001f0 f7 f1 64 3c 07 32 9e bc e7 bf 54 3c e6 57 85 3d
       0.013973705 -0.019310964 0.012985206 0.06510906
000200 58 ec ac 3d e6 17 24 bd 38 7e 6d 3a 3d f6 47 bd
       0.084435165 -0.040061854 0.00090596406 -0.048818815
000210 7a 8d 49 3d 56 ca bc bc 7b 32 21 bd 75 65 fd 3c
       0.04920719 -0.0230457 -0.039354783 0.030932168
000220 8c 9a 2f 3d 67 0d 22 3d 07 b9 30 3d 12 bb 78 3d
       0.042871997 0.039563563 0.043145206 0.06072528
000230 a9 23 ef 3c cc 65 fc bc 8b 52 af bd 40 02 1e bd
       0.029191809 -0.03081026 -0.08560666 -0.038576365
000240 bb 53 23 bb 68 4a 73 3d 23 90 e3 3c 5f ba 05 3d
       -0.0024921733 0.05939713 0.02777869 0.03264844
000250 e3 59 0a bc 14 75 6b bd d6 4a 0c 3c ae 0b 48 3b
       -0.008444282 -0.0574847 0.008562764 0.003052454
000260 47 e7 a4 bb b9 8a 80 bc 94 ef b9 bc 80 dd 5e bc
       -0.005032453 -0.015691148 -0.022697248 -0.013602614
000270 1e bf 01 39 2e ef 94 3d ca 04 88 3c 47 e0 aa bd
       0.00012373595 0.072721824 0.016603846 -0.08343559
000280 f9 f5 a2 3d 13 97 cb bc 34 0e 30 bd c3 d1 a1 bd
       0.07957072 -0.024852311 -0.042982295 -0.07901337
000290 8f 9d 99 3d 8f 91 c0 bd 2f 33 13 3d 4b b8 ac 3d
       0.07500755 -0.09402763 0.035937484 0.084335886
0002a0 6e 41 92 bc 91 24 35 bc ed 99 87 bd 23 e3 a6 3d
       -0.017853465 -0.011056081 -0.06621156 0.08148792
0002b0 fa 54 98 3d 09 52 83 bd 7a 38 66 3d 14 1b 01 3c
       0.07438083 -0.06412131 0.056206204 0.007879991
0002c0 3a 61 b0 bb d8 42 72 bd e8 61 76 3c 8c 20 83 3d
       -0.005382684 -0.05914578 0.015037991 0.06402692
0002d0 8e 73 02 3d 03 66 3b bd 94 2f b3 3c 56 7f 37 bd
       0.031848483 -0.045751583 0.021873273 -0.04479917
0002e0 60 ca a6 bd 9f 23 56 bc 7d 2c 65 bd 24 7b 73 3c
       -0.08144069 -0.013070016 -0.05595063 0.014860902
0002f0 02 76 19 3d 58 ff 7b 3d 22 5f 73 bd 94 bd e3 3c
       0.037466057 0.06152281 -0.059416898 0.027800359
000300 7e d0 a3 bc d0 57 ab 3c 9f 39 cd bc 00 d6 a0 3d
       -0.019996878 0.020915896 -0.02505189 0.07853317
000310 77 67 ac 3b 9c bc 75 3d 10 5d 91 3d b0 7b 8d bd
       0.0052613574 0.059994325 0.070978284 -0.06908357
000320 08 c6 0d bd bb fa 84 bd 36 aa f7 bc 1a 41 6a bc
       -0.034612685 -0.064931355 -0.03023253 -0.014297748
000330 b1 dd 8f 3c 9b 7a 59 3d 4c 7c b9 3c 7f ae 1a 3d
       0.017561765 0.05309544 0.022642277 0.03776407
000340 9c f0 92 bd b4 32 0c 3d cb 14 54 bd b4 f9 94 3c
       -0.07174799 0.03422804 -0.051777642 0.018185474
000350 b2 69 02 bd 55 c5 57 3d fb fe 2e bc e1 0b 4b bd
       -0.03183908 0.052678425 -0.010680909 -0.049571875
000360 4b 34 8e bd 7c f8 6f bd 1a cf 06 3d 1a d8 b2 bd
       -0.06943568 -0.058586583 0.03291235 -0.08732624
000370 52 8d b0 bd f2 7c 95 bd 99 4c 6a bd 18 27 a2 bd
       -0.08620705 -0.07299222 -0.057201955 -0.07917613
000380 c1 e6 92 bd fa 19 70 bc d5 fa 38 3d 38 b6 89 bd
       -0.07172919 -0.014654631 0.045161087 -0.067242086
000390 a4 ec b1 bd c8 38 7d 3d 7f a0 82 bc 27 47 18 3d
       -0.08687714 0.06182173 -0.015945671 0.03717723
0003a0 5c 4c 98 bd 60 a3 8d 3c 79 a9 9e bd 65 82 82 3d
       -0.074364394 0.017289817 -0.07747168 0.06372527
0003b0 c2 74 af 3d 47 fc 30 bd 2b 39 0d 3d 25 90 12 3c
       0.08567192 -0.04320934 0.034478348 0.0089455
0003c0 25 84 a5 3d bd 55 ac bd e0 53 9a bd ba dd 84 3d
       0.08081845 -0.08414791 -0.07535529 0.064876035
0003d0 8e 05 0f 3d 3f bd 49 bc 07 7e 28 3d 18 37 81 3d
       0.034917407 -0.012313186 0.041135814 0.063093364
0003e0 d3 d2 c3 3c 90 8e 86 bc 4f d5 4b bd 75 a1 40 bd
       0.02390424 -0.016425401 -0.049763974 -0.047028977
0003f0 21 ca 60 3d a1 3b 99 3b 0b f3 af 3d 9f fd a6 3d
       0.054880265 0.004676298 0.08591279 0.08153843

actor.2.bias f4 [64]
000000 78 72 13 bd 57 77 0f 3d 43 46 8f 3d 08 84 a9 bc
       -0.035997838 0.03502592 0.06995823 -0.02069284
000010 2f 03 a6 bd 6b 2d d0 3c 93 ae a3 bc d0 e1 00 bb
       -0.08106076 0.025412282 -0.019980704 -0.0019665845
000020 b2 ba 66 3d 3d 14 99 bd e4 d3 02 bd 18 80 5f 3d
       0.05633039 -0.07474563 -0.031940356 0.05456552
000030 85 90 81 bc 90 c4 c7 3b 03 1f 24 bd b5 d4 44 bc
       -0.015815983 0.00609643 -0.040068638 -0.012013604
000040 50 2e c2 bb 87 b1 96 3d f7 b1 fe 3c 30 63 c1 3b
       -0.005925931 0.073580794 0.03109072 0.0059017166
000050 04 c4 03 3d a2 25 21 3d a6 6c ae 3a 39 c1 68 3d
       0.032169357 0.03934253 0.0013307526 0.056824896
000060 fd c2 ba bd 52 39 09 3d 29 77 94 bd a1 e8 b3 bc
       -0.09119222 0.03350193 -0.072492905 -0.021961512
000070 fe 20 89 bd 12 37 ca bc ee 9e 0b 3c 63 77 25 3d
       -0.06695746 -0.024684463 0.0085217785 0.04039706
000080 a4 45 ae bc c8 e2 48 bd ba 97 57 bd 49 ad 9d bd
       -0.021273442 -0.0490444 -0.052634932 -0.07699067
000090 d8 cb 13 3d c9 27 02 bc 36 0c 89 3d d1 c2 83 bd
       0.036083072 -0.007944056 0.06691782 -0.06433643
0000a0 c9 eb 94 3d f0 a7 e7 3b b5 09 93 3d 4d 19 42 3d
       0.07271535 0.0070695803 0.07179586 0.04738741
0000b0 ff 73 8b 3d 43 05 b8 3c 39 77 fd bb c0 62 46 3d
       0.06809234 0.022463446 -0.0077351597 0.04843402
0000c0 53 47 2d bd b9 bf 30 3d 97 07 36 bd 13 e4 52 bd
       -0.04230435 0.04315159 -0.044440832 -0.05148704
0000d0 7f 06 96 3d d0 5b 79 bd 5f 77 a7 ba d1 d1 90 bd
       0.07325458 -0.060878575 -0.0012776664 -0.07071269
0000e0 d6 6d b1 bb fb c1 92 bd 3b 70 81 3c 8c 68 85 3d
       -0.005414705 -0.07165905 0.015800586 0.06514081
0000f0 9e f7 a3 bd 55 57 77 3d 47 e6 97 3c d8 57 6d 3d
       -0.080062136 0.06038602 0.018542422 0.057945102

actor.4.weight f4 [16, 64]
000000 1c 4b 92 3c 94 f0 a7 3d 2a 16 89 3d 8a cd b9 bd
       0.01785808 0.082001835 0.066936806 -0.090724066
000010 70 42 50 3c 90 3c c1 bd eb 0a a0 bd d9 6c b7 3d
       0.012711152 -0.094353795 -0.078145824 0.08956308
000020 83 7a a6 3d c0 d0 e7 bd 77 42 8f 3d ff 96 db bd
       0.08128836 -0.11319113 0.06995099 -0.107221596
000030 22 a8 da bd f3 19 cc 3d d0 0f 3a 3d e0 65 cd 3c
       -0.106766 0.09965887 0.045425236 0.025072992
000040 da 5e cc bd c0 57 67 bd cc 1e ce 3d d0 f6 0b 3c
       -0.09979029 -0.05648017 0.10064468 0.008542731
000050 b1 95 a5 3c 9a 10 9c bd 80 0c 06 bd 60 f6 02 be
       0.02021298 -0.07620354 -0.032726765 -0.12789297
000060 1e 27 9a bd 9b 5a e0 3d e2 e5 d3 3d 89 5c 26 3d
       -0.07526992 0.109547816 0.10346581 0.040615592
000070 da 90 d1 bd d6 d8 00 be 84 7f 7a 3d 05 a8 97 bc
       -0.10232706 -0.12582716 0.061156765 -0.018512735
000080 ac dc 9e bd 05 ea 15 3d 35 92 62 3d 55 f6 1a 3d
       -0.077569336 0.03660013 0.055315215 0.037832577
000090 ba 11 9d 3c ee 24 cd 3d 37 72 bf 3d fe fc b5 3d
       0.019173492 0.100168094 0.09347957 0.08886145
0000a0 b5 ab 94 bd 71 71 e8 bd c7 c7 8a 3c 41 58 70 bd
       -0.07259313 -0.11349762 0.016940964 -0.058677915
0000b0 2c 07 d3 3d 04 0b 8a bd 95 6c 01 bd 81 86 73 bc
       0.10304102 -0.06740382 -0.031597693 -0.014863611
0000c0 ee b2 d4 bd 97 be d2 bd 67 8f 9c 3d 79 d3 95 3b
       -0.10385691 -0.102902584 0.07644539 0.0045723286
0000d0 46 a2 e7 3d 92 d6 df bc a1 e5 95 3d 42 33 40 bc
       0.11310248 -0.027323995 0.07319189 -0.011730971
0000e0 7f 50 b3 3d d8 4c ec 3d d1 a3 58 3d c5 e7 05 3b
       0.08755588 0.11538094 0.052890602 0.0020432335
0000f0 67 98 cc bd 7c ab d3 bc 05 5b 94 3d 16 16 c3 bd
       -0.09990006 -0.025838606 0.07243923 -0.09525697
000100 36 87 92 3d 59 9b f0 3d e3 a0 63 bd 00 80 7a 3b
       0.07154696 0.1174838 -0.055573355 0.0038223267
000110 a0 88 d8 3c c0 6b d5 3d 9f 12 c5 3c f8 a8 b0 3b
       0.026432335 0.10420942 0.02405673 0.0053912364
000120 19 c8 03 3e 34 8e 8b 3d 29 a8 5c bd f0 94 0e bd
       0.128693 0.068142325 -0.053871308 -0.034810007
000130 e2 07 a5 3d 78 17 b0 3c 34 33 f6 bd f9 bf e6 bd
       0.08058144 0.021495566 -0.12021485 -0.11267085
000140 80 5e e2 ba 4e 42 54 3d f7 ec 64 3c 60 4f 58 3c
       -0.0017270595 0.051821046 0.013972512 0.013202518
000150 a9 dd 84 3d d0 38 bf bc 2d d4 9d bd 46 89 c5 3d
       0.06487591 -0.02334252 -0.07706485 0.096453235
000160 8d 57 84 bd 78 81 d3 bd cb a4 51 bd 5f e0 72 bd
       -0.064620115 -0.103274286 -0.05118255 -0.05929601
000170 f8 9d 56 3d 3c 4b 2e 3d 6e 8a bf bd 2a 36 0e 3d
       0.052396744 0.042552218 -0.09352575 0.034719624
000180 6c fc a2 3d 65 a6 a6 bd 52 4c e5 3d 37 f3 75 3d
       0.07958302 -0.08137206 0.111961976 0.0600464
000190 b1 77 a5 3d 13 e0 d1 bd 22 54 a7 bd 8b bc 61 3d
       0.0807947 -0.10247817 -0.08170344 0.05511145
0001a0 1b 4b ef bd 79 51 d4 bd c8 af cb bd 38 9c 3d bd
       -0.11684247 -0.10367102 -0.09945637 -0.04629156
0001b0 2e b6 ad bd 5b 78 8c 3d 3e ce b9 bd 5a a8 90 3d
       -0.08482014 0.068588935 -0.09072541 0.070633605
0001c0 c8 e2 ca 3d 8b bf 1c bd 8b e6 bc bc 0d 83 f3 3b
       0.09906536 -0.038268607 -0.02305915 0.007431394
0001d0 9c 70 98 bb 1c 98 7a bd b4 13 be bd d0 2b f7 bc
       -0.004652096 -0.06118022 -0.09281102 -0.030172259
0001e0 79 d2 9a bc 85 e4 78 3d 91 64 e8 3d 14 aa dd 3d
       -0.01889919 0.06076481 0.113473065 0.108234555
0001f0 7c 23 57 bd 02 69 21 bd 90 2f 61 3b 74 9a bb bd
       -0.052524075 -0.039406784 0.0034360625 -0.09160319
000200 b9 ac 5a bd 46 78 ab bd b4 cd 49 3c 34 05 4c bd
       -0.053387377 -0.0837255 0.01231711 -0.04980965
000210 c0 0e 83 bb ad ac 78 3c 1c e9 d5 3d 0d c3 b2 bd
       -0.003999561 0.015177888 0.10444853 -0.08728609
000220 1a 75 7c bd 55 ce 5b bc 1e 3c d5 bd 96 d3 cf bd
       -0.061635114 -0.013415893 -0.10411857 -0.10147779
000230 82 de da bd 0a a0 85 3c c8 15 bf 3c bc a4 9a 3d
       -0.10686971 0.016311664 0.023325816 0.07550952
000240 9c e3 95 bd c7 03 25 bd a2 c0 db bd 5e 12 fe bd
       -0.07318804 -0.040286805 -0.10730101 -0.12405847
000250 fe dd ae 3b 56 29 f2 3d 9d f6 c5 bb 30 d6 e6 bd
       0.005336522 0.118242905 -0.0060413615 -0.11271322
000260 ce 72 95 bc fc e1 f1 bd 55 a8 99 3d 5e 4e c2 3d
       -0.01824322 -0.11810681 0.0750281 0.094876036
000270 20 a8 8e 3b b9 17 00 bd 00 88 50 3c 29 cc c5 3d
       0.004353538 -0.031272624 0.012727737 0.09658081
000280 ec 19 ab 3d ad 41 ad 3c 0f ec 6d bd 93 e2 d8 3d
       0.083545536 0.02114948 -0.05808645 0.105900906
000290 e0 ff 6c 3d bb e9 37 3c 58 57 dd 3d 5b 09 b8 3d
       0.05786121 0.011225159 0.10807675 0.089861594
0002a0 df af 17 bd de 52 32 bd 10 0f 68 bc 3c a1 1e bd
       -0.037032958 -0.04353606 -0.014163747 -0.038727984
0002b0 ec ff 93 3d 8d 4c 1f bd 09 63 63 3d 51 2d 19 bd
       0.072265476 -0.038891364 0.05551437 -0.037396733
0002c0 6a af 52 3d b9 62 84 3d f3 95 ac 3d 9d 3f e8 bd
       0.05143682 0.06464142 0.08427038 -0.11340258
0002d0 e0 51 4c bd 72 b1 e6 bd ab b4 cd bd 07 58 3e 3d
       -0.04988277 -0.11264314 -0.10044225 0.04647067
0002e0 8f d8 8c 3d 53 31 8a bd 5d 1e 0f 3c 01 ea 4a 3d
       0.06877243 -0.06747689 0.0087352665 0.04953957
0002f0 8d ea d7 bd 42 c9 8b 3d 4e 97 36 3d a1 57 32 3d
       -0.10542784 0.06825496 0.04457789 0.0435406
000300 df 20 93 3d fd 96 ab 3d cc 24 ae bd 40 ae 2c 3d
       0.07184004 0.08378408 -0.08503112 0.042158365
000310 10 5c cf bc eb 99 d2 bd 1d 68 5b bd b4 a6 c1 bc
       -0.025312454 -0.10283264 -0.053566087 -0.02363906
000320 28 7e 8d 3c 1e 30 f8 3d 51 27 b3 3b 9e 86 86 bd
       0.01727207 0.121185526 0.0054673334 -0.06568645
000330 c4 2d ae 3d 78 1d d4 3c 40 71 80 bb 8d 2d 92 3c
       0.08504823 0.025892958 -0.0039197505 0.017843986
000340 04 b5 9d 3d 3a 7f b8 3d 46 0c d6 3c 00 46 e8 bd
       0.077005416 0.090086415 0.0261289 -0.113414764
000350 09 fa fc 3c c8 8e 0f 3d 35 14 2e 3d 5c 5a f3 ba
       0.030880945 0.035048276 0.04249974 -0.0018566358
000360 48 f9 5c bd 76 55 db bd 07 da c8 bd eb 78 ce 3d
       -0.05394867 -0.1070966 -0.098072104 0.10081657
000370 8c da 5d 3d ae 37 c4 bd a8 50 fb 3d 66 3d 32 3c
       0.0541635 -0.095809326 0.12271243 0.010878896
000380 2c 4c e3 3d 21 90 bc bd af b7 d8 3d 4f 20 d5 3c
       0.11098513 -0.09207178 0.1058191 0.026016383
000390 17 ea 9d 3d 16 d3 69 3d 73 9f 2a 3c d9 05 5b 3d
       0.07710665 0.057086073 0.010413992 0.053472374
0003a0 1f 24 e1 bd 6c 73 c6 3d 4f 6e 71 3d 9e b3 ef bc
       -0.10993218 0.09689984 0.05894309 -0.029260453
0003b0 50 b3 47 bd 36 c1 0c 3d d5 d7 2d 3d ea 0d a7 bb
       -0.04875499 0.034363948 0.04244216 -0.005098094
0003c0 87 28 34 3c df 41 ef 3c ff ff fc bd 49 77 9f bd
       0.010995991 0.029206214 -0.12353515 -0.07786424
0003d0 e2 b9 d4 3c 3d 76 60 3d e5 c7 88 bc 1d 1c b1 bd
       0.025967542 0.05480026 -0.01669688 -0.0864794
0003e0 a5 c2 df 3c 70 53 89 3d 28 73 0c 3d f1 15 61 bd
       0.027314493 0.067053676 0.03428951 -0.054952566
0003f0 0a 29 bd 3c a8 a5 a0 bc 41 d5 c3 3d dc 44 fd bc
       0.023090858 -0.019610241 0.09562159 -0.030916624

actor.4.bias f4 [16]
000000 5f de 97 bc af b8 91 3d 2b 6c c1 bc ef 59 fa bd
       -0.018538652 0.07115304 -0.023611149 -0.12224185
000010 03 d9 71 bd 9d 8b 9f bd fe d3 eb bd f8 88 6a 3d
       -0.05904485 -0.07790301 -0.11515044 0.05725953
000020 f0 64 3d 3c 26 cb de bd 23 07 90 bc d0 10 74 bd
       0.01155971 -0.10878591 -0.017581528 -0.059586346
000030 82 1a aa bd 84 f7 86 3d 70 97 fd 3c f1 3f 64 bc
       -0.08305837 0.065901786 0.030956 -0.01393126

critic.0.weight f4 [128, 79]
000000 8a d2 7e 3c 59 96 7e bb 12 85 98 bd 59 93 15 bd
       0.015553126 -0.0038846938 -0.07447256 -0.036517475
000010 1b 02 08 bd fd 42 20 3a 8e 5d 8c bd 0e 0d 6b 3d
       -0.033205133 0.00061134977 -0.06853782 0.057385497
000020 e0 58 4b 3d bc fe 2a bd 30 de c4 3c ac 11 d8 bd
       0.049645305 -0.04174684 0.024031729 -0.10550246
000030 a0 9a ba 3d b0 33 1e bc d0 10 c5 3d f2 d4 ab 3d
       0.09111524 -0.009655878 0.09622347 0.083902255
000040 91 d1 73 bd a3 f6 3d bd 97 a1 3c 3a 37 18 ed bb
       -0.05952603 -0.04637779 0.00071957096 -0.0072355526
000050 51 c2 75 3d 8c 3a 9c 3d 0e ec 90 bd 77 70 b1 3d
       0.059999768 0.076283544 -0.07076274 0.08664029
000060 5c dc dc bd bf 62 b9 3d ec 57 eb 3c 08 2b af 3c
       -0.10784218 0.090520374 0.028728448 0.021382824
000070 1e 7e bc bc 00 3c c6 bd 19 17 3c bc 35 17 59 3d
       -0.023009356 -0.09679413 -0.011480116 0.053000648
000080 6c 8f 51 bd 38 bb c0 3d fa b5 91 3c cd ad dd 3d
       -0.05116217 0.09410709 0.017786968 0.108241655
000090 04 80 ae bc 99 c9 71 3c c8 08 ab bd a8 59 3f bd
       -0.021301277 0.014757537 -0.08351284 -0.046716362
0000a0 2e ba 93 3b 04 44 ae bd b7 4f c5 bd b6 a5 d0 3d
       0.0045082783 -0.08509067 -0.09634345 0.10187857
0000b0 8a 4e 97 bd ca 2c 58 bd d8 ff ae bc 94 c9 47 bd
       -0.07388027 -0.05277709 -0.02136223 -0.048776224
0000c0 ee 98 ba bd 32 a9 8e 3c f3 f4 7a 3d 8b cb ab bd
       -0.091112 0.017414663 0.061268758 -0.08388432
0000d0 a7 60 7b bd c9 77 2c 3d c7 9f d0 bd d5 40 38 bd
       -0.06137147 0.042106424 -0.10186725 -0.044983704
0000e0 70 0e 02 3d e7 d4 1d 3d 88 41 c7 3d 59 69 08 bd
       0.03175205 0.038533118 0.09729296 -0.033303592
0000f0 c0 7b 33 bc 72 85 92 bd a3 a7 b7 3d 4f 05 b9 bd
       -0.010954797 -0.07154359 0.08967521 -0.09034216
000100 28 54 6e 3b 4a b0 c2 3d 39 a7 e9 bd 5f b1 0e bd
       0.003636608 0.09506281 -0.11408848 -0.034837123
000110 ec 3a 11 3c 59 a4 f0 bc bf 2c c0 bc ba 06 9c bd
       0.008864146 -0.029375242 -0.023458837 -0.076184705
000120 53 93 98 bc dd d9 d2 bc 56 2c 63 3c 40 b8 6b bd
       -0.018624937 -0.025738651 0.013865551 -0.05754876
000130 96 a2 80 3d 41 f0 d3 3d 9c dd a6 bc eb 8f c7 bd
       0.06281011 0.10348559 -0.020369343 -0.09744247
000140 37 e3 7e bd 1a e5 2e 3c f0 24 b4 3c 1a 8f d6 3d
       -0.062228408 0.010674739 0.02199027 0.10476513
000150 66 79 27 bc a9 34 56 bb e0 a3 bd bc 4d 4e 52 bd
       -0.010221815 -0.0032685196 -0.02314943 -0.051344205
000160 11 3e b3 bd ed 70 65 bd ba b0 92 bd 02 e6 3a bd
       -0.087520726 -0.056015898 -0.07162614 -0.04562951
000170 68 c8 99 3d 00 dc c2 3c f6 0d 1b bd 4d ce b5 bd
       0.075089276 0.023786545 -0.03785511 -0.088772394
000180 cc 27 5c 3d ed 74 f7 3c fb ec 2f 3d d0 e5 4a bd
       0.05374889 0.030207122 0.04295061 -0.049535573
000190 25 61 03 bd 74 43 99 3d 07 7b 64 bd 95 9d dd 3d
       -0.032075066 0.07483569 -0.05578139 0.10821072
0001a0 94 dd e8 3d 5f 52 76 bd a0 a7 ce bd fd 2e b8 bd
       0.11370388 -0.06013715 -0.10090566 -0.08993337
0001b0 4b 06 db 3c ca 55 01 3d 43 5e 67 3d 85 1d 80 bc
       0.0267364 0.031575955 0.05648638 -0.015639076
0001c0 6b 23 c4 3d d2 3b c3 3d f5 a9 bf bd 0a f1 d2 bd
       0.09577068 0.09532894 -0.093585886 -0.10299881
0001d0 1d 58 57 3b 8a 69 f2 bc fc 6e fc bc a0 19 b6 bc
       0.0032858916 -0.02959134 -0.03081464 -0.022229016
0001e0 c9 83 91 bd 26 de 01 bc 7a 2f 26 bd b3 8a c2 3c
       -0.07105214 -0.0079264995 -0.04057262 0.023747778
0001f0 7b 89 df bd e6 bd 02 bc 3a 18 dc bd 68 2e 6a 3d
       -0.10914894 -0.007979846 -0.10746808 0.057173163
000200 3f 04 67 bd fa a2 9d 3d d4 23 c4 bd c3 70 b7 bd
       -0.056400534 0.07697101 -0.09577146 -0.089570545
000210 ab b5 a0 ba a5 b7 ba 3c c7 40 d5 3d 76 36 9a 3b
       -0.0012261173 0.022792647 0.10412746 0.0047061993
000220 19 61 a6 3d b0 20 8c 3d 62 99 d8 3c ee a2 00 3d
       0.08123989 0.06842172 0.026440326 0.03140538
000230 6d d5 cd bc 4a 12 27 bb 77 42 23 3d 18 9d b6 bd
       -0.025126183 -0.002549308 0.039858308 -0.08916682
000240 5a 25 70 3c 7c f3 16 bc fb f2 87 3d 8d 3b c1 bd
       0.014657343 -0.009213325 0.06638142 -0.094351865
000250 06 38 6d 3c 21 5f 30 3d 61 c5 99 bd d6 40 cf 3d
       0.014478689 0.043059472 -0.0750835 0.10119788
000260 2a ae ab bb f7 40 ad bd 6c da ad 3d a3 aa 67 3d
       -0.005239268 -0.08459657 0.08488926 0.056559216
000270 9b 33 8f bd f0 2d 92 bd d3 6e 8f bd 9f 3b 4e bd
       -0.06992265 -0.07137668 -0.0700356 -0.050349828
000280 cd 34 2e bd dd bf 4f bd de 15 be bd c4 6b 5e bd
       -0.042530823 -0.050720084 -0.092815146 -0.054301992
000290 8c 1a dc bd 45 db 2c bc 68 f5 a7 3d 11 a4 bf 3d
       -0.10747251 -0.010550325 0.082011044 0.09357465
0002a0 a7 52 d0 3d fe 20 8c bd ae ff c4 bd 61 42 cd bd
       0.10172015 -0.0684223 -0.096190795 -0.100224264
0002b0 32 3c 7d bd 7d 11 ac 3c b4 58 c0 3d e7 7f 4b 3d
       -0.061824985 0.021004433 0.09391919 0.049682524
0002c0 7b 6a af bd dc 4b ae bc 11 2d ba 3d ef f8 98 3d
       -0.085652314 -0.021276407 0.09090627 0.07469355
0002d0 c1 0f 78 3c 6c c9 50 3d 67 28 00 bd 29 2f 39 bd
       0.015140475 0.05097334 -0.03128853 -0.04521099
0002e0 cc f9 5f 3c ac 90 b1 bd f2 bd d1 bd a6 0c 31 3d
       0.013670396 -0.08670172 -0.10241307 0.043224953
0002f0 67 ad 3d 3d ca e0 c8 bd c8 7f 36 bd 0c 1f e9 bd
       0.046307947 -0.098085 -0.044555455 -0.11382875
000300 6d d2 6a 3d a3 95 c9 3d fb 52 a6 bc 7a 7b 82 bd
       0.057329584 0.09842994 -0.02030324 -0.063712075
000310 67 cd 84 bd f4 44 3c 3b 2c 0d d9 3d d7 d3 55 bd
       -0.0648449 0.0028727623 0.105982155 -0.05220398
000320 d3 31 b2 3c 00 77 d0 38 2c ee 2d 3d b2 2f d5 3d
       0.021752274 9.9403784e-05 0.042463467 0.10409488
000330 1d 1e 99 3d e6 cc 97 bc 6e 77 78 3c 5e 1b 48 bc
       0.07476447 -0.01853032 0.015165193 -0.012213556
000340 69 3b de 3b 61 74 43 bd 69 ff a3 bd 2c 82 bb 3d
       0.0067819846 -0.04771841 -0.080077 0.09155688
000350 d2 e8 15 bd 80 03 bc 3d 21 e7 4a 3d c1 e0 3b 3d
       -0.036598988 0.09180355 0.049536828 0.04586864
000360 a5 af 7b bd f1 6e ab 3d 55 75 52 bd d9 25 8e bd
       -0.061446805 0.0837077 -0.051381428 -0.069408126
000370 b4 a3 c8 3c a6 27 9f 3d c4 11 de 3d cb 37 bd bb
       0.024492122 0.07771234 0.10843232 -0.0057744733
000380 b1 59 56 3d 4c c9 d3 bc 29 19 ae bc 04 6d bc 3d
       0.05233163 -0.025852822 -0.021252232 0.092004806
000390 d5 f4 ac bd 1e d8 be bd fc a6 8c bd ea cc c4 bd
       -0.084451355 -0.09318565 -0.06867787 -0.09609397
0003a0 bb 38 a7 bd 69 43 2b bd 0f 3a d7 bd 2a 5d 80 3d
       -0.08165117 -0.041812334 -0.10509121 0.0626777
0003b0 b1 52 bb bc 0c ab 0a bd 9e ad 7f bd 46 38 99 3d
       -0.022866579 -0.03385453 -0.062421434 0.074814364
0003c0 17 94 36 bb 12 72 c5 ba 53 e3 9c 3d 2d 7a cb 3c
       -0.0027859265 -0.0015063903 0.07660546 0.024838531
0003d0 ae ea 95 bb a3 72 d2 bd 5a 94 1e 3d 5a d9 ce 3d
       -0.004575095 -0.102757715 0.038715698 0.1010005
0003e0 70 fb 19 3c 31 c2 e0 bd ec 90 2a 3d 24 66 d6 bd
       0.009398326 -0.10974539 0.041642115 -0.104687005
0003f0 f0 9f 4b bd 13 a0 9b bc 5e 7a 8a bd 32 ce c3 bc
       -0.049713075 -0.018997228 -0.06761621 -0.023902033

critic.0.bias f4 [128]
000000 61 f8 e7 3b 87 3f ae 3c 24 72 cb bb 46 09 ae 3d
       0.0070791696 0.021270527 -0.006208675 0.084978625
000010 de 12 d4 bd f7 f8 88 3c ae 95 ae 3d 6f 3a 9b bd
       -0.10355161 0.016720278 0.08524643 -0.07579505
000020 a3 71 bf 3d 62 16 13 3d 78 b7 d6 3c eb 56 9b 3c
       0.09347846 0.035910018 0.026210532 0.018962344
000030 d7 f1 df 3d 30 b4 dd 3d ee f8 da bd b1 39 73 bd
       0.10934799 0.10825384 -0.10692011 -0.05938119
000040 96 89 1a bc 2d a5 d0 3d a6 3d 90 3d 72 f4 9b bd
       -0.009432217 0.10187755 0.070430085 -0.076149836
000050 31 3d e3 3d 0c e1 26 3d 8c e1 c5 3d 9f 36 b9 bd
       0.11095656 0.040741965 0.0966216 -0.09043621
000060 97 69 4a 3c be 82 80 3d d8 27 b7 3d b2 ba 9c bd
       0.012354276 0.06274937 0.089431465 -0.07652797
000070 d9 48 49 3d cb 3d c2 3d 32 b9 a7 3d ae c9 d0 3d
       0.04914174 0.09484442 0.0818962 0.10194717
000080 c2 28 01 bd cc 85 12 3d 2f cf 2b 3d 1d 33 86 bd
       -0.03153301 0.03577213 0.041945633 -0.06552718
000090 9a a0 a7 3d 65 59 0a bd cb 1c 95 bd 28 41 b6 3d
       0.08184929 -0.03377666 -0.072808824 0.08899146
0000a0 15 11 8e 3d b7 db 91 bd 0d d6 da 3c 30 01 ca 3b
       0.06936852 -0.071219854 0.026713395 0.0061646923
0000b0 23 e8 15 3d f2 9f 3f 3d e9 e2 cd bc 20 b2 e1 3d
       0.036598336 0.046783395 -0.025132613 0.11020303
0000c0 fb cf ba 3d 59 65 c5 bd aa b7 43 3d 0d a0 1c 3c
       0.091217004 -0.09638471 0.047782578 0.009559643
0000d0 97 2d 87 3d f7 91 f6 bc 42 38 37 bc 17 68 6f bd
       0.066004924 -0.030098898 -0.0111828465 -0.058448877
0000e0 62 b9 53 bb a5 e9 d2 bd d5 36 ad bc 3f aa c8 3d
       -0.0032306542 -0.102984704 -0.02114431 0.09798097
0000f0 9e 45 e4 3d 47 05 79 bc 6a a3 b7 3c 5d 01 8f bd
       0.11146091 -0.015199012 0.02241679 -0.06982682
000100 d9 c2 2f 3d dc 13 d1 3d f0 5e 83 3d 50 53 65 bd
       0.04291043 0.10208866 0.06414592 -0.055987656
000110 84 1e e9 bd b5 80 e5 3c 68 29 b4 bd a7 47 d4 3a
       -0.113827735 0.028015474 -0.0879696 0.001619567
000120 4d 4d d9 bd 28 9c fc bb be 5c ba bd ab 8b ba bc
       -0.10610447 -0.007709045 -0.090997204 -0.022771677
000130 ab 4b 97 bc 05 53 51 3c 2f fa c6 bb 3b 00 62 bd
       -0.018468698 0.012776141 -0.0060723047 -0.055176
000140 15 03 5e 3d 39 36 d1 3c 2a f6 c4 3c 06 a0 8c bd
       0.054202158 0.02553855 0.024043161 -0.068664595
000150 43 a4 41 3d a9 b6 17 bc 3d 4c d2 3d 96 fd 57 3d
       0.047275793 -0.009259858 0.102684475 0.052732073
000160 e2 ac c3 3d f2 cd 53 3c e5 d3 a6 bd 85 c1 88 3d
       0.09554459 0.012927519 -0.081458844 0.06677536
000170 e1 5e a3 3d 7f 61 15 bc 09 75 0f bd 2d c0 cd 3d
       0.07977081 -0.009117483 -0.035023723 0.1004642
000180 36 51 37 bd 4a 42 5b 3d be ba d8 bc 11 48 bc bc
       -0.044755183 0.053530015 -0.026456233 -0.022983583
000190 14 95 a3 bd a5 5d be 3d 0e 29 b4 3c 52 5a 1e 3b
       -0.07987419 0.09295205 0.021992233 0.0024162722
0001a0 fb 07 bf 3c a6 3a ae bd f9 0f 4b 3d b1 76 93 bd
       0.023319235 -0.0850728 0.04957578 -0.07200373
0001b0 4a 82 be bc 87 8a 83 bd 86 81 6e 3d f7 d4 88 bd
       -0.023255486 -0.06422906 0.058228992 -0.06681245
0001c0 c3 30 b0 3d 0c 7a c9 3d 15 1d 81 bd 06 5e ad bd
       0.086030506 0.09837732 -0.06304375 -0.08465199
0001d0 be 66 c9 bd 4b c5 4f 3d 01 28 37 3d 25 06 58 bd
       -0.0983405 0.050725263 0.044715885 -0.052740235
0001e0 1a 2d 48 3d 38 b3 98 bd d4 b0 42 bc 13 f9 d0 3d
       0.048871137 -0.07456058 -0.011882979 0.10203757
0001f0 be bf 28 3d c2 68 c8 bc bf 06 bb bc 28 ab 1c bb
       0.041198485 -0.024464015 -0.022830365 -0.0023905728

critic.2.weight f4 [64, 128]
000000 fe 02 52 3d 98 92 b2 bd 0d b8 66 3c c1 bb ae 3d
       0.051272385 -0.08719367 0.014081967 0.08531905
000010 c2 9c 0c 3d 4f b7 9f 3d 06 a8 30 3d a1 59 9e 3d
       0.034329183 0.07798635 0.04312899 0.07731939
000020 7d 56 9b bd 18 a5 a6 bd 0b 2d 94 3d c5 d0 7b 3d
       -0.07584856 -0.08136958 0.07235154 0.061478395
000030 63 c8 8c bd 6b 28 f2 3c ab 49 3d 3d 3c 1d 8d bd
       -0.06874158 0.029560288 0.046212833 -0.06890342
000040 c1 5e ff ba d0 eb a0 bd 9f 05 cb bc 10 72 9e bd
       -0.0019483195 -0.07857478 -0.024782954 -0.077365994
000050 7f b4 87 bc b3 06 87 3d 70 e5 82 3d a3 76 90 3d
       -0.01656556 0.06593075 0.06391418 0.07053878
000060 86 45 93 3c 88 b8 e9 3c a0 db 0d 3c b0 70 6f 3c
       0.017977487 0.028530374 0.00865832 0.014614269
000070 19 31 9d 3a fd cd 27 bd 04 99 2b bd 2b 4b f5 bb
       0.0011992782 -0.04096793 -0.041893974 -0.0074857674
000080 7d 22 a9 3d 9a 9b e9 3b cf f6 1e bd 8d 14 ea bb
       0.08258531 0.007129145 -0.038809594 -0.007143563
000090 92 3a 52 3d da d1 37 bd b7 b9 80 bd c0 f7 38 bb
       0.05132539 -0.044877864 -0.06285422 -0.0028223842
0000a0 08 95 58 bd f2 83 75 bd d9 ed f8 3c 2f eb 86 bd
       -0.052876502 -0.059940286 0.030386852 -0.065878265
0000b0 a7 08 50 bd a7 03 d3 3c 1b 99 90 3b 75 71 a1 bd
       -0.0507895 0.025758578 0.004412783 -0.07882968
0000c0 d4 c2 a8 bd bb 5e 11 3c d8 3e 4b bd b0 7b 97 3d
       -0.082402855 0.008872683 -0.04962048 0.073966384
0000d0 5e 4d 4e 3d 6a 72 41 3b 82 e0 a9 3c 80 92 1c bc
       0.05036675 0.002951766 0.020736936 -0.009556413
0000e0 fc 9c 81 3b 54 97 91 bd 63 5b 9e 3d da e6 9d bc
       0.0039554816 -0.07108942 0.077322744 -0.019275118
0000f0 8e ca 21 3d ff bd 57 bd 83 da 2c 3d 56 82 33 bd
       0.03949981 -0.05267143 0.042200577 -0.04382547
000100 c2 9f ae 3d 9a aa 18 bc 3b da 8f bd ff 3e 98 3d
       0.08526565 -0.009318018 -0.07024046 0.074338906
000110 52 47 b4 bc b8 70 75 bc 9a 36 52 3d cf fb 24 bd
       -0.022006664 -0.0149804875 0.051321603 -0.040279206
000120 21 f3 b4 bd a7 10 b4 bb dd f7 90 3d 13 e6 1a 3d
       -0.08835436 -0.005495149 0.07078526 0.037817072
000130 35 d2 e6 3c b0 a9 17 3c 37 12 05 3d 6c c3 1d bd
       0.028176406 0.009256765 0.032488074 -0.038516447
000140 46 03 7e 3d 97 09 05 3b 13 7f 0c 3d f7 43 75 bd
       0.06201484 0.0020299905 0.034300875 -0.05987927
000150 5e 1c 94 bd af 89 89 3d 61 b1 0a bd 16 2d 9f bd
       -0.07231973 0.06715714 -0.033860568 -0.07772271
000160 91 fc a0 3d 5a 08 f8 bc a6 9d f7 bc 16 01 ed 3c
       0.07860673 -0.03027742 -0.03022654 0.028931182
000170 8c 1e 8d 3d b9 cf 80 bc 4d 49 ab bd d7 93 8b 3d
       0.06890592 -0.01572405 -0.083635904 0.068153076
000180 a1 5a a4 3d 24 3a 81 bd 05 52 03 3d a0 75 4b bb
       0.080250986 -0.063099176 0.03206064 -0.0031045452
000190 28 b3 1a 3c da 5e 91 3c c1 ec a9 bd d9 d7 00 bd
       0.009442128 0.017745424 -0.0829711 -0.03145585
0001a0 80 30 ad 3c 35 aa 75 bd d2 b3 21 bd 69 0b 55 3d
       0.02114129 -0.059976775 -0.03947813 0.052012835
0001b0 7c a7 30 bd 6e 59 88 bd d0 80 da 3b b4 b9 86 bd
       -0.043128476 -0.06657682 0.0066681877 -0.06578389
0001c0 50 6d 33 3c fa 35 7b 3d db 6f af 3d dc f3 62 3d
       0.010951355 0.061330773 0.085662566 0.055408344
0001d0 cd 63 0f 3d 47 58 a4 3d d3 fa 1b bd 93 b5 83 bd
       0.035007287 0.0802465 -0.038081 -0.06431117
0001e0 e0 ce ff 3c fb e5 75 bd dd 30 99 bd a6 21 91 3d
       0.031226575 -0.06003378 -0.07480023 0.07086496
0001f0 95 b1 02 3a e0 18 bf bc 97 02 66 3d 2c f9 03 3d
       0.0004985568 -0.023327291 0.056154814 0.03222005
000200 12 11 ab bd 12 28 3f 3d 03 7b 03 bd 2f db a5 3d
       -0.08352865 0.046669073 -0.032099735 0.080984466
000210 b0 b4 ea bc b8 eb 90 3d e1 d0 02 bd 66 e3 2c 3c
       -0.028650612 0.0707621 -0.031937484 0.010552263
000220 4c 3e 68 bc 05 ac 39 bc 5b dc 43 bd 89 1c ad 3c
       -0.014175009 -0.011332517 -0.04781757 0.02113177
000230 58 2d b7 bd 25 7c 24 3d cb 8e 49 3d 32 24 97 bd
       -0.089441955 0.040157456 0.049208444 -0.073799506
000240 59 a0 48 bd 45 bf aa 3d b8 78 5b 3d 10 76 b9 3c
       -0.048981044 0.08337263 0.053581923 0.022639304
000250 46 fe 81 bd 26 57 84 bd e5 00 52 3c 80 04 83 bd
       -0.06347327 -0.06461935 0.012817596 -0.06397343
000260 9d a5 60 bd 95 1f c0 bc b6 55 61 bc da d9 af bd
       -0.05484544 -0.02345256 -0.013753345 -0.08586474
000270 07 e7 4b bd 4b 05 89 bd 23 41 a2 bd 05 ac 9a 3b
       -0.04978087 -0.06690463 -0.0792258 0.0047202134
000280 db 6b 8f 3d 16 c5 96 bd 2b 1f 3c 3d 73 30 52 bc
       0.07002994 -0.0736181 0.04592816 -0.012828934
000290 05 67 5a 3d ab fe aa 3c 5d 8b 64 bd d6 52 9d 3d
       0.053320903 0.020873388 -0.05579697 0.07681815
0002a0 68 72 f5 3c 0d c8 50 bd f5 5b b2 3d 7c 40 3e 3d
       0.02996178 -0.050972033 0.08708946 0.046448216
0002b0 fc 67 94 3b 85 0b b9 3c ef 61 97 3d e7 37 36 3d
       0.0045289975 0.0225885 0.07391726 0.044486906
0002c0 30 5d a6 bd 36 c0 74 3d 58 7e 46 bd d2 00 af bd
       -0.08123243 0.05975362 -0.048460335 -0.08545078
0002d0 fa 74 91 3d 51 2a 79 bd e0 48 12 3d 38 20 a6 3d
       0.0710239 -0.06083137 0.03571403 0.08111614
0002e0 93 7b 84 3d 22 b4 ed bc 96 e4 01 3b 45 5b 8b 3a
       0.064688824 -0.029016558 0.0019820086 0.0010632059
0002f0 07 9b be 3b c9 1e 95 3d 00 77 c5 3c 01 bd 26 bd
       0.0058168205 0.072812624 0.024104595 -0.040707592
000300 5f 56 90 bd 16 e8 39 bd bd b7 30 3c 49 c1 a0 3d
       -0.07047724 -0.04538735 0.010785994 0.07849366
000310 bb 07 d6 3c 1a 24 a5 bc 66 0a 0e bd e1 43 62 bd
       0.026126733 -0.020158816 -0.034677885 -0.055240516
000320 af b1 5f bd c7 ab c6 3c ed fa 2e bd 84 48 a9 3d
       -0.05461281 0.024251832 -0.04271977 0.082657844
000330 48 6b ac 3d 42 25 7d bb 20 7d 75 3d 52 64 2d 3c
       0.084189 -0.0038626944 0.05993378 0.010583
000340 c4 2c b3 bd 57 23 86 3a 09 4b 22 3d ff f0 a9 bd
       -0.08748773 0.0010233921 0.03962234 -0.082979195
000350 a3 cc 8d 3d 71 58 8d 3d e0 63 6a 3d f3 42 54 bd
       0.06923797 0.069016345 0.057224154 -0.05182166
000360 6a 2e 6f 3d a6 ac 02 3c 27 da 7b 3d e6 b0 a3 3d
       0.058393873 0.007975733 0.061487343 0.07992725
000370 0f e3 21 bd 56 62 52 3d d7 c2 71 3b 33 a4 d0 3c
       -0.03952318 0.05136331 0.0036889815 0.025468921
000380 7e 70 2a bb 04 ef 51 bd 10 bb 85 3c fd 4f 89 3d
       -0.0026006992 -0.051253334 0.01632455 0.0670471
000390 1c 1a ab bd 4d 57 14 3d c8 74 5a bc 9f f7 a1 3d
       -0.08354589 0.03621607 -0.013333507 0.07908558
0003a0 79 f1 96 bd b6 43 83 3c 13 78 00 bd 9f 75 93 bd
       -0.07370276 0.016023498 -0.03136451 -0.07200169
0003b0 9a 37 ac 3d 2b 72 eb bc 9d 1d 87 3d 36 aa 68 3d
       0.08409043 -0.028740963 0.06597445 0.05680295
0003c0 7a 01 8f 3d 9b c2 81 bc 92 c3 a0 bd ac 73 08 3d
       0.069827035 -0.015839865 -0.07849802 0.03331344
0003d0 05 36 a4 bc c6 8c 48 bd d3 d6 9b bd 13 6d 8c bd
       -0.02004529 -0.048962377 -0.07609334 -0.06856742
0003e0 c6 86 c3 bc df 37 69 bd df 62 9f 3c b0 14 b4 3d
       -0.023867976 -0.05693805 0.019456325 0.08793008
0003f0 b6 e2 41 3d e5 5b 01 bd f0 62 bd bb 0d ba 95 bd
       0.04733535 -0.031581778 -0.0057796165 -0.07310877

critic.2.bias f4 [64]
000000 35 6d 8a bd 8a fa 3e bc 6a 54 32 bd 67 65 32 3d
       -0.06759111 -0.011656413 -0.043537535 0.043553736
000010 78 bb ab bd 95 59 3d 3d 8e d3 83 bd 3c 37 da bc
       -0.08385366 0.04622801 -0.06436835 -0.026637666
000020 e4 e2 9c bd 66 0d 88 3b 6b 19 0d bc 22 90 06 3d
       -0.076604635 0.004151988 -0.008612017 0.0328523
000030 d6 d3 a5 bd b5 62 8d bd 52 7b 3b 3d 40 6e 77 3d
       -0.08097045 -0.069035925 0.045771904 0.060407877
000040 53 46 94 3d 06 d6 e4 3c fd ee 9c bd 8e 2c 83 3d
       0.07239976 0.027934086 -0.07662771 0.064049825
000050 c1 65 5a bc d0 96 db bc 52 0a db 3c 00 75 1c bb
       -0.013329924 -0.026805311 0.02673832 -0.0023873448
000060 5a 60 9d 3d 22 45 95 bd fe f3 d5 bc c9 54 92 3d
       0.07684393 -0.07288577 -0.026117321 0.07145078
000070 73 d3 a1 bd 09 90 ed 3c 6a 15 9a 3d f0 3c a1 bc
       -0.07901659 0.028999345 0.07523616 -0.019682378
000080 6a 46 3b 3c ad 9f 27 bd da 38 6f bd bd b6 9b 3d
       0.011430362 -0.040923763 -0.058403827 0.07603214
000090 ba e4 7d 3b af 78 96 3d 58 94 13 3d 1c 97 88 bc
       0.0038741068 0.07347237 0.036030143 -0.016673617
0000a0 3b b5 69 3d 52 19 b0 bd c3 b5 89 3c 9f 79 8c bd
       0.0570576 -0.085985795 0.016810304 -0.06859135
0000b0 a5 16 96 3d e2 42 41 bc c0 41 05 3c 87 ac a4 bd
       0.07328538 -0.011795731 0.008133352 -0.080407195
0000c0 02 9c 6e bd 68 80 a0 bd 2d fe a7 bd 70 30 05 bd
       -0.05825425 -0.078369915 -0.08202777 -0.032516897
0000d0 0b 6c 14 bc 4b 87 ca bc ff f2 a5 3d 30 c2 b3 3d
       -0.009058963 -0.024722716 0.081029885 0.08777273
0000e0 92 93 97 bd ba 29 82 bd 86 c0 7d bc 40 bb 94 bc
       -0.07401194 -0.06355615 -0.015487796 -0.018155694
0000f0 9d 32 76 3d d0 84 01 3c 55 ea a5 3d a9 18 73 bd
       0.060106862 0.0079052 0.08101336 -0.05934969

critic.4.weight f4 [1, 64]
000000 10 82 dd bc 88 cd cf 3c 85 af 8a 3d 5c 17 e2 3d
       -0.027039558 0.02536656 0.06771759 0.11039612
000010 09 56 99 bd 97 67 ba 3d 8e 21 18 bb a5 83 87 3d
       -0.07487113 0.091017894 -0.002321336 0.06616906
000020 20 bb 15 bd 88 1b 3f bd 5f b3 e0 bb 88 9a 11 3d
       -0.03655541 -0.046657115 -0.00685732 0.035547763
000030 2b 9a a8 bc a5 6c 62 bc 9a 40 40 3d 15 69 f3 3c
       -0.020581326 -0.013819848 0.04693661 0.029713193
000040 6a fb be 3a 4b dc b0 3b c0 a6 6b bd 48 bb 64 bb
       0.0014570777 0.0053973547 -0.057532072 -0.0034901667
000050 79 aa b6 3d 8d 31 b6 3d e4 30 88 3d f3 90 c6 bd
       0.08919234 0.0889617 0.0664995 -0.096956156
000060 1d cb 96 3d 7a ae 48 3d c7 c8 74 3d 84 94 5e 3d
       0.073629595 0.04899452 0.05976179 0.054340854
000070 09 87 de bd 74 29 1b bd ac 2b de 3d e0 42 64 3c
       -0.108656 -0.03788133 0.108481735 0.01393196
000080 4e ab 5f bd 5b 5f bc 3d 49 9b 05 bd f4 ce e2 bd
       -0.05460673 0.09197875 -0.032618795 -0.110746294
000090 17 8f ba 3d 18 cd e1 3d 3e c2 b3 3d 6a 67 c1 3d
       0.091093235 0.11025447 0.08777283 0.09443553
0000a0 4a 3f 85 3d 60 17 90 bd 01 79 d1 bc 8e a3 ad 3d
       0.06506212 -0.070357084 -0.025570394 0.08478461
0000b0 d5 6d a5 3d bf fd a9 b9 3a 09 a1 bd cc b3 f6 3d
       0.080775894 -0.00032423247 -0.07863088 0.12046012
0000c0 e8 da d8 bc ac bf 8d 3c 60 f7 e2 bd 3a 5c b0 bd
       -0.02647157 0.01730331 -0.11082339 -0.08611341
0000d0 13 ff 55 3d 96 18 e1 3d 42 41 9d bc 76 4f 59 bd
       0.05224521 0.109910175 -0.019196156 -0.053054295
0000e0 de 97 c4 3d c5 24 1d bd a5 64 5f bd bc 1c de 3d
       0.09599279 -0.038365144 -0.05453934 0.108453244
0000f0 cd d6 aa bc e1 a1 99 3d a3 ad 9a bc 87 63 a8 ba
       -0.020854378 0.07501579 -0.018881625 -0.0012847044
