output/ppo_model.pth (torch, 159267 bytes, 11 tensors)

actor.0.weight f4 [128, 81]
0	0xbd927202	-0.071506515
1	0xbd17ef29	-0.037093315
2	0x3d42d97c	0.04757069
3	0xbdbb50db	-0.09146281
4	0xbd9b1439	-0.075722165
5	0xbd39b77c	-0.045341
6	0xbd206b1c	-0.039164647
7	0xbcfa5b48	-0.030561104
8	0xbca53f94	-0.020171918
9	0xbd39c8ee	-0.045357637
10	0xbd5d5467	-0.05403557
11	0xbdc6a125	-0.09698705
12	0xbd95b410	-0.07309735
13	0xbc19db28	-0.00939063
14	0xbdc3126c	-0.09524998
15	0x3da177db	0.07884189
16	0xbdbbf2ab	-0.091771446
17	0xbdf2ab83	-0.118491195
18	0xbd696209	-0.05697826
19	0xbc96d3a7	-0.01841147
20	0x3d0ae579	0.03391025
21	0xbd1ca3d0	-0.03824216
22	0xbd63437d	-0.055484284
23	0x3d4cebf5	0.050029714
24	0x3d796e54	0.060896233
25	0xbd35a4a7	-0.044346478
26	0xbddf3598	-0.10898894
27	0xbd6b2b80	-0.05741453
28	0x3d503939	0.05083582
29	0xbd0ef589	-0.03490213
30	0xbdb0823f	-0.086185925
31	0xbd6b4ff7	-0.057449307
32	0x3de5e0d4	0.11224523
33	0x3cd23ed7	0.02566473
34	0xbd1f812a	-0.03894154
35	0xbd5e831a	-0.054324247
36	0xbd09545b	-0.033527713
37	0xbd3f9588	-0.046773463
38	0xbcc6f189	-0.024285095
39	0x3d26ee10	0.040754378
40	0xbdcf41ed	-0.10119996
41	0xbd93b407	-0.07212072
42	0x3c7def01	0.0154988775
43	0xbd1f0264	-0.03882064
44	0xbbd2f0eb	-0.006437411
45	0xbd00d34c	-0.03145151
46	0xbdc03bf8	-0.09386438
47	0xbce74971	-0.028233262
48	0xbd48cd76	-0.049024068
49	0x3d7e811f	0.06213486
50	0x3d2fbba7	0.04290357
51	0xbde9f6fd	-0.114240624
52	0x3cb61071	0.022224637
53	0xbd808c4c	-0.062767595
54	0x3d822190	0.06354058
55	0x3d86b208	0.065769255
56	0x3bfddaf4	0.0077470485
57	0x3d560dbd	0.052259196
58	0xbd9b0c26	-0.075706765
59	0xbd92654c	-0.07148227
60	0xbd86f30e	-0.06589328
61	0xbaf0fa70	-0.0018385183
62	0x3d17e66f	0.037084993
63	0x3d27c3eb	0.040958326
64	0xbdb685f1	-0.08912266
65	0xbd90caf6	-0.07069962
66	0xbc0c1f7b	-0.008552427
67	0xbcf39a3e	-0.029736634
68	0xbbcff607	-0.0063464674
69	0xbc7b8add	-0.015352932
70	0xbda8be0b	-0.08239373
71	0xbd4c7a44	-0.04992129
72	0xbdb4c9ca	-0.08827551
73	0xbdbd3a87	-0.09239679
74	0x3dbd77c2	0.092513576
75	0x3d9102f3	0.07080641
76	0xbd1ad33f	-0.037799116
77	0xbdbab92c	-0.0911735
78	0xbd3f439e	-0.046695344
79	0xbd9a5a42	-0.075367466
80	0x3d6d6437	0.0579569
81	0x3dcda624	0.100414544
82	0x3dee129d	0.11624644
83	0x3dc194d9	0.094522186
84	0x3c847744	0.016170152
85	0x3d071d76	0.03298708
86	0xbd6eb94c	-0.05828218
87	0xbda16cf4	-0.07882109
88	0x3d1e818d	0.038697768
89	0xbdc2aa95	-0.09505192
90	0x3bfdd7b6	0.007746662
91	0x3dcf13de	0.10111211
92	0x3d6f829d	0.058474172
93	0x3be68d1e	0.0070358654
94	0x3d33ab1e	0.043864362
95	0x3dcff003	0.101532005
96	0xbdde63c7	-0.10858875
97	0xbd0d429c	-0.03448735
98	0xbcaa43e7	-0.020784331
99	0x3cd56f45	0.026054034
100	0x3d9ae4d8	0.0756318
101	0xbd40db60	-0.047084212
102	0xbd63c28c	-0.055605456
103	0xbda99e26	-0.082821175
104	0xbda9703e	-0.082733616
105	0xbcda5d91	-0.026655944
106	0xbdaf9850	-0.08573973
107	0xbdcf7a22	-0.10130717
108	0xbd1e46ce	-0.038641743
109	0xbc189908	-0.009313829
110	0xbd537c0e	-0.05163198
111	0x3dcb0623	0.0991328
112	0xbde5cc3d	-0.11220596
113	0xbcd1dedf	-0.025618969
114	0x3b6155a7	0.0034383328
115	0xbb8392f6	-0.004015322
116	0x3dc8e3ca	0.09809072
117	0x3d6d5a51	0.05794746
118	0x3ce6983d	0.028148765
119	0x3d0ccb86	0.034373783
120	0xbd87a69b	-0.06623574
121	0xbd8f8c15	-0.070091404
122	0x3cfdc9eb	0.030980071
123	0x3b50f33e	0.0031883265
124	0x3dfb0465	0.122566976
125	0x3da02717	0.07819956
126	0xbc0273b1	-0.007962153
127	0xbdb4ecf9	-0.088342614
128	0xbdc8f9c4	-0.09813264
129	0x3c8f318f	0.017479686
130	0x3da06a7b	0.078328095
131	0x3cda3e20	0.026640952
132	0x3dc8ab3c	0.09798285
133	0xbbcfa54b	-0.006336843
134	0xbd07b4c8	-0.03313139
135	0x3d10ce6d	0.035353113
136	0xbcf98789	-0.030460136
137	0xbd93a001	-0.07208253
138	0xbd8bac3e	-0.06819962
139	0x3db732cb	0.08945235
140	0x3c0e202c	0.008674663
141	0xbcba5e89	-0.022750156
142	0xbc7a2328	-0.015267171
143	0xbd8dd415	-0.06925217
144	0x3dac12fc	0.084020585
145	0x3d05d96b	0.03267805
146	0xbcd5c969	-0.026097016
147	0x3d512945	0.05106475
148	0xbd558009	-0.052124057
149	0x3d6c530f	0.0576964
150	0x3d4345bd	0.04767393
151	0xbda81794	-0.08207622
152	0x3dce4247	0.10071235
153	0xbda60793	-0.081069134
154	0xbd5db834	-0.054130748
155	0x3de610c8	0.112336695
156	0x3d75dd1c	0.06002532
157	0x3ade2f5c	0.001695137
158	0xbde95d66	-0.113947675
159	0xbca24205	-0.019806871
160	0xbcf62ca0	-0.030050576
161	0x3d7c8bb9	0.061656687
162	0x3da2a2d6	0.07941215
163	0xbd062a74	-0.03275533
164	0x3d3920d0	0.045197308
165	0x3ce6722a	0.02813061
166	0x3bff7972	0.00779646
167	0xbd86e8f5	-0.06587402
168	0xbdc993bd	-0.09842632
169	0xbde122eb	-0.10992988
170	0xbd1e73eb	-0.038684767
171	0xbc0a62e5	-0.00844643
172	0xbd38b7cf	-0.04509717
173	0xbd7ea586	-0.062169574
174	0x3dd9264f	0.1060301
175	0xbdca62d0	-0.09882128
176	0x3d16e7b6	0.03684207
177	0xbdcc4517	-0.09974115
178	0x3cbec39c	0.023286633
179	0xbd4483e0	-0.04797733
180	0xbd857a45	-0.06517462
181	0x3d846bc7	0.064658694
182	0x3bdd8b43	0.006760986
183	0xb9e6f405	-0.00044050827
184	0x3d64ad8a	0.055829562
185	0xbd49a5ae	-0.04923027
186	0xbcbcc6b0	-0.02304396
187	0x3dbb65aa	0.0915025
188	0x3d70d440	0.058796167
189	0x3ddcafe7	0.10775738
190	0xbd58a8fe	-0.05289554
191	0xbd2efa07	-0.042718913
192	0xbdb46dfd	-0.08810041
193	0xbd75d12c	-0.060013935
194	0xbcfddf39	-0.03099023
195	0x3dc3ee52	0.0956694
196	0x3d80c462	0.06287457
197	0x3d55d536	0.052205287
198	0xbd65a5c4	-0.05606629
199	0xbd1a9422	-0.037738927
200	0x3dbe31ca	0.0928684
201	0x3dbc3de2	0.09191491
202	0xbc07cf8b	-0.008289228
203	0xbc1be124	-0.009514127
204	0x3cd14933	0.0255476
205	0x3d37fc78	0.044918507
206	0xbd424114	-0.047425345
207	0xbd392b93	-0.04520757
208	0xbd6d0c9b	-0.05787335
209	0xbca55a41	-0.020184638
210	0xbd6835d8	-0.056691974
211	0x3c4ce325	0.012505327
212	0x3d0f74aa	0.03502337
213	0xbdd790f9	-0.10525698
214	0xbded62a1	-0.115910776
215	0x3dd92abf	0.10603856
216	0x3ae3779f	0.0017354375
217	0xbdbbf4e4	-0.091775686
218	0xbbc58c0e	-0.0060286587
219	0x3cb16ede	0.02165931
220	0x3da70cb1	0.081567176
221	0xbd70f9e7	-0.058832075
222	0x3dc9c10a	0.098512724
223	0xbbd207bf	-0.006409615
224	0xbc17a584	-0.009255771
225	0xbd89f5ae	-0.06736313
226	0x3db1b804	0.08677676
227	0xbe022e58	-0.12712991
228	0xbdbaac17	-0.09114855
229	0x3d814713	0.063123845
230	0x3d866dd1	0.065639146
231	0x3ddd531e	0.10806869
232	0xbd9a8fc3	-0.075469516
233	0x3b824718	0.00397576
234	0x3c5631aa	0.013073364
235	0x3d835467	0.06412583
236	0xbc8a70b4	-0.016899444
237	0xbde1c74b	-0.1102434
238	0xbd1b05c5	-0.0378473
239	0xbdc651f8	-0.09683603
240	0xbde40e2d	-0.11135516
241	0xbdb6f504	-0.08933452
242	0xbdab1fc7	-0.083556704
243	0x3d7a6afc	0.061137185
244	0xbdc36e22	-0.095424905
245	0xbca90206	-0.020630848
246	0xbddc25f3	-0.10749426
247	0xbc56cc70	-0.013110265
248	0xbd3fae6d	-0.046797205
249	0xbc6c6f5a	-0.014430845
250	0x3da2ec74	0.07955256
251	0x3cdc0b2e	0.0268608
252	0xbd1e9adc	-0.038721904
253	0x3ddacd1f	0.10683655
254	0x3dc8562c	0.09782061
255	0xbb731091	-0.0037088732

actor.0.bias f4 [128]
0	0xbd878777	-0.06617635
1	0x3dcf193b	0.10112234
2	0x3ccd2d30	0.025045961
3	0x3dc7ecf3	0.09761991
4	0x3de3a0d8	0.11114663
5	0xbbe74ecc	-0.007058954
6	0x3d956929	0.07295448
7	0x3cd99d55	0.02656428
8	0x3da96efe	0.08273123
9	0x3d9b89e0	0.07594657
10	0x3d681e0d	0.056669284
11	0xbc9b401c	-0.018951468
12	0xbde64b84	-0.11244872
13	0xbde18528	-0.11011726
14	0xbdc0c750	-0.09413016
15	0x3baabb98	0.005210351
16	0xbc8c4e26	-0.017127108
17	0xbd6c2c2a	-0.057659306
18	0xbd8bcc5c	-0.06826088
19	0x3d9d54b9	0.07682175
20	0xbdde0a16	-0.108417675
21	0x3db8eb60	0.09029269
22	0x3cc5d169	0.024147706
23	0xbd34524b	-0.044023793
24	0x3e089f9f	0.1334214
25	0xbd57426d	-0.052553583
26	0x3d8d1005	0.06887821
27	0xbd763f89	-0.060119186
28	0x3b4c11ac	0.0031138463
29	0x3dd910eb	0.1059893
30	0xbddf3e56	-0.109005615
31	0xbc32631f	-0.01088789
32	0x3d2bcab2	0.041941352
33	0xbd8511b8	-0.0649752
34	0xbd15559a	-0.03645859
35	0x3d9cc85f	0.07655405
36	0xbdd63516	-0.10459344
37	0xbc73ab48	-0.01487238
38	0x3db5df49	0.08880479
39	0x3d902490	0.07038224
40	0x3c8f3546	0.017481457
41	0xbd8ef1a7	-0.06979685
42	0x3da91699	0.08256263
43	0xbd9e3649	-0.07725198
44	0xbcce0e91	-0.02515343
45	0xbd1decb4	-0.038555816
46	0xbdcb3347	-0.0992189
47	0xbdc5fa70	-0.09666908
48	0x3c891364	0.016732879
49	0xbdab6f03	-0.08370783
50	0xbd7a55ca	-0.06111697
51	0x3cf138b2	0.02944598
52	0xbd2ea056	-0.042633377
53	0x3d13d85c	0.03609501
54	0xbd847df5	-0.06469337
55	0x3d5076b7	0.050894465
56	0xbd0f650c	-0.035008475
57	0x3d2f8f10	0.042861044
58	0x3ddf52b5	0.10904447
59	0x3d1bba66	0.03801956
60	0xbd77aded	-0.060468603
61	0xbc06086f	-0.008180722
62	0xbd871a22	-0.06596781
63	0xbda1e8f6	-0.07905762
64	0x3d2a6116	0.041596495
65	0x3d80a478	0.0628137
66	0xbd4d2aa6	-0.0500895
67	0x3c4e511f	0.012592583
68	0xbca1117f	-0.019661663
69	0xbd479cda	-0.04873357
70	0xbcdec935	-0.027195552
71	0x3bbb5217	0.005716573
72	0x3d44ecfd	0.048077572
73	0xbcb0768c	-0.021540903
74	0x3cea28e6	0.028583955
75	0xbd8e7385	-0.06955627
76	0xbdc2550f	-0.0948888
77	0xbd8abd6b	-0.0677441
78	0xbd8e8691	-0.0695926
79	0x3d77c558	0.060490936
80	0x3ca418f8	0.020031437
81	0xbdb9f58b	-0.09080037
82	0xbdb28436	-0.087166235
83	0xbd998186	-0.07495408
84	0xbd82f355	-0.06394068
85	0x3d99587e	0.07487582
86	0x3dc4eda9	0.096156426
87	0x3c426b82	0.011866452
88	0xbd914bc5	-0.0709453
89	0xbc8c6743	-0.017139083
90	0xbd81d9ac	-0.06340346
91	0x3ca00162	0.01953191
92	0xbc206cc6	-0.009791559
93	0x3d09933d	0.033587683
94	0x3db5fa37	0.08885615
95	0xbd755abc	-0.059900984
96	0x3dc441c2	0.09582855
97	0x3d7a2186	0.061067127
98	0xbd259e42	-0.04043413
99	0xbde1fac0	-0.11034155
100	0x3d88f545	0.066874065
101	0xbc8721ca	-0.016495604
102	0xbc4a167e	-0.012334464
103	0x3c833fba	0.016021598
104	0x3da5936b	0.08084758
105	0x3da0c141	0.0784936
106	0x3ddd69dd	0.108112074
107	0xbd9e734e	-0.077368364
108	0x3db22d68	0.08700067
109	0xbd5c9da2	-0.053861268
110	0x3c55bb4f	0.013045146
111	0xbc9f90f3	-0.019478297
112	0x3df87ec7	0.12133556
113	0xbdd6b5f0	-0.104839206
114	0x3d5710a0	0.05250609
115	0xbda29770	-0.07939041
116	0x3ce70560	0.028200805
117	0xbd9902fe	-0.07471274
118	0xbd1093fd	-0.035297383
119	0x3d9fe713	0.07807746
120	0x3d3ec3cd	0.04657345
121	0x3d8cdf23	0.068784975
122	0xbd2b84dc	-0.04187475
123	0xbcdf82a2	-0.02728397
124	0xbd7366e2	-0.05942429
125	0x3d5ef8a8	0.054436356
126	0xbd8d6ac4	-0.069051296
127	0x3d6338eb	0.055474203

actor.2.weight f4 [64, 128]
0	0xbbbc1a5a	-0.005740446
1	0x3ca8408c	0.02053859
2	0x3cda5181	0.026650192
3	0x3d9c24d8	0.07624215
4	0xbca9db40	-0.02073443
5	0xbd91133e	-0.07083748
6	0x3d811531	0.0630287
7	0xbd20e4a4	-0.03928055
8	0xbd727bdb	-0.05920015
9	0x3d197326	0.03746333
10	0x3b8eb9eb	0.0043556592
11	0x3ca70c40	0.020391583
12	0xbd71d5a4	-0.059041634
13	0xbc3bfd43	-0.0114739565
14	0xbd6fbc66	-0.05852928
15	0x3c7d0aa1	0.015444429
16	0xbc81d35e	-0.015847858
17	0x3d27e33a	0.040988185
18	0x3cda83eb	0.026674232
19	0x3d819a65	0.063282765
20	0x3d496944	0.049172655
21	0xbd408759	-0.047004078
22	0x3d5b5ef3	0.053557348
23	0xbd654602	-0.055974968
24	0x3cfdf32b	0.03099974
25	0x3ca56143	0.02018798
26	0x3da8f58a	0.08249958
27	0xbd9b5b4f	-0.07585775
28	0xbb8667d5	-0.004101733
29	0xbd2aefd4	-0.041732624
30	0xbd2cf21b	-0.042223077
31	0x3b959534	0.0045649055
32	0x3d3f2eda	0.04667554
33	0xbca10acf	-0.019658474
34	0xbcd8b5b9	-0.02645384
35	0xbd7d42cd	-0.061831284
36	0x3d1afb66	0.03783741
37	0xbc219950	-0.009863213
38	0x3c950413	0.01819042
39	0xbd93cb8b	-0.07216557
40	0xbdaa067e	-0.083020195
41	0x3d0b65f8	0.03403279
42	0x3d6a1bc1	0.057155374
43	0x3ce7febe	0.028319713
44	0x3cb2209b	0.021744063
45	0x3d10b5a9	0.035329495
46	0xbd8690d9	-0.06570596
47	0xbd0fd02f	-0.03511065
48	0xbcacaf6e	-0.021079745
49	0xbdd686c2	-0.10474922
50	0xbd818f65	-0.063261785
51	0x3d766a59	0.060160015
52	0xbcd1e195	-0.025620261
53	0xbd20a689	-0.03922132
54	0xbd8addda	-0.06780596
55	0x3d8dd6aa	0.069257095
56	0xbc8db373	-0.017297482
57	0x3c1c90f6	0.009556046
58	0xbd687d84	-0.056760326
59	0xbcb83d03	-0.02249003
60	0x3d953006	0.0728455
61	0x3db1b6f3	0.08677473
62	0xbd62d972	-0.055383153
63	0xbda014da	-0.07816477
64	0xbc664779	-0.014055126
65	0xbd0abd7a	-0.033872105
66	0x3db0e960	0.08638263
67	0x3d928167	0.07153588
68	0x3d4dcd72	0.050244756
69	0xbd23b747	-0.03996971
70	0x3db0978c	0.08622655
71	0x3d50ca59	0.050974224
72	0xbc3c854e	-0.011506392
73	0xbdb25293	-0.08707156
74	0x3c50a2ac	0.0127340965
75	0xbdb14acc	-0.086568445
76	0xbd06a4fa	-0.032872178
77	0xbb5e7a14	-0.0033947276
78	0xbd2468a0	-0.04013884
79	0xbd9fd320	-0.07803941
80	0x3dac75c7	0.08420902
81	0xbd4c0fa0	-0.04981959
82	0xbd860532	-0.0654396
83	0xbb180713	-0.0023197576
84	0x3bebe922	0.0071994225
85	0xbd6d8e19	-0.057996843
86	0x3d43afc1	0.047775034
87	0xbda46a39	-0.08028073
88	0xbc0e8926	-0.008699691
89	0x3dab442b	0.083626114
90	0xbd1377c7	-0.0360029
91	0x3b6f7b87	0.0036542134
92	0x3d7f9ed1	0.06240732
93	0x3d5ac6e2	0.053412326
94	0x3b882da6	0.0041558323
95	0xbc9f3a10	-0.019436866
96	0xbcada53f	-0.02119696
97	0x3d63abab	0.055583637
98	0x3c9d61b9	0.019211637
99	0xbda195a8	-0.07889873
100	0xbce85637	-0.028361423
101	0x3c5daed7	0.013530455
102	0x3cc77ee9	0.024352508
103	0xbc046168	-0.008079864
104	0x3d5ccc7f	0.05390596
105	0x3d4aa37b	0.049472313
106	0x3da1a08e	0.078919515
107	0xbd641acd	-0.05568962
108	0x3d3d2564	0.046178237
109	0xbcb30664	-0.021853633
110	0x3bca8790	0.006180711
111	0xbd540350	-0.05176097
112	0xbdb3ff57	-0.087889366
113	0x3beb6ca0	0.00718458
114	0x3d4c172d	0.04982679
115	0xbcfe8c30	-0.031072706
116	0x3c6e91e6	0.014561152
117	0x3d3f4e22	0.046705373
118	0xbdb14607	-0.08655935
119	0x3b1bb5f2	0.002375957
120	0x3d5fe418	0.054660887
121	0x3d91968d	0.071087934
122	0x3d86f415	0.06589524
123	0x3d390a2b	0.045175713
124	0x3da5a2f2	0.0808772
125	0xbd37e53d	-0.044896353
126	0x3d6a0312	0.057131834
127	0x3d5d69ed	0.054056097
128	0xbd6c09e2	-0.057626612
129	0x3d966aa7	0.07344561
130	0x3d6c56e7	0.057700064
131	0x3ce66f02	0.028129105
132	0x3d30b303	0.04313947
133	0xbd011d58	-0.031522125
134	0x3cc12710	0.023578197
135	0x3c1a79a2	0.009428414
136	0xbd720471	-0.059086267
137	0xbd03122e	-0.03199976
138	0x3d8c6be9	0.0685652
139	0x3d79c0de	0.060974948
140	0xba090297	-0.0005226521
141	0xbd1f289c	-0.038857087
142	0xbcd28155	-0.025696436
143	0xbdb19b4c	-0.08672199
144	0xbd0cb342	-0.03435064
145	0xbb75f3a2	-0.003752925
146	0xbb978c76	-0.0046248985
147	0x3d19e931	0.037575904
148	0xbd7f1fd0	-0.0622862
149	0x3d0a86e3	0.033820044
150	0x3c838edc	0.016059332
151	0x3cf873b3	0.030328607
152	0x3da0c96c	0.07850918
153	0x3b067315	0.0020515372
154	0xbd9992a8	-0.074986756
155	0x3cfb2159	0.03065555
156	0xbcb34a94	-0.021886148
157	0xbbe0d6cd	-0.0068615437
158	0x3c74325d	0.014904586
159	0x3d25af79	0.040450547
160	0xbcbbe6f2	-0.022937272
161	0x3dac8124	0.08423069
162	0x3d0178a6	0.0316092
163	0x3d276be5	0.04087438
164	0x3d071738	0.032981128
165	0x3c0b5028	0.008502997
166	0x3b3b7043	0.0028600849
167	0x3dcc6329	0.09979851
168	0x3cb2bb14	0.021817721
169	0x3d5c42e6	0.053774737
170	0x3c9c98cb	0.019115826
171	0xbdaaaca5	-0.083337106
172	0x3bdf0ec8	0.006807182
173	0x3d096005	0.033538837
174	0xbab7b44b	-0.0014015523
175	0xbd3388ca	-0.043831624
176	0x3d9ffe66	0.078121945
177	0x3d4c236c	0.04983847
178	0x3db1f051	0.08688415
179	0xbc892950	-0.016743332
180	0xbda87ea2	-0.08227278
181	0x3d65c51a	0.056096174
182	0x3d84d675	0.06486217
183	0x3da80526	0.08204107
184	0xbc831ed1	-0.016005905
185	0x3dabc19a	0.08386536
186	0x3d96a293	0.07355227
187	0xbd99f2ee	-0.07517038
188	0xbd89447c	-0.067025155
189	0xbd84c4ba	-0.06482835
190	0x3cf35f41	0.029708507
191	0x3da4094f	0.08009588
192	0xbd95864d	-0.073010065
193	0x3d0067c7	0.03134897
194	0x3b9e90d0	0.0048390403
195	0xbd220d6c	-0.03956358
196	0x3dae2439	0.08503003
197	0x3d97459d	0.073863246
198	0xbd0c52d4	-0.03425868
199	0xbda1fe72	-0.0790986
200	0x3cd31a34	0.02576933
201	0xbcbc6410	-0.022996932
202	0xbd63220c	-0.05545239
203	0x3d32c9b1	0.04364938
204	0x3cb8092d	0.022465313
205	0x3d62db7c	0.055385098
206	0x3c359884	0.011083726
207	0x3d7bed1f	0.061505433
208	0x3d96241e	0.073311076
209	0x3d256120	0.04037583
210	0x3d8b93f0	0.06815326
211	0x3ce6241e	0.028093394
212	0x3cf9849f	0.030458746
213	0x3d57011d	0.052491296
214	0xbd9cdf1a	-0.07659741
215	0xbdacd206	-0.08438496
216	0xbc633d7c	-0.0138696395
217	0x3d9d2b13	0.076742314
218	0xbd996051	-0.07489074
219	0x3d436db1	0.04771203
220	0x3d7a24a0	0.061070085
221	0xbc295033	-0.010334062
222	0xbd50daf0	-0.050990045
223	0xbd21c968	-0.039498717
224	0xbd5b5699	-0.053549383
225	0xbcee9b4b	-0.029126784
226	0xbcea5fd6	-0.028610151
227	0xbd23d97a	-0.040002324
228	0x3bf4aae3	0.0074666603
229	0xbd9c4a8d	-0.07631407
230	0xbd84619d	-0.06463931
231	0xbcdf3e81	-0.027251484
232	0xbc9ebc05	-0.019376764
233	0x3d4827da	0.04886613
234	0xbd317928	-0.043328434
235	0xbd979b8d	-0.07402716
236	0x3bcd946b	0.0062737963
237	0xbd4d6ebf	-0.050154444
238	0x3da81194	0.08206478
239	0xbda5c7ab	-0.08094724
240	0x3d4dc8e4	0.050240412
241	0x3d9cdd31	0.076593764
242	0x3d5f37e7	0.054496672
243	0x3c3d3fd4	0.011550862
244	0xbd50435b	-0.050845485
245	0x3d9b8286	0.07593255
246	0x3d3ad22c	0.04561059
247	0xbc41accd	-0.011820984
248	0xbcfffbb4	-0.031247951
249	0xbd98c0db	-0.07458659
250	0x3cae4ab4	0.021275856
251	0xbd629ea0	-0.055327058
252	0xbd082f1b	-0.03324805
253	0xbc63bc7b	-0.013899918
254	0x3c8318c0	0.016003013
255	0xbd4f5782	-0.050620563

actor.2.bias f4 [64]
0	0x3d513908	0.05107978
1	0x3d93082a	0.071792915
2	0x3d521925	0.05129351
3	0x3c954e57	0.018225832
4	0xbcc06ed3	-0.023490345
5	0xbd865b57	-0.065603904
6	0xbbda5a98	-0.0066636316
7	0xbd547dd7	-0.051877823
8	0x3d2ad90d	0.041710902
9	0x3ca08049	0.019592421
10	0x3d9bad22	0.07601382
11	0x3d87906b	0.066193424
12	0x3d99c61c	0.075084895
13	0xbd8ef705	-0.06980709
14	0xbc0fd79e	-0.0087794345
15	0xbcc37dae	-0.02386364
16	0x3dca5690	0.09879792
17	0xbc6ed9b4	-0.014578272
18	0xbd9663aa	-0.07343228
19	0x3d2a9cdb	0.041653495
20	0xbd9907b8	-0.07472175
21	0x3c6fb879	0.014631384
22	0x3d67366b	0.05644838
23	0xbd3e9064	-0.04652442
24	0x3d1a7f99	0.037719343
25	0xbcb729ea	-0.022358853
26	0x3daebd40	0.0853219
27	0xbcca6ae7	-0.024709178
28	0xbd63742f	-0.055530723
29	0xbd3d8392	-0.046268053
30	0xbdb4fd87	-0.08837419
31	0x3cecbb8d	0.028898025
32	0x3daee1cb	0.0853916
33	0x3bc4fdc2	0.0060116956
34	0xbcf64d75	-0.030066231
35	0xbd553d65	-0.052060504
36	0x3d90f5cf	0.07078134
37	0x3bd88ed4	0.0066088233
38	0x3d1ddc9e	0.038540475
39	0xbd7116f3	-0.058859777
40	0xbd542cf1	-0.051800672
41	0xbd6de633	-0.058080863
42	0xbd982db9	-0.07430596
43	0x3d244a3a	0.04010985
44	0xbd0e8a86	-0.034800075
45	0x3cd90eaf	0.02649626
46	0xbd2d09e9	-0.04224578
47	0x3cfaa5f6	0.030596714
48	0xbc675a46	-0.014120644
49	0x3cc22bd9	0.023702549
50	0xbd564535	-0.052312095
51	0xbd355874	-0.04427381
52	0xbd84cb57	-0.064840965
53	0xbd32196d	-0.04348128
54	0x3bf51817	0.0074796784
55	0xbd129c45	-0.03579356
56	0xbd9eae59	-0.07748098
57	0x3bc5906d	0.00602918
58	0x3d2d3949	0.04229096
59	0xbd4be76b	-0.049781244
60	0x3d6cc340	0.057803392
61	0x3d6451f5	0.055742223
62	0x3d447fbc	0.04797338
63	0xbd2ec147	-0.042664792

actor.4.weight f4 [16, 64]
0	0xbd967542	-0.07346584
1	0x3db3dd09	0.087823935
2	0x3d8e80d1	0.069581635
3	0x3daffeb3	0.08593502
4	0x3bc14e8d	0.0058992566
5	0x3ddca575	0.10773746
6	0xbb591913	-0.0033126518
7	0xbdbf0fd6	-0.09329192
8	0xbd9b059b	-0.075694285
9	0x3d569d43	0.05239607
10	0x3df2f013	0.11862197
11	0xbd4e8fb0	-0.05043
12	0xbdb9ec82	-0.090783134
13	0x3dd66c47	0.10469871
14	0xbd3cdd25	-0.046109337
15	0xbb33d0bb	-0.0027437645
16	0x3e161211	0.1465533
17	0xbc33ab65	-0.010966157
18	0xbcff2f80	-0.03115058
19	0xbd24834a	-0.04016427
20	0x3c875d41	0.01652396
21	0x3dc37521	0.09543825
22	0xbde3a142	-0.11114742
23	0x3d43090b	0.047616046
24	0xbdaf6a56	-0.08565204
25	0xbd5a5d81	-0.05331183
26	0x3d569eb9	0.052397463
27	0xbcc059af	-0.023480264
28	0x3cbc5d50	0.022993714
29	0xbda4b950	-0.08043158
30	0xbcbb99e0	-0.022900522
31	0x3dafad2f	0.08577954
32	0x3d253268	0.040331274
33	0x3d740270	0.059572637
34	0xbcd58e9e	-0.026068982
35	0x3ca7a458	0.020464107
36	0x3c079154	0.008274395
37	0xbc9dfdb9	-0.019286023
38	0x3d98b8bb	0.074571095
39	0xbdcb4dca	-0.099269465
40	0xbd1e3504	-0.03862478
41	0x3df2df54	0.11859003
42	0x3dabb1ce	0.08383523
43	0x3db81d50	0.08989966
44	0xbdaec748	-0.08534104
45	0x3e05c0c6	0.13061818
46	0xbd593a28	-0.053033978
47	0xbdbc3c1e	-0.09191154
48	0xbced5ef3	-0.02897594
49	0x3d9f8ae3	0.077901624
50	0xbd77351d	-0.060353387
51	0xbd4eb8e9	-0.050469313
52	0x3dbbd9b5	0.09172384
53	0xbd8b14cc	-0.06791076
54	0x3d4cddcc	0.05001621
55	0x3dfbc932	0.12294234
56	0xbb886f7a	-0.0041636797
57	0x3d872cd1	0.06600345
58	0xbdd0c64e	-0.101940736
59	0xbc8012ba	-0.01563393
60	0x3cbff5e4	0.02343268
61	0xbd73d2bc	-0.059527144
62	0xbd75fd15	-0.06005581
63	0xbdcfc9e7	-0.10145932
64	0xbd9588fd	-0.07301519
65	0x3c0ef4f4	0.008725394
66	0x3dbe4c1f	0.09291863
67	0x3d3a71a2	0.045518525
68	0xbd11a177	-0.035554375
69	0xbdc3a5dc	-0.095531195
70	0xbdc3d837	-0.09562724
71	0xbd08e83b	-0.033424597
72	0xbd7fbed0	-0.062437832
73	0xbcf6e848	-0.030140057
74	0x3aabdc40	0.0013111904
75	0x3cd5838e	0.026063707
76	0x3d8dacfc	0.0691776
77	0x3c8b5ce2	0.017012063
78	0xbc9c6d3b	-0.019095054
79	0xbdeeaf4d	-0.1165453
80	0x3d82fb9a	0.063956454
81	0x3d1b5103	0.037919056
82	0xbd73f144	-0.05955626
83	0x3d98e50b	0.074655615
84	0x3c08c647	0.008348054
85	0xbdf7d26d	-0.121006824
86	0x3d97553d	0.07389305
87	0xbdacb1f8	-0.08432382
88	0x3ddbf6d0	0.10740435
89	0xbd86fde2	-0.06591393
90	0xbda69db5	-0.08135549
91	0xbdaf9656	-0.08573596
92	0xbd9482ac	-0.07251486
93	0xbd37e8d1	-0.044899765
94	0xbd468450	-0.048466027
95	0xbd5741b1	-0.052552883
96	0x3dd7645e	0.105171904
97	0x3c92064b	0.017825266
98	0x3c341457	0.0109911775
99	0x3b8b8902	0.004258276
100	0x3d7dd092	0.061966486
101	0xbda1d667	-0.07902222
102	0x3deeb46d	0.11655507
103	0x3d7c43c6	0.06158807
104	0xbd859bbb	-0.06523844
105	0x3de00958	0.10939282
106	0x3d78f541	0.060780767
107	0xbda356ee	-0.07975565
108	0x3c2dbcab	0.010604064
109	0x3da22577	0.07917302
110	0x3dae09a7	0.08497935
111	0xbd34a2be	-0.044100516
112	0xbd5cbd6f	-0.053891595
113	0xbd1f52f0	-0.038897455
114	0xbaea07c0	-0.0017855093
115	0xbdb7fe6b	-0.08984073
116	0xbdb4c4bb	-0.08826586
117	0x3c88a224	0.016678877
118	0x3d1f538c	0.038898036
119	0xbd8016ff	-0.06254386
120	0x3bc09407	0.0058770212
121	0xbcccc960	-0.024998367
122	0x3d418675	0.04724737
123	0xbd3e9765	-0.0465311
124	0xbdafae9a	-0.085782245
125	0x3c7fc753	0.015611487
126	0x3c8abfe8	0.016937211
127	0xbd8722e1	-0.065984495
128	0x3d8dcf41	0.06924296
129	0xbd7d93e6	-0.061908625
130	0x3d556cea	0.05210582
131	0xbda5dbce	-0.08098565
132	0xbd8d5685	-0.06901268
133	0x3c4b4830	0.012407348
134	0x3d8c50e5	0.06851367
135	0xbd0144c6	-0.031559728
136	0x3c4a63c0	0.012352884
137	0x3d98a13b	0.07452627
138	0x3d9bc41b	0.076057635
139	0x3cb8f696	0.022578519
140	0xbd3636ee	-0.04448598
141	0xbd53ca12	-0.05170638
142	0x3cc7560d	0.024333024
143	0x3c929996	0.017895501
144	0xbc45a7da	-0.012063945
145	0xbce45711	-0.027873548
146	0xbda17e02	-0.07885362
147	0x3ddce057	0.10784977
148	0x3d2ebcc0	0.042660475
149	0x3dbb2e8f	0.0913974
150	0x3c9f6dfc	0.019461624
151	0xbd8d171a	-0.06889172
152	0xbd0385a8	-0.032109886
153	0x3b17747e	0.0023110206
154	0xbdb8e121	-0.09027315
155	0xbc06be2b	-0.0082240505
156	0x3d55ae9b	0.05216847
157	0xbd9c2ea3	-0.07626083
158	0xbd97cff7	-0.07412713
159	0xbde853be	-0.113440976
160	0x3c80ff08	0.015746608
161	0x3caaa507	0.020830644
162	0xbdd84889	-0.1056071
163	0x3de70376	0.11279957
164	0xbd166e1c	-0.036726102
165	0x3c8a58d9	0.016888069
166	0xbe036654	-0.12832004
167	0x3daf3f37	0.08556979
168	0xbd9fc9d0	-0.078021646
169	0xbda808aa	-0.082047775
170	0xbda8862a	-0.08228715
171	0xbd66050c	-0.056157157
172	0x3c5fe64e	0.013665749
173	0x3a0b58b5	0.00053156476
174	0xbda44796	-0.080214664
175	0x3de4eec8	0.111783564
176	0xbd2caf06	-0.042159103
177	0x3da648ff	0.08119392
178	0x3cdb7eb6	0.026793819
179	0x39a50802	0.0003147722
180	0x3d1b0f94	0.037856653
181	0xbde1c499	-0.11023826
182	0x3da2013c	0.07910392
183	0x3bdf7a1d	0.006819977
184	0x3bfb25d0	0.0076644197
185	0x3daf8a8d	0.08571348
186	0xbdfc748a	-0.123269156
187	0x3d67b11b	0.056565385
188	0xbd2a8b7a	-0.04163692
189	0xbdd56b6f	-0.10420882
190	0xbe0747c7	-0.13210975
191	0xbda371b2	-0.0798067
192	0xbdd4e6c7	-0.1039558
193	0x3df970ca	0.12179716
194	0xbdf4b1ba	-0.11947961
195	0xbd7213bd	-0.059100855
196	0x3ddd59b4	0.10808125
197	0x3db9aa82	0.09065725
198	0xbe02e32b	-0.1278197
199	0xbdc817e9	-0.097701855
200	0x3d29ee98	0.041487306
201	0x3d51db77	0.05123469
202	0xbc099ca5	-0.008399163
203	0x3c2792be	0.010227857
204	0x3d7d9b5a	0.061915733
205	0xbdccc304	-0.09998134
206	0xbcc5de4c	-0.024153851
207	0x3da7b2d6	0.08188407
208	0xbd15ea0b	-0.036600154
209	0xbdf8310e	-0.121187314
210	0x3d8eb76c	0.06968579
211	0x3dec8343	0.11548474
212	0xbd81d362	-0.06339146
213	0xbdd86402	-0.1056595
214	0xbcf047d7	-0.02933113
215	0x3dc117c6	0.094283625
216	0xbd7f950b	-0.062397998
217	0x3d00eede	0.0314778
218	0xbd2ecc54	-0.04267533
219	0x3d73911c	0.05946456
220	0xbd2980ab	-0.041382473
221	0xbd400c85	-0.04688694
222	0xbd0374ec	-0.032093927
223	0x3df77207	0.12082296
224	0x3d6a99ec	0.057275698
225	0xbd94e67f	-0.07270526
226	0xbd0225cb	-0.031774323
227	0xbd23918c	-0.039933726
228	0x3ce47400	0.027887344
229	0x3dba8aa5	0.091084756
230	0x3cf231a6	0.02956469
231	0xbd486b3c	-0.04893039
232	0x3df11b1a	0.11772747
233	0x3d77adbc	0.06046842
234	0xbd963b47	-0.07335525
235	0x3d555394	0.05208166
236	0xbdf87522	-0.12131716
237	0x3d9295e8	0.071574986
238	0x3d80666e	0.06269537
239	0x3dd3f447	0.103493266
240	0x3cb54c3b	0.022131076
241	0xbd76dacf	-0.060267266
242	0x3d9829c2	0.0742984
243	0xbdeeec7b	-0.11666199
244	0xbdd9e7c3	-0.10639908
245	0x3db15979	0.08659644
246	0x3b4dcacf	0.00314014
247	0x3d9545c4	0.07288697
248	0xbd49662c	-0.049169704
249	0xbd169523	-0.03676332
250	0x3d65684f	0.05600768
251	0x3dc6a3f7	0.096992426
252	0x3c11b963	0.008894297
253	0xbd11cb92	-0.03559453
254	0x3dba2dfc	0.09090802
255	0xbd86fbe2	-0.065910116

actor.4.bias f4 [16]
0	0x3e063448	0.13105881
1	0xbdf80f5d	-0.12112305
2	0xbdb74c25	-0.0895007
3	0x3d82963b	0.063763104
4	0x3db3ce1b	0.08779546
5	0x3d29648d	0.04135566
6	0xbddd5dc0	-0.10808897
7	0x3ad343d4	0.0016118237
8	0x3d51ee39	0.051252577
9	0x3daeabee	0.08528887
10	0xbdaf0275	-0.085453905
11	0xbe0a41c1	-0.13501646
12	0x3d8d1f85	0.068907775
13	0xbd4f7c27	-0.05065551
14	0xbda70a21	-0.08156229
15	0x3cfc6e23	0.030814236

critic.0.weight f4 [128, 81]
0	0xbd9d7441	-0.07688189
1	0xbd8130a2	-0.06308104
2	0xbd534433	-0.05157871
3	0xbdc0c17d	-0.09411905
4	0xbd49132e	-0.049090557
5	0x3b95c42a	0.0045705037
6	0xbcd60212	-0.026124034
7	0xbc8fffaa	-0.017577965
8	0x3cc2d1d2	0.02378169
9	0xbae1c862	-0.0017225856
10	0xbdcbe122	-0.0995505
11	0xbd8e6cc9	-0.06954343
12	0x3dcc0b1b	0.09963056
13	0xbd020fe4	-0.031753436
14	0x3d694632	0.05695171
15	0x3d8f9cef	0.070123546
16	0x3db91f21	0.090391405
17	0x3d4073fb	0.046985608
18	0xbd9c13e5	-0.07620982
19	0x3c031389	0.008000263
20	0xbd3dcc57	-0.04633745
21	0x3bae1595	0.0053126314
22	0x3d1798a9	0.037010822
23	0xbd346430	-0.04404086
24	0x3dcb95f7	0.09940713
25	0xbd275ffe	-0.04086303
26	0xbdc4374a	-0.09580858
27	0x3d796643	0.06088854
28	0x3d903bdd	0.07042668
29	0x3ce8bef3	0.028411364
30	0xbd9cc6da	-0.076551154
31	0x3ddc8f68	0.1076954
32	0xbd828df5	-0.063747324
33	0x3cf58a94	0.029973306
34	0x3ae61339	0.0017553336
35	0xbc9b15c6	-0.01893128
36	0x3bcc4565	0.0062338584
37	0x3c3cb315	0.011517306
38	0xbdc34a4e	-0.09535657
39	0x3d31322b	0.043260735
40	0xbd5cf4b0	-0.05394429
41	0xbd94857e	-0.07252024
42	0x3da347ac	0.07972655
43	0x3d8436f5	0.06455795
44	0x3b05546a	0.0020344504
45	0xbbe17336	-0.0068801893
46	0x3dd404c9	0.10352475
47	0x3d8e8a6c	0.069599956
48	0xbd883df6	-0.06652443
49	0x3d760003	0.060058605
50	0x3de1a66d	0.11018071
51	0xbd841d16	-0.0645086
52	0x3de06ffc	0.10958859
53	0xbd255cad	-0.040371586
54	0xbdabfe40	-0.08398104
55	0x3d1238ff	0.035698887
56	0xbd895723	-0.06706073
57	0xbdc2a28d	-0.0950366
58	0x3d892ddd	0.06698201
59	0x3d93f737	0.07224887
60	0xbdcf8710	-0.10133183
61	0x3d059b05	0.03261854
62	0xbd813871	-0.063095935
63	0x3d267b15	0.040644724
64	0x3b8e2d06	0.0043388633
65	0xbd978dae	-0.0740007
66	0x3cb75cbf	0.022383092
67	0xbcdd4bf7	-0.027013762
68	0x3dbd7f2f	0.09252774
69	0xbda26eea	-0.079313114
70	0xbd3bdf88	-0.045867473
71	0xbd774659	-0.060369823
72	0x3ac383b0	0.0014916565
73	0xbd48e99d	-0.049050916
74	0x3dae735d	0.085180975
75	0xbcbeba38	-0.023282155
76	0x3ce3c4a9	0.027803736
77	0xbdb64fc9	-0.089019366
78	0x3d636898	0.05551967
79	0x3dd20f05	0.10256771
80	0xbdb27057	-0.087128334
81	0xb9901e46	-0.00027488376
82	0x3c560887	0.0130635565
83	0x3d99594b	0.074877344
84	0x3d688084	0.056763187
85	0xbcb3201a	-0.021865893
86	0x3d876b10	0.066122174
87	0xbcbb4c03	-0.022863394
88	0x3db2a5f4	0.08723059
89	0x3d91087c	0.070816964
90	0xbdd59c2f	-0.1043018
91	0xbdbaa8b2	-0.09114207
92	0xbdccea32	-0.10005607
93	0x3ca65170	0.020302504
94	0xbdaaeebb	-0.083463155
95	0x3dab54cb	0.08365782
96	0xbdb23676	-0.08701794
97	0x3d697e9e	0.057005517
98	0x3ddd3f48	0.108030856
99	0x3dbb6b4c	0.09151325
100	0xbc921d52	-0.017836247
101	0x3db74de2	0.08950402
102	0x3cce3267	0.025170518
103	0xbd84dd5e	-0.06487535
104	0xbda945a1	-0.08265234
105	0xbba82277	-0.0051310617
106	0xbd6057e1	-0.054771308
107	0x3c8d5ade	0.017255243
108	0xbd4ab04c	-0.049484536
109	0xbda72d3f	-0.08162927
110	0x3c8a0109	0.016846197
111	0x3cb2b507	0.021814836
112	0xbc8ca6ed	-0.01716944
113	0x3dd92c5f	0.10604166
114	0x3d291bc3	0.04128624
115	0xbd85b22d	-0.06528125
116	0xbda724ed	-0.0816134
117	0xbd402353	-0.046908688
118	0x3c4c23a8	0.012459673
119	0x3c484ddd	0.012225595
120	0x3dd7d851	0.10539306
121	0x3dc32721	0.095289476
122	0xbc8ce46d	-0.017198766
123	0xbdc98335	-0.09839479
124	0xbda17f60	-0.07885623
125	0x3deb685d	0.11494515
126	0x3daabc69	0.08336718
127	0xbb5e8e6e	-0.0033959406
128	0x3dc118ea	0.0942858
129	0xbc012614	-0.007882614
130	0xbd68daf7	-0.056849446
131	0x3d4b23b7	0.049594607
132	0xbdbc7244	-0.09201482
133	0x3c0d87c3	0.008638325
134	0xbd182db9	-0.03715298
135	0x3cb77240	0.022393346
136	0x3dcc2286	0.09967522
137	0x3dbfb8aa	0.09361394
138	0xbd97c2d9	-0.07410211
139	0x3d922fad	0.07138
140	0x3d8396ed	0.06425271
141	0x3d85c038	0.065308034
142	0x3de745c6	0.11292605
143	0x3d4a8eef	0.04945272
144	0x3dc5f301	0.0966549
145	0xbdd73ec2	-0.10510017
146	0xbcd6d52d	-0.026224697
147	0x3c2cb11e	0.010540275
148	0x3d8e42c3	0.069463275
149	0x3dac1975	0.08403293
150	0xbdb259db	-0.08708545
151	0x3d7bbb00	0.061457634
152	0xbdba14fc	-0.09086034
153	0xbc437e29	-0.011931934
154	0xbc9380a2	-0.018005673
155	0xbca60a0d	-0.020268464
156	0x3d65b88d	0.056084204
157	0xbd5019cd	-0.050805856
158	0x3b469ccf	0.0030305868
159	0xbddf3df8	-0.109004915
160	0xbdd25f2f	-0.10272061
161	0xbcd98233	-0.026551342
162	0xbcb320fd	-0.021866316
163	0xbda21c2b	-0.07915529
164	0xbccff388	-0.02538468
165	0x3d85b827	0.06529265
166	0xbda54f63	-0.080717824
167	0xbd1573fd	-0.03648757
168	0x3cb2a5c5	0.02180756
169	0xbc87a4fe	-0.016558167
170	0x3dc4b517	0.09604853
171	0xbc2a3be9	-0.01039026
172	0xbd8179ef	-0.06322085
173	0x3d6b9aa0	0.05752051
174	0xbdd1dadc	-0.10246822
175	0xbd0b2cf2	-0.03397841
176	0x3cfb4584	0.030672796
177	0xbde38839	-0.11109967
178	0x3c2f7e70	0.010711297
179	0xbdbbc874	-0.09169093
180	0xbdcce5f4	-0.100047976
181	0xbdc7641e	-0.09735893
182	0xbdb8e7d7	-0.09028595
183	0xbd4022cb	-0.04690818
184	0x3cbce8dd	0.023060257
185	0xbd662469	-0.056187067
186	0xbd018fa6	-0.031631134
187	0xbd6d9a47	-0.05800846
188	0x3da83b93	0.08214488
189	0x3c3826d6	0.011239728
190	0x3da34d53	0.07973733
191	0x3d93a437	0.07209056
192	0x3d9f9c27	0.077934556
193	0xbdc3244c	-0.095284075
194	0x3d8351c9	0.06412084
195	0xbda6b36f	-0.08139693
196	0x3da6f9a9	0.08153088
197	0x3de9cc0f	0.11415874
198	0xbd7f851e	-0.06238281
199	0xbd3b49fd	-0.045724858
200	0xbc5f7700	-0.013639212
201	0x3d46e1f7	0.04855534
202	0xbdd33507	-0.103128485
203	0x3da884f3	0.08228483
204	0xbd3b5ec8	-0.045744687
205	0xbd436087	-0.047699478
206	0x3c30d07d	0.010791895
207	0xbd8d6eb4	-0.069058806
208	0xbc0c8a77	-0.0085779345
209	0x3d20cbe4	0.039256945
210	0x3da7a12d	0.08185039
211	0x3ca80eb7	0.02051483
212	0x3ce0959a	0.027415086
213	0xbd98ed48	-0.07467133
214	0x3dd58f8c	0.1042777
215	0xbd30575a	-0.043052055
216	0xbd301f24	-0.042998448
217	0xbd984591	-0.07435144
218	0xbd049f3f	-0.03237843
219	0xbd37f191	-0.04490811
220	0x3d40fdc8	0.047117025
221	0xbd797db6	-0.060910903
222	0x3d9896ee	0.074506626
223	0x3dc10666	0.094250485
224	0xbcd0fdc6	-0.025511634
225	0x3daa7a0c	0.0832406
226	0xbdbec8ea	-0.09315665
227	0xbdb4bfad	-0.08825622
228	0x3d0a9ae1	0.03383911
229	0x3db6f8b4	0.08934155
230	0xbd257ca7	-0.04040208
231	0xbda45cd7	-0.0802552
232	0x3d5e855e	0.054326408
233	0xbd35624b	-0.044283193
234	0xbda0142e	-0.07816349
235	0x3d21b10c	0.039475486
236	0x3c97670a	0.01848175
237	0xbd824f86	-0.06362824
238	0xbdd79b2d	-0.10527644
239	0xbdc2f565	-0.095194615
240	0xbd2c5fe9	-0.042083655
241	0xbdb441a0	-0.088015795
242	0xbdc01732	-0.09379424
243	0xbd2a114c	-0.0415204
244	0x3d977ef0	0.07397258
245	0x3c44a1ad	0.012001437
246	0x3c33ec01	0.010981561
247	0xbc0a3cf7	-0.008437387
248	0x3dac57eb	0.084152065
249	0x3db64005	0.088989295
250	0xbde5d55a	-0.11222334
251	0x3dc9f3cd	0.098609544
252	0x3dc8acc7	0.0979858
253	0x3d895738	0.06706089
254	0xbd1592cc	-0.03651695
255	0x3c8a1b25	0.016858647

critic.0.bias f4 [128]
0	0x3d3c5d4f	0.045987424
1	0xbd164460	-0.0366863
2	0xbd3435d5	-0.04399665
3	0xbc8c6d3e	-0.017141934
4	0xbd104d73	-0.03523011
5	0x3db1231a	0.08649273
6	0xbd264d9a	-0.04060135
7	0xbd5b4c21	-0.0535394
8	0x3d53ac0f	0.05167776
9	0x3c017768	0.007902004
10	0x3d637c73	0.055538606
11	0x3dbaed08	0.091272414
12	0xbdb66737	-0.089064054
13	0xbdbe608d	-0.09295759
14	0x3da9f774	0.08299151
15	0x3d940106	0.07226758
16	0x3c633ac7	0.013868994
17	0xbac5e564	-0.0015098271
18	0xbc86e957	-0.016468687
19	0x3dcabbd6	0.09899108
20	0x3d75773b	0.05992816
21	0x3db2191a	0.08696194
22	0x3daddf2f	0.084898345
23	0x3da2689d	0.0793011
24	0xbdcef8ac	-0.10106024
25	0x3dc00199	0.09375305
26	0xbd3e19ab	-0.046411198
27	0x3dc64ddf	0.096828215
28	0xbdbb9702	-0.09159662
29	0x3b1ac326	0.0023614853
30	0x3d44ad24	0.048016682
31	0xbdcab892	-0.09898485
32	0xbcfae8d4	-0.0306286
33	0xbd2d5d21	-0.042325143
34	0xbd9d1926	-0.07670812
35	0x3cca1516	0.024668258
36	0x3d045b82	0.03231383
37	0x3b6505b4	0.0034946026
38	0xbaff4633	-0.0019475877
39	0x3d482417	0.048862543
40	0xbbab37a6	-0.0052251397
41	0x3cdb20e3	0.02674908
42	0x3c3d335a	0.011547888
43	0xbc759f80	-0.014991641
44	0xbd8176f0	-0.06321514
45	0x3db0f75e	0.086409315
46	0xbd1bdf29	-0.03805462
47	0xbcd0d22d	-0.025490845
48	0xbd46d574	-0.04854341
49	0x3d36ca75	0.04462667
50	0xbd709ae9	-0.058741484
51	0x3c83d12c	0.016090952
52	0xbd32e2ed	-0.043673445
53	0x3d7b57d7	0.061363067
54	0x3dbb09e1	0.091327436
55	0xb9fd8b08	-0.00048359507
56	0x3dd8d56d	0.10587583
57	0xbd531bb8	-0.051540107
58	0xbc346e76	-0.011012664
59	0x3dadc3be	0.084846005
60	0xbdc6d0f9	-0.09707827
61	0x3c4916a2	0.0122734625
62	0x3dd2e2c0	0.102971554
63	0x3d983395	0.074317135
64	0x3ccd3d47	0.025053633
65	0xbdaa0106	-0.083009765
66	0xbafd84c0	-0.0019341931
67	0xbca3719e	-0.019951638
68	0x3d657592	0.056020327
69	0xbd9cd1f3	-0.07657232
70	0xbd9cdb47	-0.07659011
71	0xbc47745d	-0.012173739
72	0xbd8d80ef	-0.06909358
73	0x3cacf723	0.021113938
74	0xbdbefd93	-0.09325709
75	0xbcdda6ac	-0.027057014
76	0x3ced9a43	0.029004222
77	0xbcd93a26	-0.026516985
78	0xbab2e4df	-0.0013648531
79	0xbd8bc1cd	-0.06824074
80	0x3da063d7	0.07831543
81	0xbd7bd4a3	-0.061482083
82	0xbd974a81	-0.07387257
83	0xbda714e5	-0.08158282
84	0xbc9fb84d	-0.019497061
85	0x3b3d6988	0.0028902013
86	0x3de12ca0	0.1099484
87	0x3dcaed13	0.099084996
88	0x3c2c4454	0.010514338
89	0xbd662f18	-0.056197256
90	0xbd71f404	-0.059070602
91	0xbca61e39	-0.020278083
92	0xbdc6ac0b	-0.09700783
93	0xbd888b7b	-0.06667229
94	0xbd50b8a0	-0.050957322
95	0xbd8ca5ab	-0.06867536
96	0xbdcb3897	-0.09922903
97	0xbd031f35	-0.032012183
98	0xbcdf37f2	-0.027248356
99	0x3dadef38	0.08492893
100	0xbdce007c	-0.10058686
101	0xbd994405	-0.07483677
102	0x3cf6ab06	0.030110847
103	0xbb6117ab	-0.0034346383
104	0xbccd4712	-0.025058303
105	0xbcc2531d	-0.023721272
106	0xbd9a3b43	-0.075308345
107	0x3dae1dff	0.08501815
108	0x3dd9e2d4	0.10638967
109	0x3c60f28c	0.013729703
110	0x3d6ec6d6	0.058295093
111	0xbd83dab5	-0.064381994
112	0x3c73c4e8	0.014878489
113	0xbdbb5dba	-0.09148736
114	0xbd3c011a	-0.045899488
115	0xbdbc9934	-0.09208909
116	0xbd9a8493	-0.07544818
117	0xbde26307	-0.11054044
118	0xbdc2fb7a	-0.095206216
119	0xbda0bdd4	-0.07848707
120	0xbc18a798	-0.009317301
121	0x3daf1566	0.08549003
122	0xbc983c5a	-0.018583465
123	0x3d96c9e4	0.07362726
124	0xbd59e22d	-0.053194214
125	0xbdb30f6c	-0.08743176
126	0xbdddbf66	-0.10827522
127	0x3b5ff04b	0.0034170325

critic.2.weight f4 [64, 128]
0	0x3cdbcd2a	0.026831228
1	0x3c84bb23	0.016202515
2	0x3cef9452	0.02924553
3	0x3d8d8e35	0.069118895
4	0xbc030111	-0.00799586
5	0x3d3de5fd	0.046361912
6	0x3d9af609	0.07566459
7	0x3d548544	0.051884905
8	0x3d7274d9	0.059193466
9	0xbd938e43	-0.07204869
10	0x3d1a9f21	0.037749413
11	0x3d9e92b8	0.07742828
12	0xbd9ee69c	-0.07758829
13	0xbd5ba14f	-0.053620633
14	0x3d46f1f7	0.0485706
15	0xbd06c3ea	-0.032901682
16	0xbd43f92e	-0.04784506
17	0x3d192e8e	0.037397914
18	0x3d659436	0.056049548
19	0x3d811095	0.06301991
20	0xbc66035d	-0.014038888
21	0x3d8da041	0.06915332
22	0xbccc94a8	-0.024973229
23	0xbd9f2b9f	-0.07771992
24	0x3cd4e5a2	0.025988404
25	0xbb57a1e6	-0.0032902895
26	0x3c1be1ac	0.009514254
27	0x3d99e843	0.075150035
28	0xbd807750	-0.06272757
29	0x3d975ce4	0.07390764
30	0xbce7591c	-0.028240733
31	0x3d2dbcce	0.042416386
32	0x3d51f0df	0.051255103
33	0x3da8625d	0.08221886
34	0xbc72c525	-0.014817511
35	0x3cce81e0	0.025208414
36	0x3da7b1ec	0.08188233
37	0xbb4d4bd5	-0.0031325717
38	0xbd8d0016	-0.06884782
39	0x3d1ef438	0.038807124
40	0xbd5e4802	-0.05426789
41	0xbcb3523b	-0.021889796
42	0x3d7745a6	0.060369156
43	0xbd9e7959	-0.07737989
44	0xbc04a8ab	-0.008096854
45	0xbd9da3bd	-0.07697246
46	0xbd99f69e	-0.075177416
47	0xbc319f4a	-0.0108412
48	0x3d148144	0.03625609
49	0xbd99999a	-0.075
50	0xbb273808	-0.0025515575
51	0xbdab7ee3	-0.08373811
52	0xbc0b2e83	-0.008494976
53	0xbb4f6c3d	-0.0031650208
54	0x3d18b6f9	0.03728387
55	0x3d8b9f22	0.068174616
56	0xbd0a9551	-0.033833805
57	0xbd841985	-0.0645018
58	0x3af1fd99	0.0018462419
59	0xbd1b5d5a	-0.037930824
60	0x3d9910c7	0.07473903
61	0x3ad29a36	0.0016067687
62	0xbd895e02	-0.06707384
63	0x3d91a3d4	0.07111326
64	0xbd9d3b2e	-0.07677303
65	0xbd2a2747	-0.041541364
66	0xbd53e2d3	-0.05172999
67	0xbda6bbdc	-0.081413
68	0xbd864f0c	-0.06558046
69	0xbda49372	-0.080359355
70	0xbd2ebfbc	-0.04266332
71	0xbcc6d6ff	-0.02427244
72	0xbc21bc98	-0.009871624
73	0x3da1ce08	0.079006255
74	0x3d04387d	0.032280434
75	0xbd06ccd2	-0.032910176
76	0xbc47f047	-0.012203283
77	0xbd1480c3	-0.03625561
78	0x3cbeb31a	0.023278762
79	0xbd9f2c3e	-0.077721104
80	0xbd16889c	-0.036751375
81	0xbd56f1a4	-0.05247654
82	0xbd2d983e	-0.042381518
83	0xbd979f81	-0.0740347
84	0x3d83d684	0.064374
85	0xbdab48e9	-0.08363516
86	0xbbe084a1	-0.006851748
87	0x3d4b7eb6	0.049681388
88	0xbda913b4	-0.08255711
89	0x3ae7817c	0.0017662491
90	0x3d92aa3b	0.07161375
91	0xbc830243	-0.01599229
92	0xbd7dd777	-0.06197306
93	0xbd996017	-0.07489031
94	0xbd91f63e	-0.07127045
95	0x3d5d89ba	0.054086424
96	0x3b76f7b8	0.0037684273
97	0x3cf3baa5	0.029752085
98	0xbd86e220	-0.06586099
99	0xbd1a8b68	-0.037730604
100	0xbda720bf	-0.08160543
101	0x3d92753b	0.07151266
102	0x3cecadae	0.02889141
103	0x3d589fb6	0.052886687
104	0xbd8efca4	-0.06981781
105	0x3d2ac263	0.041689288
106	0xbd46bac3	-0.048517954
107	0x3d195974	0.037438825
108	0x3d914a2b	0.070942245
109	0x3d7ca2ce	0.0616787
110	0x3d347f1a	0.044066526
111	0xbc52c25e	-0.012863724
112	0x3d8a798c	0.067614645
113	0xbc800b7c	-0.015630476
114	0xbcfd63a4	-0.030931301
115	0x3da71453	0.081581734
116	0xbdaa5228	-0.08316451
117	0x3c95115c	0.018196754
118	0xbd9c3d18	-0.0762884
119	0xbca54f6f	-0.020179478
120	0xbd03fded	-0.032224584
121	0x3aa34757	0.0012457174
122	0xbd1564ec	-0.0364732
123	0xbbb8d462	-0.0056405524
124	0xbc0dda80	-0.0086580515
125	0xbd56c981	-0.052438263
126	0xbbba2bc4	-0.005681487
127	0xbd647586	-0.05577614
128	0xbd62d48e	-0.05537849
129	0xbcff52c4	-0.031167395
130	0xbdb54058	-0.08850163
131	0xbd9dfe7d	-0.077145554
132	0x3d3278b7	0.043572154
133	0x3c8be065	0.017074773
134	0xbd8a0090	-0.067383885
135	0xbd8843aa	-0.06653531
136	0xbd82ec87	-0.0639277
137	0x3dab3705	0.083601035
138	0x3cd9ddb3	0.026594972
139	0x3ce94a72	0.028477881
140	0xbd59eee0	-0.053206325
141	0x3d947b75	0.0725011
142	0x3d6ab760	0.057303786
143	0xbd462ddb	-0.048383575
144	0x3b760835	0.0037541513
145	0x3d879cbb	0.06621691
146	0xbc85488f	-0.01626995
147	0x3cca3ad0	0.024686247
148	0xbd915fce	-0.070983514
149	0x3d18bbe8	0.037288576
150	0xbdb53218	-0.08847445
151	0x3d8380e8	0.06421071
152	0x3cf133c3	0.029443627
153	0x3d3b9ec6	0.045805715
154	0x3d28269d	0.04105245
155	0xbd9ef10a	-0.07760818
156	0x3d9752ea	0.073888615
157	0xbd81b37b	-0.06333061
158	0x3d7d59cb	0.06185321
159	0xbd04cfb5	-0.032424647
160	0x3b239359	0.0024959652
161	0xbb06c169	-0.0020562059
162	0xbbe937b7	-0.0071172374
163	0xbcfac011	-0.030609163
164	0xbda0f1ff	-0.07858657
165	0x3d79beb1	0.060972873
166	0xbc07a138	-0.008278184
167	0x3d04e116	0.03244122
168	0xbc6ea59f	-0.014565854
169	0xbc913422	-0.017725054
170	0xbd917f58	-0.07104367
171	0xbc7596cc	-0.014989566
172	0x3d726285	0.059175987
173	0x3caa06cb	0.020755192
174	0xbd9dde7a	-0.0770845
175	0x3d31698e	0.043313555
176	0xbcd66a2d	-0.026173675
177	0xbc8928d4	-0.016743101
178	0xbd92ae53	-0.07162156
179	0x3cc7dc31	0.024396988
180	0xbcab7e2d	-0.020934189
181	0xbd98a14d	-0.07452641
182	0x3d2ad0a0	0.041702867
183	0xbc16c477	-0.009202114
184	0x3d4ff2e7	0.05076876
185	0x3da5b3f1	0.08090962
186	0xbdc63d21	-0.09679628
187	0x3d610b36	0.054942332
188	0x3bcd4d38	0.0062653087
189	0xba912aee	-0.0011075416
190	0xbadc2c01	-0.0016797782
191	0x3c8e9911	0.017406972
192	0x3d19c92c	0.037545368
193	0x3d128d19	0.035779092
194	0x3c8e0e0f	0.017340688
195	0x3cfe829c	0.031068139
196	0x3d848b35	0.06471864
197	0x3d8d4dd1	0.06899608
198	0xbc69ee8c	-0.014278065
199	0xbcfd601f	-0.030929623
200	0x3cc75a9b	0.024335196
201	0x3aad095f	0.0013201645
202	0xbcdaf01f	-0.026725827
203	0x3d99297d	0.074786164
204	0xbc3cfa9c	-0.011534359
205	0xbd83f625	-0.06443433
206	0x3d4466d8	0.047949642
207	0x3d1b2781	0.03787947
208	0xbd5b92f9	-0.05360696
209	0xbd47fa19	-0.048822496
210	0x3b158240	0.002281323
211	0x3cbc0525	0.022951672
212	0x3d82f4d6	0.06394355
213	0x3cea0db0	0.02857098
214	0x3db7c97c	0.08973977
215	0x3a304956	0.0006724795
216	0x3d8ffd16	0.07030694
217	0xbdb0745c	-0.08615944
218	0x3cef8608	0.029238716
219	0x3d4e1561	0.050313357
220	0xbb835670	-0.004008107
221	0x3d8d9673	0.069134615
222	0x3c7afd6a	0.015319208
223	0xbd7d469f	-0.061834928
224	0xbd5a1773	-0.05324502
225	0x3c89fcb8	0.016844139
226	0x3d8025a0	0.062571764
227	0x3db5d60b	0.08878716
228	0xbcbbe88d	-0.022938037
229	0x3d78f316	0.0607787
230	0x3d3ea6ba	0.04654572
231	0xbd9fc1f3	-0.07800665
232	0xbcb199a2	-0.021679703
233	0xbca94e7f	-0.020667313
234	0xbd8762ad	-0.06610618
235	0x3daf0c9a	0.085473254
236	0xbd305c07	-0.043056514
237	0x3da541e7	0.080692105
238	0x3ca8fb8b	0.020627758
239	0x3d5d6365	0.054049868
240	0x3ce574fc	0.028009884
241	0xbdbfaabf	-0.09358739
242	0xbc04b527	-0.008099831
243	0xbd9d81cc	-0.076907724
244	0x3d6d1aa5	0.05788674
245	0xbcaf5e45	-0.021407256
246	0xbd051cbf	-0.032498118
247	0xbcd0a3ed	-0.02546879
248	0xbcc75cc6	-0.02433623
249	0xbd9195cb	-0.07108649
250	0x3d7ee44a	0.062229432
251	0xbd032649	-0.032018933
252	0x3d72844f	0.05920821
253	0xbd3f49d6	-0.046701275
254	0x3b06435a	0.0020486922
255	0x3d024ad5	0.031809647

critic.2.bias f4 [64]
0	0xbc6f22dc	-0.0145957135
1	0x3d5a10f9	0.053238843
2	0xbd07db62	-0.033168204
3	0x3d647b87	0.055781867
4	0x3d814ffa	0.063140824
5	0xbda1f77e	-0.079085335
6	0x3d1a6ab5	0.03769942
7	0x3b0b0502	0.0021212702
8	0xbd01b08b	-0.031662505
9	0xbd86f36b	-0.06589397
10	0xbcaf68b0	-0.021412224
11	0x3d433d67	0.04766598
12	0xbd80b236	-0.06283991
13	0x3d14534a	0.036212243
14	0x3d7ecbdb	0.06220613
15	0x3d11ccf0	0.035595834
16	0xbacd0886	-0.0015642799
17	0x3db36642	0.087597385
18	0xbd298e30	-0.041395366
19	0x3d429c60	0.047512412
20	0xbd5087aa	-0.05091063
21	0xbd7dfe0f	-0.062009867
22	0x3db2a5bd	0.08723018
23	0xbce45240	-0.027871251
24	0xbd942e5d	-0.072354056
25	0xbd148785	-0.036262054
26	0x3c67c56c	0.01414619
27	0x3c985a65	0.018597791
28	0x3c9feb1c	0.019521289
29	0x3d635010	0.055496275
30	0xbd882fea	-0.06649764
31	0xbd2c8157	-0.042115536
32	0x3dbe8c08	0.093040526
33	0xbd6bfa73	-0.057611894
34	0xbd640e65	-0.05567779
35	0xbdb5bc4c	-0.088738054
36	0xbc83134f	-0.016000418
37	0x3d41142e	0.047138385
38	0x3da8e581	0.082468994
39	0x3d274197	0.040834036
40	0xbda689d5	-0.08131758
41	0xbd8ba081	-0.06817723
42	0x3d955b51	0.07292808
43	0x3d73f9dc	0.059564456
44	0xbd53d39f	-0.05171549
45	0x3cb21477	0.021738274
46	0xbc96d809	-0.01841356
47	0x3d920269	0.07129366
48	0xbd2980e6	-0.041382693
49	0x3db432d2	0.08798756
50	0xbdada081	-0.08477879
51	0xbd3b098b	-0.045663398
52	0x3c39cadf	0.011339872
53	0x3d428775	0.047492463
54	0xbd1ae23f	-0.03781342
55	0x3c831da4	0.016005345
56	0xbcc964f0	-0.024584264
57	0x3c95dd52	0.01829401
58	0xbcc35a9f	-0.023846922
59	0xbd2d8b2d	-0.042369056
60	0xbd05fd4e	-0.032712273
61	0x3a2d5f5a	0.0006613635
62	0xba910013	-0.0011062644
63	0xbd167900	-0.03673649

critic.4.weight f4 [1, 64]
0	0xbdfaf6dd	-0.12254117
1	0x3d154fb6	0.03645297
2	0x3dc8713d	0.097872235
3	0xbc934cc8	-0.017980948
4	0x3d9004bd	0.07032154
5	0x3d8e9846	0.069626376
6	0xbda4b138	-0.08041614
7	0x3ca626f8	0.020282254
8	0xbd562d6d	-0.052289415
9	0xbd8db29f	-0.06918835
10	0x3d587374	0.05284448
11	0x3d395476	0.045246564
12	0xbda26b36	-0.07930605
13	0x3e003fd3	0.12524347
14	0xbdacd040	-0.08438158
15	0x3cfecd3e	0.031103726
16	0x3dea00f4	0.11425963
17	0xbdfbdb3b	-0.12297674
18	0x3d6d02cb	0.05786399
19	0xbd2f8d42	-0.042859323
20	0xbd2917e5	-0.041282553
21	0xbd3e8700	-0.046515465
22	0xbd673f55	-0.056456883
23	0xbdb0f0b0	-0.086396575
24	0x3dbe897c	0.09303567
25	0x3dfc647e	0.12323855
26	0x3df8c857	0.12147587
27	0x3da5d1c1	0.08096648
28	0xbdd767ef	-0.10517871
29	0xbd228162	-0.03967417
30	0xbd6aceef	-0.057326254
31	0x3de1d9ee	0.11027895
32	0xbdab6f9c	-0.08370897
33	0xbdaa2074	-0.08306971
34	0x3dfb92d2	0.12283863
35	0x3dfe2517	0.12409418
36	0x3c0cd1dd	0.008594957
37	0x3d8f6726	0.07002096
38	0x3d22c481	0.039738182
39	0xbdd5621f	-0.10419106
40	0x3db864b5	0.09003583
41	0xbd082fa6	-0.033248566
42	0x3deb2d05	0.11483196
43	0xbd7c6d2a	-0.061627544
44	0xbd2cbd1d	-0.04217254
45	0xbdf38cb6	-0.11892073
46	0xbd2eb428	-0.04265228
47	0x3c69c874	0.014268983
48	0xbd92a71f	-0.07160782
49	0xbc943841	-0.01809323
50	0xbd205b7b	-0.039149743
51	0xbdc166da	-0.094434455
52	0xbdbfbc57	-0.09362095
53	0x3d8d8926	0.069109246
54	0xbcf7cd9d	-0.030249411
55	0xbd9dc419	-0.07703418
56	0x3d410a16	0.04712876
57	0x3d76cd43	0.060254347
58	0xbde7b12c	-0.1131309
59	0xbccd6177	-0.025070889
60	0xbd7c002a	-0.061523594
61	0x3ca6dcbe	0.02036893
62	0x3d61144a	0.05495099
63	0x3cf42097	0.029800696
