output/ppo_model.pth (torch, 159267 bytes, 11 tensors)

actor.0.weight f4 [128, 81]
00000000: 8270 c0bd 3819 0abd 0666 3e3d cf0a 02bd
00000010: 6452 6dbd dd7c 343d b612 dcbd cf78 053c
00000020: 976a 083c 73e6 8cbc e787 e03d d5c4 33bd
00000030: c3a8 ccbc 4759 d23d 003c e93b 3804 443c
00000040: 5c4e c3bd d026 a7ba 48c8 c0bd 3d23 8abd
00000050: de3c 9dbd db58 eaba 1309 adbd e8ac b33d
00000060: a334 b63b ae76 013d 088e c43c e51c bebd
00000070: 9a64 ae3d 032f 4b3d 83b5 683d 2f85 8cbd
00000080: 5361 413d bbee e03d 2e5a cabd bef6 c33d
00000090: d84d 973d 987b d3bc e4b8 73bd 70d2 6f3c
000000a0: a258 b43d fa38 bb3d 37ec a1bd ff75 9d3d
000000b0: 040d 823d 0a00 c8bd 6dcf 6ebd 43f8 aebd
000000c0: adcc 7ebc 86d4 a4bd 4fea 52bd a343 083d
000000d0: 2b87 85bd 5fb7 05bd 46cb c43d bf3a 85bd
000000e0: 38ef 4dbd a348 2cbd 0b7a b5bd 7e2c 83bc
000000f0: d879 d13d 4b9c 68bb c732 4c3d 66b7 cfbd
00000100: af37 11bd 616c 1bbd 62c5 f53d 3dd4 d8bd
00000110: 209a 423b d8da aa3d fbec 97bb 873b 023d
00000120: c867 bdbd 68c8 c6bd c40c 333d 796f 6ebd
00000130: 0444 ee3d aa44 0d3c d1cf ea3d 4708 803c
00000140: c12f 153b 6660 87bd 4f61 183d e9b5 62bd
00000150: 5fed b93d ad71 053d 2037 9b3d cb3a 84bc
00000160: e19e 1fbd ff4f b3bd 59ca c6bd ca22 27bd
00000170: ec5b c03c 59eb b8bd 5774 b93d fc97 a23c
00000180: 8084 81bc bc9d a43c 9405 983d 7b02 ae3d
00000190: f0dc 803d cc91 ce3d fea5 7e3c 534f 883c
000001a0: c76a c8bd a3b8 5ebd 8987 873d 6750 c2bd
000001b0: 0ba7 ae3d b6a0 2cbd 4f5f 9ebd f94a 3e3d
000001c0: 0f61 323c b8e4 e53d 8d38 593d 0787 c33d
000001d0: 180d f0bc ef84 afbd 6dcf 693c 729d 22bd
000001e0: 4a79 acbd bada 28bd b61e c6bd 9c82 593d
000001f0: f61f 8c3d 23af 7b3d 44f7 8a3d 5827 74bd
00000200: 6994 d9bd f655 a9bd 657b ca3d f74c b03d
00000210: 74af 743d ba2b 83bd 4cd8 943d b9a9 303d
00000220: 73f3 5f3d e9c6 60bd 669d 7a3d 136f 433d
00000230: cd63 c73d 81d2 963d 41c1 e4bc b0fd d5bc
00000240: 4b4c 4d3d 416f 103d 96b5 54bd 7c9b 66bd
00000250: c9da c63d be6a fcbb c55f a33d db6e 76bd
00000260: 144b 223c 0326 f53d c5fc d03d 3120 4dbd
00000270: 9cf8 cabd ce60 b9bd 5725 bdbd 9718 96bd
00000280: b8f2 7cbd a2b2 e33c 24f0 e4bc 35bc 313d
00000290: ac6d 2cbd ec24 b0bd d3bb 8b3d eeb3 683d
000002a0: cfa8 a4bd 22fa 7a3d 58e4 d43c acca c8bc
000002b0: 674f 34bd 3e77 c1bd 53dc e93c 7955 d13d
000002c0: f9df 953d 8cd0 a3bd 9c66 b4bc 0800 923d
000002d0: ed4f d7bc 8d2a b5bd 1813 ca3d e0b8 e1bc
000002e0: aa68 bbbd 0891 89bd 5027 403d 8102 973c
000002f0: 9f3e 2f3c 7d86 99bc 1bb7 f23c 8a19 f33c
00000300: 66ef 6abd 7fe0 b93d ef13 98bb 0401 aa3d
00000310: a0bd 17bd 93a0 c8bd 0761 113d b30b dbbd
00000320: 6bd4 c5bc b2f1 a93d 7634 9b3d fc09 72bd
00000330: 2550 9cbd f23c 96bd b35e c13d e68e 833c
00000340: a1fb 92bd 37fb 8dbd 3ac7 96bb 0001 15bd
00000350: 4b67 c73d b5a1 8bbd 6078 71bd ee16 273d
00000360: 70ef 82bd db3d 92bd c7ab 0d3c 332e 1dbd
00000370: 9f48 c13c 4021 373d 9082 3ebd 2f69 d6bd
00000380: 21dd 66bd ddea 04bb bfa1 5ebd 97ba 7b3d
00000390: 1610 8abc de93 553d b67c e2bb 2618 bfbd
000003a0: 2a79 cf3d 0c86 4e3c b631 ba3d cdbc ccbd
000003b0: 5854 913d 2eb3 bfbd c209 cd3c b79d 163d
000003c0: b84f 9bbd a289 a03d a0ea 213d ac7b ddbc
000003d0: deb7 aabd 8a6e c03a 48fa 58bd 739a ea3c
000003e0: 4b20 b8bb e9c9 be3d 00f6 0b3d b0e4 56bc
000003f0: 712c a6bd 85e1 e3bc 4aea 8f3c bb7e 8f3d
-0.09396459 -0.033715457 0.046484016 -0.03174859 -0.057939902 0.04406439 -0.10745756 0.008146479
0.008326194 -0.01719973 0.10963421 -0.043888886 -0.024982816 0.102709346 0.0071177483 0.011963896
-0.0953643 -0.0012752656 -0.094132006 -0.067450024 -0.07677625 -0.0017879264 -0.084489964 0.087732136
0.005560474 0.031607322 0.023993507 -0.09282855 0.08515282 0.04960538 0.056813728 -0.0686134
0.047211956 0.10983034 -0.09880482 0.09568547 0.073878944 -0.02581577 -0.059502497 0.014637575
0.08805968 0.09141727 -0.079063825 0.076885216 0.06350139 -0.097656325 -0.058303285 -0.08543446
-0.015551728 -0.08048348 -0.051492985 0.03326763 -0.06519922 -0.03264558 0.09609084 -0.065053456
-0.050276965 -0.04206146 -0.088611685 -0.016012426 0.10228318 -0.0035493548 0.049853113 -0.10142402
-0.035453495 -0.037945155 0.120005384 -0.10587356 0.0029693916 0.083425224 -0.0046364046 0.03179505
-0.0924831 -0.09706193 0.043713346 -0.058211777 0.11634067 0.008622328 0.11465419 0.015628947
0.002276406 -0.066101834 0.037202176 -0.055349264 0.09078478 0.032579113 0.07578874 -0.016141316
-0.038969878 -0.087554924 -0.097065635 -0.04080466 0.023481332 -0.09029264 0.09055393 0.019847862
-0.015810251 0.020094745 0.07422939 0.08496567 0.062921405 0.10086402 0.015542505 0.016639387
-0.09785991 -0.054375302 0.06617648 -0.09487992 0.08527955 -0.042145453 -0.077330224 0.04645822
0.010887398 0.11225265 0.053032447 0.09547239 -0.029303119 -0.08570277 0.014270646 -0.039700933
-0.084215716 -0.04122422 -0.096738264 0.053103074 0.068420336 0.06144632 0.067854434 -0.059607834
-0.1062401 -0.08268349 0.09886817 0.0860843 0.059737638 -0.064048246 0.07267818 0.04313061
0.05467553 -0.054877196 0.061185263 0.04771335 0.09735832 0.07364369 -0.027924182 -0.026121944
0.050121587 0.03526235 -0.051930986 -0.056300625 0.09709699 -0.0077031543 0.07977251 -0.060164314
0.009905595 0.11970141 0.10204462 -0.05007953 -0.099107 -0.09051667 -0.09235638 -0.07328909
-0.061754912 0.02779514 -0.02794654 0.04339238 -0.04209678 -0.08600792 0.06822934 0.05681222
-0.0804001 0.0612737 0.025987789 -0.024510704 -0.044021036 -0.09446572 0.028547442 0.10221381
0.0731811 -0.079987615 -0.022021584 0.07128912 -0.026283229 -0.088460065 0.09866923 -0.027553976
-0.091508225 -0.06717116 0.04691249 0.018433811 0.010696082 -0.018740887 0.029628327 0.029675264
-0.057357214 0.09076022 -0.004641048 0.08300975 -0.037046075 -0.09796252 0.035492923 -0.10695591
-0.02414914 0.08298053 0.075783655 -0.059091553 -0.07632474 -0.07335843 0.094418906 0.01605935
-0.07176901 -0.06932681 -0.0046013864 -0.036377907 0.097364984 -0.068179525 -0.05895269 0.04079335
-0.06393325 -0.07140704 0.008646912 -0.038374137 0.023594199 0.044709444 -0.046511233 -0.10469281
-0.05636323 -0.002028159 -0.05435347 0.061457243 -0.016853373 0.05214297 -0.0069118394 -0.09330778
0.10130532 0.012605201 0.09091513 -0.099969484 0.070961654 -0.09360348 0.025029067 0.036771502
-0.075835645 0.078387514 0.039530396 -0.02703651 -0.08335851 0.0014681381 -0.05297306 0.0286381
-0.005619084 0.09315855 0.03417015 -0.013116047 -0.08113945 -0.027817497 0.017567772 0.07006594

actor.0.bias f4 [128]
00000000: e389 e83c b117 133d 735f 96bd 5f8d a43d
00000010: 38e5 0fbd 16c2 dabd 10e8 3f3b 52c8 6f3d
00000020: 9aa8 14bd 586a cabd dc8c d43d 4a0f 00bd
00000030: 236a 5fba 124c babd 1e4b a63d e225 d4bd
00000040: 04fe fcba 4784 d0bc 1826 17bc 8a9e 2ebd
00000050: 9d77 1b3d 60c0 bf3d 93d0 ad3d e8a7 9ebc
00000060: ab42 563b 5a7a 9abc 146f 8e3d ef58 5f3d
00000070: 6587 3abd d00d e93d b6ca 8abd d089 a2bd
00000080: aa0c 9a3d f880 0d3c f90d 6c3c a2e4 033d
00000090: 5f54 553d 574c b73d 4b84 8ebd 4142 873d
000000a0: 7353 9a3d f480 a1bd 0c87 1cbd e778 eb3d
000000b0: b760 983d aa7a 4abb 6e84 fdbc dacc b93d
000000c0: 0452 bfbd 9ee4 b5bd 62ea a3bd 6244 bf3d
000000d0: 7bcd 803d 7da0 e1bd 34ef cb3d ea1e 813d
000000e0: b9db b3bc ff91 0c3d 4b9d 67bd c04f eb3c
000000f0: c5e9 f53c 82c4 d0bc 2c9d 4a3d 1f90 863d
00000100: 5d98 cfbd 7306 b2bd be1d 8c3d 233f 94bd
00000110: 2866 f93c cb3d 56bd 6894 fcbc a2b8 043d
00000120: 0de8 65bc c161 cf3d ad1d dcbd 0442 f93d
00000130: f071 2b3b 198c c63d c13a 953d e257 e2bd
00000140: f543 9bbd dabc edbc aaae 9cbd e0d9 63bd
00000150: 9280 ab3d 93a8 453d 5f48 6ebb 482b b53c
00000160: 74dd d6bd 265f 033c d5a6 753c e9d1 96bd
00000170: e979 e43d abc3 053c 87d8 943b 803d 56bd
00000180: d053 3e3d 6606 b53c 2f78 b3bc 8915 d3bc
00000190: 3779 bcb9 04be 93bc 018e 913d 734f b83c
000001a0: 401d 0f3d 4bca b03d c84f 6a3d d06f 4fbd
000001b0: f04b a33d e35e 813c 9f0b a33b 4ecc 0abd
000001c0: 7233 483d acfc 97ba 60a8 59bd 6070 1cbc
000001d0: c83e 533d 5705 a5bd 8036 b0bc 1572 3cbd
000001e0: 2e51 6e3c 580c 1c3d b5a9 87bd 12d0 b2bd
000001f0: 4857 ccbb 6dfe 953d aa5c 903d d95d 7bbc
0.028386062 0.035911266 -0.07342424 0.08034777 -0.03513071 -0.1068155 0.0029282607 0.05854065
-0.036293603 -0.09883565 0.10378429 -0.03126458 -0.00085225905 -0.090965405 0.08119796 -0.10358788
-0.0019301777 -0.0254537 -0.009225391 -0.042631663 0.03795587 0.093628645 0.08487048 -0.019367173
0.0032693546 -0.01885717 0.0695478 0.054528173 -0.04553928 0.11379588 -0.06776945 -0.07936442
0.07521947 0.008636706 0.014407628 0.032200463 0.052082416 0.089501075 -0.06958827 0.06604434
0.07535448 -0.07885924 -0.03821473 0.1149767 0.07440322 -0.0030895867 -0.030946936 0.090722755
-0.09341815 -0.08881496 -0.08003689 0.09339215 0.06289192 -0.11016939 0.09957734 0.063047245
-0.021955358 0.03431892 -0.05654649 0.028724551 0.030018697 -0.025484327 0.049466297 0.06570458
-0.10136483 -0.08692636 0.0684161 -0.07238605 0.03044422 -0.052305024 -0.030832484 0.032402642
-0.014032376 0.10126067 -0.10747848 0.121707946 0.0026160441 0.0969469 0.07286597 -0.110519186
-0.07581321 -0.029020716 -0.07650502 -0.055627704 0.08374132 0.048256468 -0.0036359055 0.022115365
-0.104914576 0.008018291 0.014993389 -0.07364256 0.11156065 0.008164327 0.0045424136 -0.052304745
0.04646665 0.022097778 -0.021907894 -0.025767105 -0.00035948466 -0.018034942 0.07107163 0.022498822
0.034940004 0.08632334 0.05720499 -0.050643742 0.07973468 0.015792316 0.0049757506 -0.033886246
0.048877187 -0.0011595688 -0.05313909 -0.009548277 0.051573545 -0.08057659 -0.021510363 -0.046007235
0.014545722 0.03809771 -0.06624166 -0.087310925 -0.0062359907 0.073239185 0.07048924 -0.015342199

actor.2.weight f4 [64, 128]
00000000: 8f94 28bd bd90 bf3d 6b17 39bd 8018 9b3c
00000010: 4ffe e53c 91c7 533d 5d15 a3bd 4043 afba
00000020: df51 9dbd 6642 32bd abdd bd3d 6285 3c3d
00000030: 6d90 c1bc 95da 89bd 35c7 883d 50a9 a43d
00000040: d1b7 94bd 716c 8e3b 7aa3 533d 3fd2 293b
00000050: deec 933c 97ff 7a3d ff8e 6e3d 91df 98bd
00000060: 3cd5 8cbc afe5 793c 9026 933b 8568 373d
00000070: 913d 51bd 5582 69bd e99e 5f3d 5b59 02bd
00000080: e0e8 b8bc c32f 893d 13f3 0e3d e7ef 383d
00000090: 0715 af3c 2e24 eabc 84eb feba 3563 fc3c
000000a0: 628f b83d 9102 6b3d 8507 46bd c5fa 313d
000000b0: 6362 a6bd 0d2b 2c3d 7f1a 343d e043 09bc
000000c0: 9729 64bd a042 2ebb 8ae6 34bd a32e 373d
000000d0: 52bd 91bd 1988 03bd b2c2 e7bc e55b 003d
000000e0: 6fee da3c 77ee 263c e4bd cabc af4f af3d
000000f0: c5c3 8f3c 52dd 083d 8f5d 613d 42f9 3abb
00000100: a468 9cbd 0432 6f3d 71d4 76bd 9abe 2e3d
00000110: 3a25 2abd aefe 723d 6e9c eb3c 583a 8ebd
00000120: a298 b4bd 8353 a4bd 91c2 693d e94e c63c
00000130: d610 623c 69df a2bd 44dc 333d 27e8 1abd
00000140: 8c22 12bc 52af 3e3d aa56 04bb d137 2abc
00000150: ad76 23bc 9541 8e3d 6922 59bb 5da4 2abb
00000160: c666 ddbb d839 243c 14fa c1bb 92ee 82bd
00000170: 1b7a 38bd f35c 843d af23 b33c 5316 9a3b
00000180: d3a5 683d 69b6 ddbc b7ea e03c cc5b 393d
00000190: 1c52 34bd 91ac 9abd 1e5c 5dbd 9e75 f53c
000001a0: 079a 7a3d 316c b2bc d1c9 0fbd e5cf a53d
000001b0: 0b87 33bd 0423 fa3c ac35 d03c 0b56 af3b
000001c0: dd59 b5bd 6e7f 41bd 8a5e 97bd 45b8 7abd
000001d0: 1994 57bd fb26 25bd d516 1a3d 0247 9bbc
000001e0: b872 b73d cee8 3abb 73f7 653d 7a4a 01bd
000001f0: 6198 a5bd 6368 193d 1501 913d 186a ac3c
00000200: dcb9 3bbd 248c ab3c 2737 85bd 0122 6f3d
00000210: 9cf9 c7bd bde6 a6bd 2d9e 733d a067 a8bd
00000220: b76f 77bd 92ba a3bd 735e 3cbd 156a cbbb
00000230: a2d2 913c 4234 4dbd 12b1 033d f8f5 873d
00000240: a0ee 7abc c60d a2bd 7ccc 94bd 5642 0a3d
00000250: 9984 893d 1870 b6bd 35ca 6c3d b906 823d
00000260: b179 523c bc6b 43bd 9099 c4bc e460 943c
00000270: 0c2a 0bbd 3c40 a2bd 6d95 dbbc 058e c1bb
00000280: 4b0b 55bd ccad 8b3c 922d 9fbd cd7f b6bc
00000290: 2af0 a13d 11b0 e8bc cd43 893d 285a 323b
000002a0: 793f 473c 6e60 563d 753a 48bd e50f 23bd
000002b0: a783 9d3d 9e3a 9e3c 2d42 573d 2466 ea3c
000002c0: 449b 4b3d 810e 813d 9da2 a7bd ccd6 a7bd
000002d0: 6a93 b83c 1b31 303d 76d9 b3bb 5d9c 84bd
000002e0: ad89 5d3d 9634 9c3c c5f9 c5bd 9bf6 5d3d
000002f0: 6734 5bbd 0b2b 4b3c 19e9 babd f6af 773d
00000300: 10b8 b53c 743f 9abc 170d 97bd 8d63 a33d
00000310: 5809 66bd e9b6 c73c cd30 1abc b8aa 3e3b
00000320: 0dc7 22bd 407a 91bb e636 493d f8e4 923d
00000330: 9100 fcbb 5564 c7bd 77aa a9bd 7e94 5f3d
00000340: f6b1 9dbc dea9 b83c a218 073d 3247 673d
00000350: e400 80bd 9b4f 03bd 116e 82bd 3dbd 12bc
00000360: 0c90 3cbd 9bc4 50bd 7752 8bbd 6590 853d
00000370: 8132 61bd f581 bbbd 25c8 243d 5bd1 283d
00000380: f23e 023c 2bfc 8dbd ca01 30bd 9270 893d
00000390: 822a 7c3d 0e64 93bd 88ad 003c 6e6d 233d
000003a0: 4d6a fabb 4ac3 663d 317c 4ebd ac46 41bd
000003b0: 5e86 26bd d26a f4bc a6da 3f3d 4c54 a6bc
000003c0: f66f 923d 4dee 90bd 2894 a1bd cf48 183d
000003d0: c391 f53c 6793 74bb f184 4dbd 4a19 7bbd
000003e0: 632b 673d d299 bebd cf8a a9bd 18df 86bd
000003f0: 054a 9abc 77e0 2a3d 84e3 243d da5e 2fbd
-0.0411573 0.093537785 -0.04518835 0.018932581 0.028075365 0.051703993 -0.07963059 -0.0013371482
-0.07681631 -0.043520354 0.092707954 0.04602564 -0.023628438 -0.06731144 0.06678621 0.08040106
-0.07261623 0.0043464233 0.051669575 0.002591267 0.018057283 0.061278906 0.05824184 -0.07464517
-0.017191522 0.015252515 0.004490681 0.044777412 -0.051084105 -0.05700906 0.054594908 -0.031823497
-0.022571981 0.06698563 0.034899782 0.045150664 0.021372331 -0.028581705 -0.0019448851 0.030809024
0.09011723 0.057375494 -0.048347015 0.043452043 -0.081242345 0.042033244 0.04397058 -0.008377999
-0.055703726 -0.0026590005 -0.04416517 0.04472221 -0.07116188 -0.032112215 -0.02829108 0.031337637
0.026725022 0.01018869 -0.02474875 0.0856012 0.017549405 0.033414192 0.055020865 -0.0028529917
-0.07637146 0.058397308 -0.060261194 0.04266224 -0.04153941 0.059324913 0.028761115 -0.06944722
-0.08818175 -0.08023741 0.05707032 0.02420755 0.013797959 -0.07952768 0.043911234 -0.037819054
-0.008919369 0.046553917 -0.0020193257 -0.010389284 -0.009977025 0.069461025 -0.0033132082 -0.002603791
-0.0067566363 0.010023557 -0.005919704 -0.0639316 -0.045038324 0.06463041 0.021867601 0.0047023683
0.056798767 -0.027064519 0.02745567 0.04525356 -0.044023618 -0.07552446 -0.054042928 0.02996331
0.06118205 -0.021780105 -0.035104576 0.08096293 -0.04382996 0.030534275 0.025416218 0.0053508333
-0.08855031 -0.047240667 -0.07391079 -0.06121089 -0.05263147 -0.040320378 0.03761943 -0.018954758
0.08957428 -0.002852011 0.05614419 -0.031565167 -0.080857046 0.037453067 0.070802845 0.021046683
-0.045831546 0.020940848 -0.0650466 0.058382038 -0.09764406 -0.081494786 0.05947702 -0.0822289
-0.060409274 -0.0799457 -0.04598851 -0.0062077143 0.017800633 -0.050098665 0.03215129 0.06638712
-0.015315682 -0.07912783 -0.07265565 0.03375467 0.06714744 -0.08908099 0.057810027 0.063489385
0.012846396 -0.047710165 -0.023999006 0.018112607 -0.033975646 -0.07922408 -0.02680465 -0.0059068226
-0.052012723 0.017050646 -0.07772364 -0.022277737 0.07907136 -0.028404268 0.06702385 0.0027214382
0.012161129 0.052338056 -0.048883874 -0.03981008 0.07691126 0.01931506 0.052553345 0.028613158
0.04970862 0.063015945 -0.08185313 -0.08195266 0.02253123 0.04301558 -0.00548857 -0.064751364
0.054086376 0.019068044 -0.096667804 0.05419026 -0.05351677 0.012400399 -0.09126491 0.060470544
0.022182494 -0.018829085 -0.073755436 0.07977972 -0.056161255 0.02437921 -0.009411049 0.0029093456
-0.03974061 -0.004439622 0.04912462 0.071725786 -0.007690497 -0.09735934 -0.08284467 0.054584973
-0.019249897 0.022541936 0.032982476 0.05646438 -0.0625017 -0.03205834 -0.0636865 -0.008956251
-0.04603581 -0.050968748 -0.06802838 0.06521682 -0.054979805 -0.09155647 0.040229935 0.041215282
0.007949578 -0.06932863 -0.042970456 0.06710924 0.061563976 -0.07196818 0.007853873 0.039899282
-0.0076420666 0.056338586 -0.050411407 -0.04718654 -0.040655486 -0.029836092 0.04683938 -0.020303868
0.07150261 -0.07076702 -0.07889587 0.03717881 0.029976731 -0.0037319304 -0.05017561 -0.061303414
0.05643786 -0.09306683 -0.08278429 -0.065855205 -0.018834123 0.041717973 0.04025604 -0.042815067

actor.2.bias f4 [64]
00000000: fb02 f4bc d5a9 2a3d 85ce 30bc 40e9 a83c
00000010: 9214 2b3d 30dd 95bd 5c05 dc3d 99c9 b53d
00000020: 0916 5b3d 32b4 28bc 3c0e 5d3d 6660 5b3d
00000030: 4bfe 3fbd e57f 44bd 6034 b93d aa77 c6bc
00000040: e50c 7b3d 99a9 973d ab21 0c3d c772 c43c
00000050: c411 ad3d 58cc 8c3d d99a b73c f4ef 9d3d
00000060: d026 a0bd 8a81 863a e10f 67bd 6aef 553d
00000070: 12ce 283d 4025 8fbd 4293 7c3c db65 d13d
00000080: 882f 69bd ec46 6bbd ec8f 92bd 08c1 9abc
00000090: 0ca8 92bd 8884 263b f7c2 9f3d 2dfe 2c3d
000000a0: 33fa 27bd c2c8 f13c 78a3 9a3c 9e47 7f3d
000000b0: 48a8 d1bb 7a46 d03d f258 7ebc 9f54 cabd
000000c0: 53e4 7a3d cd65 813d 722e 2dbd 265e a2bd
000000d0: bd45 9bbd 3a42 a8bd 90fc bfbc 19b0 b7bc
000000e0: 76a5 0d3c d49a 0f3a 6af9 c03b da71 c1ba
000000f0: e229 8fbd d0c1 00bd 8d45 eb3c 3165 4abd
-0.029786577 0.04166587 -0.010791426 0.020619035 0.041767664 -0.07317579 0.1074321 0.08876342
0.05348781 -0.010296868 0.053968653 0.05355873 -0.046873372 -0.047973532 0.09043193 -0.024226982
0.061291594 0.07405395 0.034211796 0.023980511 0.08450654 0.06874913 0.022412704 0.07711783
-0.07819903 0.0010261994 -0.056411628 0.052230276 0.04121215 -0.06989527 0.015415968 0.102245055
-0.056930095 -0.057440683 -0.07156357 -0.018890873 -0.07160959 0.0025408585 0.078008585 0.04223459
-0.041010093 0.029514674 0.018876776 0.06232416 -0.0063982345 0.10169692 -0.015524136 -0.098794214
0.061252903 0.06318245 -0.04228062 -0.07928114 -0.07581661 -0.08215757 -0.02343586 -0.022422837
0.008645406 0.0005478088 0.0058891075 -0.0014758662 -0.069904104 -0.031434834 0.028719688 -0.04941291

actor.4.weight f4 [16, 64]
00000000: b103 173b 7baa 9f3c ed99 cd3d 3408 a03d
00000010: 0abd c33d 217a 893d 21c5 0c3d 573b 483c
00000020: ee7b 8f3d 3faf 5c3d 158f e3bd 50c9 80bc
00000030: 6257 51bd 300a 413c e798 8abd 4b94 24bd
00000040: da6d ae3c afe3 b83c c87f 2cbd f8fc a8bd
00000050: fd04 543c a4c3 36bd 22f7 d3bd 72da aabd
00000060: ae87 03bd 42de ea3d 5cea 95bd b2f6 f7bd
00000070: 4036 6d3c 7474 debd 5b62 96bd 1f67 cd3c
00000080: 93e5 8dbd ccc0 c33d 52c1 88bc c12d b1bc
00000090: 4d60 10bd 064b c5bd e7e1 13bd 1634 6b3c
000000a0: 2209 463d 5e4a b8bd 5d6e a8bd c41e 15bd
000000b0: 7d57 f5bd 410c ca3c 00e2 c9bd 5eb7 47bd
000000c0: 69c4 9c3b 78c5 88bd 56a2 13bd 510a cc3d
000000d0: a171 7ebd fbad 80bc 6e34 45bd 5282 99bd
000000e0: fbbb a13d b6e5 363d b01f f03c b6c9 073d
000000f0: 4a2e 253d 7edd e23c 0084 63b9 dda5 80bd
00000100: ee0c 9439 aefd 4dbb b0f7 4f3d b888 a03d
00000110: 2bba f0bc 42b8 bdbc 8ad3 1a3d 66ae 203d
00000120: a928 033e 255c 273c d726 e63d 80bc c5bc
00000130: 94d0 e0bb e8c0 e8bc b5b0 123c c5ff 3cbd
00000140: 4197 9f3d df48 dabd 71bc edbd b562 2dbd
00000150: 5386 f83d 40b0 703c 0e5a 97bc b6d5 9d3d
00000160: a905 d3bd 5dff 53bd 5e27 95bd 5056 f83d
00000170: 8cd3 cdbb 63dd 8c3c ccf2 f2bc c61c e03d
00000180: 07fd 2fbd d0ac a3bd 31bb a5bd befa 3a3d
00000190: 82e2 a6bd 92af 883d 8562 383d 7497 423d
000001a0: 6bea 8a3d 1852 a83c 5637 a5bd 8cd3 6c3d
000001b0: 913f cb3d 0fb8 d13d 28b7 093e 8ee5 bbbd
000001c0: e935 3abd 2f07 7b3d 371f b5bd 88b8 6ebc
000001d0: f7fc 4fbd 2991 cd3d 0066 293d 87cc 053e
000001e0: 2cae b63d 6db6 dd3c b144 cebd f437 b3bc
000001f0: bde5 a3bc 1765 eabd 38b6 d3bd 713d 32bd
00000200: befd c33d 310b 003d c3ad 76bd 0064 4a3b
00000210: 5a55 0abd 4452 2dbd 046f 82bd ca69 f2bd
00000220: 693f babc 9ab8 d6bd e283 32bc 4084 82bd
00000230: ea07 883d 3494 b8bd 6a9a a83d 0dc5 abbd
00000240: 421a d33d a953 e5bd 78b3 0fbd 3b6a 26bd
00000250: a505 6fbd 465e 553d 6a2e aebd e40e 5d3d
00000260: 914a c83c 2684 f73d e239 d13d 5749 4dbd
00000270: 2b51 22bd 94b2 873d f6fa a4bd 6cc9 7a3c
00000280: e1ba 953d 1b48 09bd e6ec b33d 60da 29bc
00000290: 304f cabd 80b9 fc3d b1ad 91bd b9e2 1d3d
000002a0: 8dca c7bb a4f8 003d 9986 f53d 6c15 583d
000002b0: 7cf6 d83d 66c2 753c 5a65 933d ac23 fabd
000002c0: 9455 453c 944a 8bbd 749f 3d3d 3627 ed3c
000002d0: a4ae 48bc 217e 7abd 5eae 603c 0589 35bd
000002e0: 7127 41bc 68e8 a3bd de09 23bd 2e90 cabd
000002f0: 108e 3fbd 0966 c3bd 48d1 28bd 4c21 a33d
00000300: 6445 e6bd 66fc 973c 178e a33d f92f 7dbd
00000310: 43f1 76bd 1c66 bb3d 73a1 d73d 705a b3bc
00000320: d15f af3a 1f1b 86bd 0201 283d 4a1e b0bd
00000330: c444 223d 38ce 67bd 0e2f ecbd 5b54 803d
00000340: 1243 963d 20c6 1bbd 9d17 fb3d 45e2 c73d
00000350: 9a60 15bd 2ae0 d7bc da20 fb3d 27f9 a33d
00000360: 6091 b13d 4e1c fcbd b7ef 9bbd 0574 dc3d
00000370: 2d79 d4bd 1544 1f3d 2603 e23d f6d8 49bc
00000380: d4a1 c8bd 5fca 673d 7a2d c73d 272d 5a3d
00000390: ac52 c73d f276 b6bc 6187 8139 b693 4e3d
000003a0: d7f8 7e3c d488 34bd 9e5f 2cbd c057 eb3d
000003b0: c3b6 f8bd 9679 a4bd 9897 e2bb 46e0 c9bd
000003c0: f139 21b9 1464 c9bc 1ab7 ae3c 7967 c4bc
000003d0: dd51 483d aa84 f4bd c27a 873d 494a 913d
000003e0: a9a3 2dbd 0c9a 82bd e90a bf3d fd50 6fbd
000003f0: 693b 1b3d 1b62 d93d 3093 c6bb 3e0a 9f3c
0.0023042972 0.019490471 0.10039125 0.078140646 0.09557541 0.06712747 0.034367684 0.012221179
0.070060596 0.053878065 -0.11111275 -0.015720993 -0.051108725 0.011782214 -0.06767445 -0.040180486
0.021292616 0.022569505 -0.04211405 -0.08251375 0.012940642 -0.04462017 -0.10349871 -0.083424464
-0.032111816 0.114681736 -0.07320091 -0.121076 0.014478266 -0.108620554 -0.073429786 0.025073586
-0.069285534 0.095582575 -0.016693745 -0.021628262 -0.03524809 -0.0963345 -0.03610411 0.01435568
0.048348553 -0.089985594 -0.08224175 -0.036406294 -0.11979578 0.024664046 -0.09857559 -0.048758857
0.004784156 -0.06678289 -0.036043487 0.09962905 -0.062120084 -0.01570796 -0.048145704 -0.0749556
0.078971826 0.044652663 0.029311985 0.03315135 0.040327348 0.027693506 -0.00021697581 -0.06281636
0.00028238393 -0.0031431722 0.050773323 0.07838577 -0.029385647 -0.02315915 0.037799396 0.03922882
0.1280848 0.01021484 0.11237877 -0.024137735 -0.006860802 -0.028412297 0.008953263 -0.04614236
0.07792521 -0.1065843 -0.11608208 -0.042330462 0.12134995 0.014690459 -0.018475559 0.07706778
-0.10303814 -0.051757205 -0.07282899 0.12125838 -0.006281322 0.01719541 -0.02965679 0.10942988
-0.042965915 -0.07991946 -0.080923446 0.045649283 -0.08148672 0.066741124 0.04501583 0.04750772
0.06782993 0.020546958 -0.08067195 0.057818934 0.09924234 0.102401845 0.13448775 -0.091746435
-0.04546157 0.061286148 -0.088438444 -0.014570363 -0.050778355 0.10037453 0.04135704 0.13066302
0.089199394 0.027064526 -0.100716956 -0.021877266 -0.020007009 -0.114450626 -0.1033749 -0.043515626
0.09569882 0.031260673 -0.060224306 0.0030882359 -0.033772804 -0.042314783 -0.06368831 -0.11836584
-0.022735314 -0.10484429 -0.010895701 -0.06372881 0.066421345 -0.090126425 0.08232577 -0.08387194
0.10307743 -0.111975975 -0.035083264 -0.040628653 -0.058354992 0.05209186 -0.085049465 0.05396928
0.024449619 0.12085752 0.102161184 -0.05011877 -0.03962819 0.06625858 -0.080556795 0.015306812
0.07311035 -0.03351603 0.08785419 -0.010367006 -0.09878385 0.12340069 -0.07113207 0.038546298
-0.006097144 0.031487122 0.11988563 0.052754804 0.10593888 0.0149999615 0.07197066 -0.12213835
0.012044329 -0.06801334 0.046294644 0.028949361 -0.012248669 -0.061155442 0.013713447 -0.044320125
-0.011789189 -0.08003312 -0.039804332 -0.09890781 -0.04676634 -0.09540946 -0.04121521 0.07965335
-0.11243704 0.01855297 0.07986086 -0.06181333 -0.06028868 0.09150335 0.10528841 -0.02189371
0.0013379996 -0.06548142 0.041016586 -0.08599527 0.03961636 -0.05659315 -0.115324125 0.062660895
0.073370114 -0.038030744 0.12260363 0.09759954 -0.03646908 -0.026352007 0.12262125 0.080065064
0.08670306 -0.12310086 -0.07614081 0.107643165 -0.10374675 0.038883287 0.11035757 -0.012319794
-0.09796491 0.05658948 0.09725471 0.053265717 0.09732565 -0.022273514 0.00024705663 0.050433837
0.015562258 -0.044075802 -0.042083375 0.11491346 -0.12144234 -0.08031003 -0.006915044 -0.0985723
-0.00015375741 -0.024583854 0.021327544 -0.02397512 0.048906196 -0.11939366 0.06615211 0.07094247
-0.042392407 -0.06377038 0.09328253 -0.058426846 0.037898455 0.10614415 -0.0060600266 0.019414064

actor.4.bias f4 [16]
00000000: 7465 52bc 92c0 fcbc c15a 8ebc 10ad c23d
00000010: dbd0 c33d c17c 9c3d e16d b3bc b0bf aabd
00000020: 770a c53d b094 d53d c904 513c a24d 21bd
00000030: cbb9 743d babb 9cbd df1e 9bbd b9ae 693d
-0.012841571 -0.030853543 -0.01737726 0.09505665 0.095613204 0.076409824 -0.02190298 -0.08337343
0.09621137 0.104287505 0.0127574885 -0.039380677 0.0597475 -0.076529935 -0.075742476 0.057051394

critic.0.weight f4 [128, 81]
00000000: e9fb 613c bcf8 63bd ccc5 bc3b 0277 c33b
00000010: 306e a63d 0803 bebd 622f b33d 0612 dc3d
00000020: 7476 ef3d a6f2 a5bd 682e c1bd 72e7 13bd
00000030: cfcf 8b3b 7e91 403d 571a d4bd 8fbf d33d
00000040: 5c74 e3bc f988 d83d 3fbe cebd fef0 30bd
00000050: b002 8c3c 5bb1 a7bd a44e c43d f195 7b3c
00000060: c726 8a3d b727 fd3c 8c10 8e3d a76f 683d
00000070: e0dd 3e3d a2b5 89bd f30d b03d d494 bf3b
00000080: 21f8 96bc 69cf b13d ffdc c2bd 6b39 f2bc
00000090: fa7d 163d c50f c6bd 4972 2abd 9424 bbbd
000000a0: 176f 52bc 4a99 823d 80b0 983d 02a1 103d
000000b0: d2e6 643c ed0e bfbd 4493 e1bd 0d92 90bb
000000c0: cd89 b5bd 1f85 2abc 227f 2bbd 7e43 583c
000000d0: 7680 c63d 522c d2bd 3db8 9e3d 254b 9a3d
000000e0: b858 bcbc ce58 7abd 8699 9db7 b6ce 953c
000000f0: ba3c 88bd 2ad8 ffbc 701a 6a3c e55a e3bc
00000100: 8f31 efbc 8bf0 cd3d a1e3 91bd f916 9c3d
00000110: 9e01 02bd 3f2e fabc dbce b43d 09c7 c53d
00000120: 4ad2 7c3d 319b 6abc 11bd c2bd 59cb 9a3d
00000130: cf3b 553d 39db febc e81b 113d 39e9 913c
00000140: 28f3 ad3d a206 85bd 4dbd df3a 84dc 573d
00000150: 348b 3cbd e6d1 ea3c 8f7c 683d 386c ce3d
00000160: 8330 d3bd b036 86bc 3da1 483d 17ef c23c
00000170: 6e4b bd3c c1eb db3d 5225 d4bd 84f0 f53c
00000180: 8474 0fbd ce15 c5bd 2ac2 ef3c 4d88 d83d
00000190: 754f d03d 064a acbd b9d3 9cbd e3f6 1dbb
000001a0: 2432 303d d507 69bd 6b5f 8d3d 13f0 bebd
000001b0: 7519 ee38 6801 21bd 95c4 39bd 3034 d63c
000001c0: 31fd 61bd 165d ad3d 1672 c43d 1859 46bd
000001d0: 21d9 593d 5dcd 263d 634e 2c3d 79c1 58bd
000001e0: 44e9 993d 7662 cdbd 7de3 453d ca0f 2c3d
000001f0: 7877 aa3d 6ea4 c0bd 8861 53bd a14f 7abc
00000200: 9ec0 a6bd bf06 82bd c265 4dbd 9d89 8bbd
00000210: 36f5 6bbd 483d 55bd c3a7 083d 56f7 793d
00000220: 697a 78bd 9f0a 0fbd abb2 1e3d dbac a93d
00000230: 9bcf ccbd eb39 8e3c 2ffb 9c3d aae9 17bd
00000240: 5d87 423c 192a ab3d 3ac1 a9bd 4216 0fbd
00000250: 0ae2 c6bd 825c ac3c 67c8 1f3c a019 df3c
00000260: 280e 133d 4bf6 c6bd c55d 4d3d ca8b 243d
00000270: 36ed ae3c b9e4 42bd 5c04 3f3d 8681 c6bd
00000280: 5484 b6bc 8744 1e3d d175 0a3b 3001 80bd
00000290: 7877 ce3d 9669 a1bd 009b afbc 4e1d 2bbd
000002a0: f788 e53b 6a94 943d af36 8a3d e8d3 743c
000002b0: 4f82 a939 abc2 52bd fdf4 863d 80e8 fabc
000002c0: b0be 80bb 8dae d6bd e461 8d3c 875b bdbd
000002d0: af46 3f3d 992b a4bc 7014 9d3c 0013 d0bd
000002e0: e64a 073d 74c4 bd3d 0ad0 0abd 110f c2bd
000002f0: 540c 1e3d 1f44 c93c 1dcf f9bb 5e58 66bd
00000300: ffe3 be3c 20aa e93d 4311 ef3a fce8 d13d
00000310: 6841 ccbd 008c 0d3d 2fc7 88bd a717 653d
00000320: d9a7 833d a42d e9bc 7cc1 3b3d 91a5 ad3c
00000330: 0c08 6abd 4754 68bd cabd 80bd fd4c efbc
00000340: 96f9 1fbb 38e9 303d e673 cd3d 58c0 e5bd
00000350: c1b6 38bd dfbb 73bd 674c 4bbc 1e7e 0fbd
00000360: e554 45bd efe2 b33d 3876 c9bd b470 aa3c
00000370: 8f6b 293d abbd 9bbb 290d c13d 4203 773d
00000380: 1839 0f3d bd61 c13c 7a78 0c3c e7d4 b7bd
00000390: 469c cb3d aad1 903d 5a2e efbc 8730 d9bc
000003a0: 103a e6bd 927b 60bd f211 e93d d2e2 39bc
000003b0: 08d1 cb3c 555f 8fbc 3da8 d0bd ccb9 09bd
000003c0: dba6 0c3d 5cfc 7bbd 4f6c 99bd 3cf5 70bd
000003d0: e1d8 923d e8d0 d5bc a2fc fbbb 3192 e2bd
000003e0: c71a dcbd a0f7 afbd 0bde afbd 4002 0f3b
000003f0: c897 a03c 28a2 a7b9 9e73 583c 7a20 c93c
0.01379297 -0.055657133 0.005760884 0.0059651146 0.08126485 -0.09277922 0.08749272 0.10745625
0.11692515 -0.08102922 -0.094326794 -0.036109395 0.004266716 0.047013752 -0.103565864 0.10339271
-0.027765445 0.105730005 -0.1009488 -0.043198578 0.017091125 -0.08188125 0.09585312 0.015355573
0.067456774 0.030902727 0.0693675 0.056747105 0.046598315 -0.06724097 0.085964106 0.005846599
-0.018428864 0.086821385 -0.09514808 -0.029568395 0.036741234 -0.096709765 -0.041612897 -0.09137836
-0.012843869 0.06376894 0.0745554 0.0353098 0.0139710475 -0.09329019 -0.11014417 -0.004411942
-0.08864174 -0.010407715 -0.04186929 0.013199685 0.09692471 -0.1026236 0.077499844 0.07533864
-0.022991523 -0.061119847 -1.8787348e-05 0.018287044 -0.06652208 -0.031231005 0.01428853 -0.027753303
-0.029198436 0.100556456 -0.07123495 0.07621569 -0.031739824 -0.03053963 0.08828517 0.096571036
0.061723985 -0.014319227 -0.09508718 0.07558317 0.05205899 -0.031110393 0.035427004 0.017811405
0.08493644 -0.06495406 0.0017069966 0.052700534 -0.046031192 0.02866454 0.056759413 0.10079235
-0.10311987 -0.016383499 0.048981894 0.023795648 0.023107257 0.10738326 -0.10358681 0.030021913
-0.035023227 -0.096232995 0.02926739 0.10572872 0.10171405 -0.08412556 -0.076575704 -0.0024103455
0.043016568 -0.056892235 0.06902965 -0.09323134 0.00011353466 -0.03930798 -0.04535349 0.026147932
-0.055173103 0.0846502 0.09592073 -0.04842481 0.053185586 0.040723193 0.042066943 -0.052918885
0.07515195 -0.100285456 0.048312653 0.042007245 0.08323568 -0.094063625 -0.051606685 -0.015277774
-0.081422076 -0.06348943 -0.050145872 -0.06813357 -0.0576069 -0.052060395 0.033363115 0.061026894
-0.060663614 -0.03492224 0.03874461 0.08284923 -0.10000535 0.017361602 0.07665097 -0.037088074
0.011873093 0.08357639 -0.08288808 -0.034933336 -0.09711082 0.021040205 0.0097523695 0.027233899
0.035902172 -0.097149454 0.050138254 0.040172376 0.021353345 -0.04758141 0.046635017 -0.096926734
-0.022279896 0.03863957 0.0021127353 -0.062502265 0.100813806 -0.07881467 -0.021436214 -0.041775994
0.007004853 0.0725487 0.06748711 0.0149431005 0.0003233128 -0.05145518 0.065896966 -0.030628443
-0.0039289817 -0.10482512 0.017258592 -0.09245973 0.04669827 -0.02004032 0.019174784 -0.10159874
0.033030413 0.09265986 -0.033889808 -0.0947553 0.038585976 0.024568615 -0.007623567 -0.056236617
0.023302076 0.11409402 0.0018239397 0.10249516 -0.09973413 0.034557343 -0.06678616 0.05593076
0.06428499 -0.028464146 0.045838818 0.021197112 -0.05713658 -0.056721 -0.062861994 -0.029211516
-0.002441024 0.043191165 0.100318715 -0.11218327 -0.045096163 -0.05950534 -0.012408352 -0.035032384
-0.048176665 0.087835185 -0.098370016 0.020805694 0.04136234 -0.004752835 0.09426338 0.06030584
0.03496656 0.023606176 0.008573646 -0.08976155 0.09941916 0.0707124 -0.029196907 -0.026512397
-0.11241543 -0.054805346 0.11380376 -0.011345582 0.024879947 -0.017501513 -0.10188339 -0.033624455
0.034338813 -0.061519966 -0.07491361 -0.058827624 0.071702726 -0.02610059 -0.0076900283 -0.1106304
-0.10747295 -0.085921526 -0.08587273 0.002182141 0.019603625 -0.00031973538 0.013211159 0.024551619

critic.0.bias f4 [128]
00000000: 6729 553d fe2f 93bd 3061 9fbd 3131 c4bd
00000010: d8d1 0e3d 20c3 ce3d 1e79 e33d eeb5 893b
00000020: 6cd5 873d 71ae b73c fde6 093d def0 a9bd
00000030: c5eb 1abd ad14 d23d 6a56 95bd 0009 01bd
00000040: 9589 99bd 9f83 7dbc 6771 d1bd 0f18 16bd
00000050: 9e58 023d b846 e33d f888 a63d eac3 943d
00000060: 6dea 133c 0eaa 5a3d ba55 953d 2127 f9bc
00000070: 9a93 713d 1f0e 053d fa38 9bbd 8746 8fbd
00000080: 1eac 22bc 90c3 53bd 276e 8cbd dd63 37bd
00000090: 614b 363d 1517 dd3c 4f82 80bd 25c4 d0bd
000000a0: 7d3b 08bd 714a 573d dac5 d0bd 8d33 e0bc
000000b0: 4983 bc3d 0715 5d3c 1b1d 123a ee5e 733d
000000c0: b42c 20bc b914 59bd 550f 04bd 0196 553c
000000d0: de9e 7b3d 822b dcbd 3d8f 963d dce1 8d3d
000000e0: 6f77 803c 10c2 afbd dd1e 3c3d dcd1 5bbc
000000f0: 4559 3dbd 4c45 efbd 451c abbd 28aa ad3d
00000100: 9eb3 b73d 0965 c0bd edc3 263c 610b 533d
00000110: a235 11bd f0a2 3d3b 9ecd ebbc 2f08 db3c
00000120: e833 c93d a6bc dbbd b368 bb3d 751a 2dbd
00000130: e3bb c6bd 30bb 65bd d3fe e13d 694b 9bbd
00000140: f294 1cbd 75a0 483d 0305 253d ad0b ddbd
00000150: f388 33bd 4847 593d 4ad5 6f3c 6ec7 593d
00000160: 4118 bdbd 2095 cd3c cacb e1bd 3eb8 a33d
00000170: 14bf a73c db68 aabd 4a90 11bc 62fd c3bd
00000180: 2d9b e13d 7f7d 12bd fe33 a73d c8de 93bd
00000190: 3efe 86bd fc18 173c 3e66 8c3c 7a9c 77bd
000001a0: f10b a1bc 81ff 233c 54e1 b9bd b499 42bd
000001b0: 9a1b b3bd dad1 6cbd d407 573d caae c1bd
000001c0: 432c 87bd 8658 7c3d c285 623d 2b8f 8c3d
000001d0: a8a5 b3bd e602 cfbd b2f6 503d 5670 d83c
000001e0: a9b7 60bd e510 ea3d cd23 9e3c 93db b33d
000001f0: 631e 96bd 832b 68bd 3b32 babd d11c 9a3d
0.052041437 -0.07186888 -0.07782209 -0.09579695 0.03486809 0.10095811 0.11107086 0.004202596
0.06632504 0.022422047 0.033667553 -0.08297895 -0.037822504 0.1025785 -0.07291873 -0.031502724
-0.07496945 -0.015473275 -0.10226708 -0.036644038 0.031822793 0.11097473 0.081315935 0.0726393
0.009028059 0.053384833 0.07291742 -0.030414166 0.058978654 0.03248417 -0.07579227 -0.06995874
-0.009928731 -0.051700175 -0.068569474 -0.04477297 0.04450548 0.026988545 -0.062748544 -0.101936616
-0.033259857 0.052561227 -0.10193987 -0.027368331 0.09204728 0.013493783 0.0005573795 0.059416704
-0.009776283 -0.05299828 -0.032241184 0.013036252 0.061430804 -0.10750486 0.07351539 0.06927845
0.01568195 -0.08581936 0.04592787 -0.013416734 -0.046227712 -0.11683139 -0.08355001 0.0847972
0.08969806 -0.09394271 0.010178548 0.051524524 -0.03545154 0.002893623 -0.02878457 0.0267373
0.098243535 -0.10729341 0.09150829 -0.04226156 -0.09703805 -0.05608672 0.11034932 -0.07582743
-0.038227983 0.04898115 0.040287983 -0.107932426 -0.043831777 0.053046495 0.014638254 0.053168707
-0.09233142 0.025095522 -0.11025198 0.07994126 0.020476855 -0.08320781 -0.008884499 -0.09569813
0.110159256 -0.035764214 0.081642136 -0.072202265 -0.065914616 0.009222265 0.017138597 -0.060451962
-0.019659014 0.010009647 -0.09076181 -0.047509864 -0.08745499 -0.057817318 0.0524977 -0.094571665
-0.06600239 0.06160786 0.055303343 0.068632446 -0.08771831 -0.10107975 0.051016517 0.026420753
-0.054862652 0.114290036 0.01930418 0.08782115 -0.073300146 -0.05668212 -0.09091612 0.075250275

critic.2.weight f4 [64, 128]
00000000: 7036 a3bb 01ac 8abd 3ab7 703d 869b 8fbd
00000010: 1147 1bbd 5015 573c c800 2fbd 5a53 4abd
00000020: 6642 773d c176 a73d 8294 a0bd d8a1 033d
00000030: 58fa c6bc e0ef 713c d827 c1bc 309a 55bc
00000040: 7626 ffbc 320c 4a3d 0b84 52bd 424f 8cbd
00000050: 08c0 e53c 743a 71bd c787 ad3d 0c42 b1bc
00000060: 80ab 7dba 5658 6e3d aa16 a8bd fcff d53c
00000070: f87d a2bd b08e 8dbb 920f 0d3d 80a6 b4bd
00000080: 1e75 7d3d df35 9bbd d49e ee3c 0685 3c3d
00000090: eeee 783d e0ea 92bd bd92 9cbd 3b22 56bd
000000a0: 2f88 903d 32ea 4c3d fb30 65bd f5f8 9b3d
000000b0: 2086 c0bb 4939 84bd 0845 f93c edc8 b2bd
000000c0: 644c a7bc f8d9 04bd 626b 473d 0b79 0ebd
000000d0: 9240 613d 50cf b4bb a85a 6dbd c133 abbd
000000e0: a0b9 24bc e2ff 18bd 6a38 0fbd 6a35 203d
000000f0: fc4f 893c 7d4b 62bd ac1a ec3c 4d31 41bd
00000100: 36e2 2c3d 485f 2dbd 324d 693d 0543 8abd
00000110: 9860 16bd 8ecc 1bbd d9df a43d 0f1d 97bd
00000120: 0031 7abd 3d49 88bd 60a6 663b 66d1 183d
00000130: 149e f63c eac2 6c3d 20fd 4abb 555b 843d
00000140: d754 a33d cb68 86bd 5e10 0ebd e8ac 3b3c
00000150: 7013 93bd 1034 d33b e038 2a3b a25d 783d
00000160: 2137 05bd 6bfa 87bd 395a a63d e091 3c3b
00000170: c86c 6bbc d907 a13d dad0 eebc a7fa 9e3d
00000180: 0870 9cbd 96a3 223d f8a1 1abc 9aed 63bd
00000190: f869 273c 8a80 0bbd 7241 4fbd cef6 403d
000001a0: f676 fabc aae2 0a3d e082 e03c c047 0d3d
000001b0: 206a 88bd 270d 73bd e125 953d d84d 79bd
000001c0: 9051 30bd bdd9 8ebd a454 adbd 509e 883b
000001d0: 2e7a 333d c056 1d3b e450 60bd b95a 67bd
000001e0: 3e3e 73bd bfa6 a53d 0064 8bb8 5a4f 8dbd
000001f0: 6472 b13c 42d9 72bd 0e6b 3d3d 6bc3 02bd
00000200: b311 8a3c edb7 c9bc cf16 003b 7710 593d
00000210: 73fe 9d3d bf2f 2e3d 79d5 783c cd0f 0a3d
00000220: a202 573d c13e 123b 1f93 293d 2a35 bdbd
00000230: 53c6 6c3d 6faf 34bd 9d21 873d 241f b23c
00000240: b774 8f3c f817 afbd 03e5 adbd f8e6 283d
00000250: b425 dcbc b530 9fbc eee9 6b3d b418 05bc
00000260: 665c 9b3d 5d4c 5dbd ca7b 973d 030c 0d3d
00000270: 5f65 4f3c 12a8 32bd 05e4 63bd 1e11 e4bc
00000280: 2fa5 9f3c ab56 e3bb e982 cfbc a94a 833c
00000290: 337f 883d 62a0 84bd 8b39 73bc b7a8 95bd
000002a0: 7a4a 77bd 1a8b 733d 6281 f0bb e1f5 2a3d
000002b0: dfde 403d 7312 adbd 89d1 00bd 7722 9c3d
000002c0: 79bf 253d 804c b6bd 2518 acbd 9fda 3fbd
000002d0: 7abf 453d 3dba 86bd 4aac 96bd 7fc1 8d3d
000002e0: 5bf4 903d 84bf af3c 33c8 92bb bad9 713d
000002f0: d217 94bd 5b10 4d3d aead 5abd 9372 15bd
00000300: a252 8fbd 7e90 f1bb 2d03 51bd e81b 5d3c
00000310: ea59 103d 4609 0e3d 873b 993c 47c2 52bc
00000320: 5546 84bd ee6c 8b3c 1748 84bd ac67 223d
00000330: 3f4a b0bc 73e3 4cbd b2ea 603b e7da 08bd
00000340: 2b67 8ebc c178 5ebd f7c8 893d 0059 1a3a
00000350: 9f24 ee3c 573b 11bd 525d 6bbd a4fc 47bd
00000360: dce2 7bbd 5925 253d c479 85bc f8f7 24bd
00000370: e259 b2bc 4faf 233c b82c e0bc 20c8 b13c
00000380: 05b4 fcbc e6a3 dbbc b858 45bd e22e 7abd
00000390: 479d 55ba 9950 223d 6660 babc 4edf 7c3d
000003a0: 8277 553d 10c4 efbb fc4a 4cbd 9919 5cbd
000003b0: b5af b3bc 9f2b 7ebb d992 ef3c 91d0 61bd
000003c0: 911e 36bd 7e4d 543d 3f48 63bd 85b9 96bd
000003d0: 7877 e6bc 4b34 bebd b5ee 413d ad23 963c
000003e0: b3da 613d 8730 1bbd a73c 88bc 0102 873c
000003f0: 7a84 99bd 0834 9f3c 32cc ec3c 2f9c 21bd
-0.0049808547 -0.067710884 0.05876849 -0.070120856 -0.03790957 0.01312764 -0.042725354 -0.049395896
0.060366057 0.081769474 -0.078408256 0.032136768 -0.024289295 0.014766663 -0.02357857 -0.013037249
-0.03114627 0.049328037 -0.051395457 -0.06851055 0.02804567 -0.058893636 0.08473163 -0.021637939
-0.00096767396 0.058189712 -0.08207448 0.02612304 -0.07934183 -0.004319988 0.034438677 -0.0882082
0.06187927 -0.075786345 0.02912847 0.0460253 0.060774736 -0.07173705 -0.076451756 -0.05227874
0.07057225 0.050028034 -0.055954915 0.07615844 -0.005875364 -0.06456239 0.030428424 -0.0872973
-0.020422168 -0.032434434 0.048686393 -0.034783404 0.05499322 -0.0055178776 -0.057947785 -0.08359481
-0.010054022 -0.037353404 -0.03496591 0.03911344 0.016761772 -0.055247772 0.028821312 -0.047166158
0.04220792 -0.042327195 0.056958385 -0.06751064 -0.036713213 -0.038036875 0.08050508 -0.07378589
-0.061081886 -0.06654594 0.0035194382 0.037309073 0.030104674 0.057803072 -0.0030973628 0.06462733
0.07975166 -0.065629564 -0.034683578 0.011454798 -0.07181442 0.0064454153 0.0025973842 0.06063617
-0.03252328 -0.0663956 0.08122677 0.0028773472 -0.014369197 0.07862825 -0.029152323 0.07762652
-0.07638556 0.03970679 -0.00943803 -0.055646516 0.010218136 -0.03405813 -0.050599523 0.04711037
-0.030574303 0.03390757 0.027406156 0.034492254 -0.06660867 -0.059338715 0.072826155 -0.060865253
-0.043046534 -0.06975124 -0.084634095 0.004169263 0.04381769 0.0024008006 -0.054764643 -0.056483004
-0.05938553 0.08088445 -6.646663e-05 -0.06899901 0.021660991 -0.059289224 0.046244673 -0.031924646
0.016854143 -0.024623835 0.0019544845 0.052994218 0.07714548 0.042526003 0.015187615 0.033706475
0.052492745 0.0022315236 0.04140007 -0.09238656 0.057806324 -0.04411262 0.06598208 0.021743365
0.017511709 -0.085494936 -0.08490946 0.041235894 -0.026873447 -0.019432405 0.05759614 -0.008123565
0.07585983 -0.054027904 0.07396658 0.034435283 0.012658446 -0.043617316 -0.05563738 -0.027840193
0.019487945 -0.006937822 -0.025330978 0.016026812 0.06664886 -0.06475903 -0.014845262 -0.073075704
-0.06037376 0.05945883 -0.0073396424 0.041738395 0.047087546 -0.084507845 -0.03144983 0.07623761
0.040465806 -0.0890131 -0.08403043 -0.046839353 0.04827831 -0.06578491 -0.0735708 0.06921672
0.07077857 0.021453626 -0.004479432 0.05904553 -0.07231106 0.050064426 -0.05338829 -0.03648622
-0.06998183 -0.007371961 -0.05102842 0.013495423 0.035242 0.034676813 0.018705143 -0.012863702
-0.06458727 0.017019715 -0.064590625 0.03964965 -0.021519778 -0.0500216 0.0034319577 -0.033411887
-0.017383179 -0.05431438 0.06727784 0.0005887896 0.029070197 -0.03545698 -0.057462044 -0.04882492
-0.061495647 0.04031882 -0.016293414 -0.040275544 -0.021771375 0.009990527 -0.027365074 0.021701872
-0.030847559 -0.026811551 -0.048180312 -0.061079867 -0.00081487413 0.039627645 -0.022751044 0.061736397
0.052115925 -0.0073170736 -0.0498762 -0.05373535 -0.02193437 -0.0038783324 0.029244827 -0.055130545
-0.044462744 0.051831715 -0.05548882 -0.07359604 -0.028133139 -0.09287318 0.04734679 0.018327558
0.05514021 -0.037888076 -0.016630484 0.016480448 -0.07495971 0.01943399 0.028905962 -0.03945559

critic.2.bias f4 [64]
00000000: e6cd 433d aa91 0fbd 7ea9 ccbc ed43 553d
00000010: c000 74bc 1b96 793c 5d1a 6d3d 29e3 8bbd
00000020: 6078 81bd 82c5 87bd a4cc b4bd 2620 85bd
00000030: 5765 a03d 1d7c 983b 6cbb c03d 1fcf 11bc
00000040: a06c a63c 4fe3 65bd ee91 43bd 04eb 6bbd
00000050: f4c9 65bd 8d22 753b af2f bb3a 508f acbd
00000060: d7a0 5ebd 5234 743d 76b8 b2bd 73d4 a23d
00000070: fe2c 5bbd b3f6 a33d 2722 94bd 5ef3 b7bc
00000080: c1e5 a0bd 478a 43bd cde5 ab3d 4506 783d
00000090: 5726 a83c 6422 6bbc 0f2a d4bc 9cc2 15bc
000000a0: 0fb9 983d 1709 0e3d df5f 213d 3248 8cbc
000000b0: 5c47 863d acd0 adbd 10bd 72bd 6b51 763d
000000c0: b11a 82bd 20eb 4ebd 7122 9fbc 3aab 633d
000000d0: f733 803d f397 bd3d c149 453d 1429 503d
000000e0: b038 a63d dc8a abbd 6fba 8dbd ec82 94bd
000000f0: bdc5 563d 1479 353d a5a0 8a3c 6efa 593d
0.047803782 -0.035051025 -0.024983164 0.052066732 -0.014892757 0.015233542 0.05788647 -0.06830437
-0.06321788 -0.066294685 -0.088280946 -0.065002725 0.07831829 0.0046534673 0.09410748 -0.008899479
0.020315468 -0.05612498 -0.04774659 -0.057597175 -0.0561008 0.0037404627 0.0014281179 -0.08425772
-0.054352608 0.05962021 -0.087265894 0.07950678 -0.053509705 0.080060385 -0.072330765 -0.022454914
-0.07856322 -0.047739293 0.083934404 0.060552854 0.020526094 -0.014351461 -0.025898961 -0.009140637
0.07457172 0.034676638 0.03939807 -0.01712427 0.065565795 -0.084870666 -0.059262335 0.06013624
-0.06352747 -0.0505172 -0.019425603 0.055583216 0.062599115 0.09257498 0.04816604 0.050820425
0.08116281 -0.08376095 -0.06920325 -0.07251534 0.05243467 0.044304922 0.016922304 0.053217344

critic.4.weight f4 [1, 64]
00000000: e637 a93d a525 c8bd 824e 393d 3d76 d13d
00000010: 4174 ef3c 4700 ce3d d9e9 b63d 3886 0abd
00000020: fd80 faba db1c 34bb 0662 bdbd 8fa6 ff3b
00000030: 9f16 32bc 0d0d f93d 4ec7 af3d 7d88 d93c
00000040: b896 e03d 0f0b c4bc 7082 c33d 6a6d f23d
00000050: 4841 d53d 3236 a43d 4e31 803d 68be 51bc
00000060: b7f4 243d ba11 0cbd 131c 6bbd 80a9 af3d
00000070: d88c 7c3d 5fcd e53c 8727 fe3d a5c7 7e3d
00000080: 39a3 afbd 58f2 813d 6fe8 9b3d 505e a1bd
00000090: 523a 4cbd 5fa7 dcbd 7fa1 633c 46e4 903c
000000a0: 04e7 a13d 029d a23d e373 583d e48b f63d
000000b0: 0426 a1bd 216a 993d 87ae 54bd fa14 86bc
000000c0: 24eb e83b 0496 e13d 7ee5 4b3d aac2 2abd
000000d0: da8b 413c f495 ba3c f0e7 3fbd d34c 8c3d
000000e0: 7727 c23d f9fa 34bc 0099 cbbb 6675 c6bc
000000f0: 0d04 9dbd 94da 5bbd 6aac dfbd 0e37 77bd
0.08262615 -0.09772805 0.045240887 0.1022763 0.029230239 0.10058647 0.08931322 -0.033819407
-0.0019111928 -0.002748302 -0.09247212 0.0078018378 -0.010869651 0.12160692 0.08582936 0.02655434
0.10966247 -0.023931054 0.09546363 0.11837275 0.10412842 0.080181494 0.06259404 -0.012801744
0.04027244 -0.034196593 -0.05739982 0.085772514 0.061657757 0.02805203 0.12409883 0.062202115
-0.08576054 0.063450515 0.076126926 -0.07879317 -0.049860306 -0.10774111 0.013893484 0.017686974
0.07905391 0.07940103 0.052844893 0.12038401 -0.07868579 0.074909456 -0.051924255 -0.016367424
0.007108109 0.11014941 0.049779408 -0.041689552 0.011813128 0.022776581 -0.046852052 0.068505906
0.094801836 -0.011046165 -0.0062133074 -0.024225902 -0.07666788 -0.05367525 -0.10921557 -0.06035524
