output/ppo_model.pth (torch, 159267 bytes, 11 tensors)

actor.0.weight f4 [128, 81]
00000000: 9ccf 08bd 49f2 543d 10c1 ac3c 4999 ae3d
00000010: 9a14 4e3d ecd7 aebc 5d38 02bd 5762 a9bc
00000020: 8d1e e8bc d170 8e3c f925 053d a591 cf3d
00000030: dbe1 33bd 6bc5 813d 7e32 87bd 1783 95bd
00000040: cc1b 9e3c 6538 573d 344c fa3d b016 b5bc
00000050: b019 b73d 6f83 ca3d ae89 f03d 58fa 7bbd
00000060: 94bd 7e3d 6268 eabd 9349 533d 13be d6bd
00000070: 260d 5c3d 212c 95bd f929 873d 27a3 95bc
00000080: c2ab dcbd 3380 4d3c 626d 1c3d df73 8d3d
00000090: ac9a 94bd ff8b 8e3d c7a3 dbbd 8b7e aa3d
000000a0: 847d 173d 5f75 c9bc 4415 a3bd 3c4e edbd
000000b0: 495c 2e3c ba07 99bd 267f ea3d c56f c53d
000000c0: af6a 3ebd ea29 e43c 7eb4 91bd a2c7 5bbc
000000d0: aad5 4c3c e9ff 44bc 06e3 c03d 520e c6bd
000000e0: 93bc 923d 4604 80bd 94e9 fabc cb86 0fbd
000000f0: dbb1 2dbd 4bcb 813d 4a90 893d e55f 833d
00000100: 9a14 7dbd dca4 22bd e35d 46bd 0a7b 813d
00000110: a65e f93d f746 80bc 1622 09be 9bf3 643d
00000120: 69f0 913d 9e53 213d 8916 973b 720e 263d
00000130: 5671 a13c 72d1 37bd 0b78 c53d dc8d bb3c
00000140: 90d9 c03c 7dad 783d 67b8 ad3b 0706 2cbd
00000150: ec27 ecbd ff07 f13c 92b9 b7bd 706b b53d
00000160: 56a3 4a3d a8b9 1f3d 4a2b 37bd 23a9 52bd
00000170: 2e12 4e3d 7505 67bd d4af dcbd 786b 933d
00000180: f1ce 3c3d d6d9 ba3c 7846 41bd 65af 5abc
00000190: bdc6 373d 971b adbd 0459 023e f2d0 923d
000001a0: 512f 843d e3b3 7c3c 110f e83c 858b 823d
000001b0: 7a6b c9bd 9ac3 243c 826f 01be 5e38 8b3d
000001c0: 5414 efbd 60d0 14be 844c 87bd 0b24 ed3d
000001d0: 3d71 353d cac4 87bc 81df 843a f073 d13d
000001e0: 68e1 823c 5fd5 903b defe 46bd a252 333d
000001f0: 1110 97bd 7153 8e3d bbab 87bd 5721 9d3d
00000200: ed23 abbd c91f acbd 52f4 323b c749 5e3c
00000210: 0f71 77bd 6d5f 3f3b 7d22 b3ba 4510 cbbd
00000220: 911d be3c ad08 7e3d 149a 143d 79c2 003e
00000230: c076 a6bd d39f e93c 3bae 8a3d 7a52 73bd
00000240: d106 a73c 76e4 fdbc b0bf 153b 046b 413d
00000250: 7f84 6f3d feba 5f3b aff0 1c3d 4f8d b13b
00000260: 0ccb a43d 34bf 6a3d 4fe5 8f3d d76b a53d
00000270: 9f4d 0b3d 97e3 afbd 997e 5abc 8c26 f7bc
00000280: b0c9 833d 280e 273d d297 613d 16f6 db3d
00000290: 9bf6 cd3d 8205 883d 04ba c0bd ac1b c9bd
000002a0: de0d 0bbd e302 853d 0679 c23c e221 ca3d
000002b0: 8b76 28bd 27df 53bd 65b7 d63d 47f0 99bb
000002c0: 4187 5ebd 3476 433d 197f b23c 7c22 e23d
000002d0: a5a3 d93c 02ee 6e3d a537 c03d 1848 e5bc
000002e0: bf15 81bd 674f 603d ec71 903c e618 96bd
000002f0: 1119 13bc 69c3 413d 10e8 a3bd 88ef ffbb
00000300: 43ae 39b9 1fde 50bd 8097 a9bd b866 7a3b
00000310: ba04 df3d 8a64 763c 1ba5 18bd 06a4 ccbd
00000320: 54d2 4e3d 6a7d 8f3d dbb7 233d b888 eb3d
00000330: 57b6 88bc c151 723c 1da2 733c 68d2 ebbd
00000340: fd47 b5bd e156 0ebd 2ed7 253c 7d06 f93c
00000350: 4dc7 09bb fd59 c33c c4d3 dcbc 42d7 9b3d
00000360: 31d6 c3bd 0510 f1bb 96bf 463d dded 9d3d
00000370: 7384 1f3d e630 263d b4c7 29bd 409b b73d
00000380: 3aad be3d 6f46 1cbd 0cf8 e93d 9254 e63c
00000390: 02ff 963c a629 ff3c 33bd 8dbd cd1e 6abd
000003a0: e3b7 923d 3b2f aa3a 410f 483d 259c d2bd
000003b0: 0e7b 66bd b318 a8bd 242c a9bd 4a3e 9b3d
000003c0: 6c4b 733c cd73 bf3c 1ca4 ed3b 9ac0 203d
000003d0: b4fd 98bd 18bc 3d3d b74c 09bd 00f9 49bb
000003e0: deff 6ebd 020f 03bd 54f6 983c 56a4 bcbc
000003f0: df1b 473d 418c dc3d e55f 863d 743b 65bd
-0.033401117 0.051988874 0.021088153 0.085253306 0.050312616 -0.021343194 -0.031792033 -0.020676775
-0.02833488 0.01738778 0.032506917 0.10135201 -0.043916564 0.063364826 -0.066014275 -0.07300394
0.019300364 0.052544016 0.12221566 -0.022105545 0.089404464 0.0988835 0.1174501 -0.061518043
0.062192515 -0.11445691 0.051583838 -0.104854725 0.053723477 -0.072838075 0.065998025 -0.018266274
-0.10774948 0.012542772 0.038190253 0.06906866 -0.07256064 0.06960296 -0.107245974 0.083249174
0.036984935 -0.0245921 -0.079630405 -0.11587188 0.01064212 -0.07472177 0.11450033 0.09640459
-0.04648846 0.027852017 -0.07114504 -0.013414295 0.012502113 -0.012023904 0.09418301 -0.096707
0.07164874 -0.06250815 -0.030628957 -0.035040658 -0.042405944 0.06337603 0.06716974 0.06414775
-0.061787225 -0.039708003 -0.04842938 0.06322296 0.12176256 -0.015658839 -0.13391909 0.055896383
0.07125933 0.039386384 0.0046108407 0.04054112 0.019707363 -0.044877477 0.09642037 0.022894792
0.023541242 0.060712326 0.0053015235 -0.041997936 -0.11531052 0.029422758 -0.089709416 0.08858383
0.049472176 0.038995415 -0.044719018 -0.051430833 0.050310306 -0.05640169 -0.10775724 0.071982324
0.046095792 0.02280895 -0.047186345 -0.013347481 0.044867266 -0.08452528 0.1272927 0.071687594
0.064543374 0.015423748 0.028327497 0.063742675 -0.09834953 0.010056401 -0.12640193 0.067978606
-0.11673799 -0.14532614 -0.06606391 0.1157914 0.044297446 -0.016573329 0.001013741 0.102271914
0.015976623 0.004419967 -0.048582904 0.043779977 -0.07376111 0.06949509 -0.06624552 0.07672375
-0.08356462 -0.084045 0.002730627 0.013567395 -0.060410555 0.0029201165 -0.0013666895 -0.099152125
0.023207458 0.062019993 0.036279753 0.12574185 -0.081281185 0.028518593 0.06771513 -0.059404828
0.020388993 -0.030992728 0.002284985 0.0472212 0.058475967 0.0034138556 0.03831547 0.0054184566
0.080465406 0.05731125 0.07026159 0.080772094 0.034009572 -0.08588331 -0.013335847 -0.030169748
0.06434953 0.040784985 0.055076428 0.107402965 0.10056802 0.066416755 -0.0941048 -0.09819731
-0.03394877 0.06494691 0.02373935 0.09869744 -0.041128676 -0.051726487 0.104841985 -0.0046978327
-0.054328207 0.04772015 0.02178912 0.110417336 0.02656729 0.05833245 0.09385613 -0.027988479
-0.06302976 0.054763224 0.017632447 -0.07328968 -0.008978144 0.0473055 -0.08003247 -0.007810537
-0.00017707892 -0.05099308 -0.082808495 0.0038208198 0.108895734 0.015038619 -0.03726683 -0.099922225
0.050493553 0.07006343 0.03997026 0.115006864 -0.016688509 0.014789999 0.014870194 -0.11514741
-0.08851621 -0.034750823 0.010122104 0.030398602 -0.0021023334 0.02384662 -0.026956446 0.076094165
-0.09562338 -0.007356646 0.048522554 0.077113844 0.038944673 0.040573977 -0.041450217 0.089651585
0.09310384 -0.03815311 0.11424264 0.028116498 0.018432144 0.03114779 -0.069208525 -0.05715828
0.0716398 0.0012984046 0.048842672 -0.102836885 -0.056269698 -0.08207836 -0.08260372 0.0758024
0.014849525 0.023370648 0.0072522294 0.03924618 -0.07470265 0.04632196 -0.033520427 -0.0030818582
-0.058349483 -0.031996734 0.018672146 -0.02302758 0.048610564 0.10768939 0.06561259 -0.055964902

actor.0.bias f4 [128]
00000000: e24d 563d 2d18 f13c c568 c73d 76d2 bfbd
00000010: b247 8c3d 2bdd d6bc 4803 cb3d 8b17 b33d
00000020: fc13 4bbc 7462 9bbb 8d90 7d3d 3862 4b3d
00000030: 7184 9737 5efa 62bd d280 36bd f87a b9bc
00000040: e7dc 54bc 98ca 0ebd 7ef7 1c3d 0f10 a23d
00000050: e0fb bc3d 4978 903d 5939 073e 59c4 73bd
00000060: 7195 ddbc c636 0c3e 8307 babc ce17 a63d
00000070: db95 0c3d 4bcc de3d 770a 75bd 791b c0bc
00000080: 87b0 ad3d 791d cc3c 3d4c b5bd f727 b8bd
00000090: 2e44 1e3c 1fa6 93bd 024f 11bd 3306 743d
000000a0: b3e8 093d 2fac 92bc 4629 8ebd 675d 71bd
000000b0: d527 5abb edf2 31bd da3a 993d ea07 b03d
000000c0: 8496 73bd 648a 2abc fdc4 983c f415 163d
000000d0: 7f66 7abd 435e 8e3d 79e7 70bd e538 d83d
000000e0: f6b2 0fbd 37ef 8bbd b4fb 693d 0f45 293b
000000f0: ab8f a0bd 6aaf 65bb f496 df3c 6ac0 b3bd
00000100: 929b a5bd 7415 203d e53d f83d 9788 043e
00000110: b0d5 133d aad4 9b3d 59a9 873d cd40 93bd
00000120: bd81 b7bc 4dbd 8ebc 40f2 c23d facb b23d
00000130: 1301 2bbd 7d15 65bc 847f aabc e5c2 a8bd
00000140: 5c2d 0cbd 4cad acbd 65bb 98bd 7ee3 8cbd
00000150: 2d97 8bbc 5a87 27bd 47ba c1bd a41e a73d
00000160: c46c b2bd 57ed c0bd e0fa 4cbd 38ec f1bc
00000170: 0233 92bd 5afa a03c 1c27 4cbd 39d6 b83c
00000180: ff32 a3bd 4d76 093d 93b2 b93d 4c8b 853d
00000190: f653 d7bb 7891 6fbd 4b28 b73d b028 b0bd
000001a0: b17f b83d 3cb1 2b3d a5e4 543d f122 bbbd
000001b0: 78a8 e93c e393 47bc 523f a0bd b20a 7c3d
000001c0: b72d 163e 9353 da3c 9d36 cb3d dd55 a43d
000001d0: 543a ed3c 610e e43c cc29 f1bc c2fe e9bd
000001e0: 1247 ec3c 6032 b93d 5b22 dcbb 6f08 b23c
000001f0: 2302 f33b 8539 953d f9d0 60bd 2d5e c4bd
0.05232037 0.029430473 0.0973678 -0.09366314 0.06849612 -0.026228508 0.09912735 0.08744725
-0.012394901 -0.004741961 0.061905432 0.049654216 1.8062276e-05 -0.05541455 -0.044556446 -0.022641644
-0.01299212 -0.034861177 0.038321964 0.07913219 0.09227729 0.070541926 0.1320547 -0.059513424
-0.027048798 0.1369277 -0.02270866 0.08110009 0.0343226 0.108788095 -0.059824433 -0.0234506
0.084809355 0.024916397 -0.08852432 -0.08991998 0.00965981 -0.072094195 -0.03547574 0.059576225
0.033669185 -0.01790437 -0.06941466 -0.058926966 -0.0033287902 -0.043444563 0.07481928 0.085952595
-0.059469715 -0.010408971 0.018648619 0.03664203 -0.061132904 0.06951573 -0.0588145 0.10557727
-0.03508278 -0.06832736 0.05712481 0.0025828516 -0.078399025 -0.0035047182 0.02729366 -0.087769344
-0.08086313 0.03908296 0.121211804 0.1294273 0.03609246 0.07608922 0.066240974 -0.07190094
-0.022400731 -0.01742425 0.09518862 0.08730312 -0.04174907 -0.013982174 -0.020812757 -0.08240298
-0.034222946 -0.08431491 -0.07457618 -0.06879328 -0.01703986 -0.040900566 -0.09459358 0.08160141
-0.08712152 -0.09420269 -0.05004394 -0.029531583 -0.07138635 0.019650627 -0.049841985 0.022563087
-0.07968711 0.033560086 0.090672635 0.065207094 -0.006571288 -0.05848834 0.08943232 -0.086015105
0.0900873 0.04191707 0.051975865 -0.09137524 0.028522715 -0.012181255 -0.078245774 0.061533637
0.14665876 0.02665118 0.09922526 0.080241896 0.028958477 0.027838888 -0.029438876 -0.11425544
0.028842483 0.090428114 -0.0067179627 0.021732537 0.007416026 0.072863616 -0.05488679 -0.09588275

actor.2.weight f4 [64, 128]
00000000: d185 2fbd 500a 5b39 5d5b 1ebd 5525 b8bc
00000010: 477a c5bc 3ad6 96bc 2b23 22bd a8df 57bb
00000020: 3183 73bd 7a1a 713d 25f5 7f3c 5664 a2bb
00000030: 118c 13ba 2c38 35bd 33bf 39bd c245 42bd
00000040: 5b4a ba3b be7e 6a3d 23b1 98bd e877 a43c
00000050: ecd1 c8bc 4b44 fbbc cae4 253c 668c 2fbc
00000060: eb18 3bbd 9175 8dbc c170 953d 0236 2d3d
00000070: e841 d33b 1e47 013d 4c09 ae3d 0dbc 69bd
00000080: 7662 a23d 658e abbd 2071 7c3d f785 a33d
00000090: cbd3 123d d04d 953c efd3 acbd 441a acbd
000000a0: b2f1 8ebd 59af 9bbc 8d0b 55bd 13e8 fdbc
000000b0: f00d 6abd 4d67 76bd c5d4 b8bd e94f db3c
000000c0: 3112 173d 042c 803d fb25 223c 9bff c0bd
000000d0: f4b9 83bd a993 6b3d 05a5 403d 1ffe bfbc
000000e0: b75d 4bbd c458 c8bc 0760 103c f903 ab3d
000000f0: ad49 8d3d dbb6 9d3d eeb5 6cbd c29e 64bb
00000100: 487a 183d 4598 333d 09e3 323d e539 173d
00000110: 7d8f e8bb 5c41 47bd ce58 f13b 62af e43b
00000120: 98d5 ab3d 4866 bebc cbce b9bc 40d2 b63c
00000130: 07d3 453d de0a 6b3d 4a1e 553d 4159 3c3c
00000140: bbdb 653d 9f0e 6dbd 9b35 463d 6426 983d
00000150: decf a8bd 2767 8abd 4ff6 90bd af62 593c
00000160: 48bb 0c3d e9b2 983d aa35 e63b e18a 98bd
00000170: 1f99 89bd ac79 8abd 6bfd 9c3d e9ff c83c
00000180: e70e 5d3d 5d0a b93d 68dd 793c c95e 7e3c
00000190: deb0 3a3d f8a4 a6bc 76b2 89bb e15e 8d3d
000001a0: b75d 3f3b bf60 46bd 07d2 233d 0aa8 b1bd
000001b0: 96ae 853d 9326 bf3d 85a5 97bd f8e6 17bd
000001c0: 7db1 e8bc faa4 d8bc e5f7 28bc fc55 a13c
000001d0: 5667 8a3d 0d88 58bd 1f83 973d 9150 9c3d
000001e0: 1a95 4abd d4f5 c73b 8efd 5bbd 8d51 77bd
000001f0: 05ee 5fbd 4028 0ebc 8e4c 7f3d 77e0 8bbb
00000200: 0af5 dcbc f7e8 90bb 0196 18bd 830a 573d
00000210: 6daf 033c 9b5e b8bd 90ec 733d a08b 8cbd
00000220: 9301 99bd 4a2e 20bd 8882 553d 9af5 813d
00000230: 7c21 babd 5589 a53d 5d3f d1bb 0512 093b
00000240: d402 11bb bab8 71bd f16c ffbc 668a 3a3c
00000250: da54 6dbd d471 abbc e9ee 883d ac70 693c
00000260: abea 803d aa55 b0bd 544b 2bbd b444 42bc
00000270: ada9 d8bd bade bbbd 75a6 413c f2c0 513d
00000280: b841 3fbc 4a2c 313d fa20 ddbc d483 33bd
00000290: afb2 d13b f8af d8bd a802 213c f6ad 5bbb
000002a0: 9fff 83bd 736b e43c c5ee 913c abc5 adbd
000002b0: 9a49 513d 166f 533d 1dce b33d 4347 c93c
000002c0: 0877 88bd 2585 443d 1f51 123d 9c88 84bd
000002d0: 5cce 66bd 88ea 69bd 7555 96bd 98f3 153c
000002e0: 2c19 d6bc 0a12 c93c cca2 5aba ce0f dcbc
000002f0: d750 be3c 04e1 29bd 55fd 5d3d 2ae4 e1bc
00000300: 80bb 2e3d d1ef 37bd fe60 4b3c 0b24 503c
00000310: b8ec a63d 3b01 4e3d 33c2 c5bc bb93 bdbc
00000320: 948d 7bbd fd9d 903c d88d 283d bb49 bfbd
00000330: fcb1 623d 60c2 9dbd 569d ee3c ae9c abbd
00000340: c138 0b3d d024 013d b12e 903d 1a5d a8bc
00000350: 2895 2abd 7970 abbd f8cf 37ba 7124 a33d
00000360: 8cc4 a5bd 9a12 43bd 8310 04bd 9eca b9bc
00000370: 10bb 9f3d 92d5 d4bc 1e4c aebd b232 8d3c
00000380: b984 ab3d 6caf 8d3d 0ab7 3dbd 31ff 00bd
00000390: 5e4b d83c abca a0bd ec5f a53c 4eb7 97bd
000003a0: 7e1f a43b cf26 e6bc e862 3ebd cc3e 0dbd
000003b0: 725f 833d b6b7 a7ba 9a51 20bd 4c43 213c
000003c0: bc41 8cbc 20f4 a9bd 4301 04bd a1ca 8cbd
000003d0: aadf 99bd 9732 6c3d 2d8e 28bd 21bd 53bc
000003e0: 7fa8 b6bd 27c7 463d 36d9 09bc 17e8 a7bc
000003f0: e031 a5bd 0d77 733d d093 3abd ebca a7bd
-0.042852227 0.00020889309 -0.03866135 -0.022478739 -0.024106158 -0.018412698 -0.03958432 -0.0032939706
-0.059451286 0.05886314 0.015622412 -0.0049558086 -0.00056284765 -0.044243023 -0.045348357 -0.047429807
0.0056851334 0.057249777 -0.07455661 0.020076707 -0.024514161 -0.030672213 0.010125348 -0.010714626
-0.04567806 -0.017267974 0.07296897 0.042287834 0.0064470656 0.031561963 0.08497867 -0.057064105
0.07928936 -0.08376769 0.061631322 0.07984536 0.035846513 0.01822558 -0.084388606 -0.08403447
-0.069796935 -0.01900451 -0.05201297 -0.03099445 -0.057142198 -0.06015711 -0.090249576 0.026771503
0.036882583 0.06258395 0.009896751 -0.09423753 -0.06431952 0.057513867 0.047032375 -0.023436604
-0.04964992 -0.02445639 0.008811957 0.08350367 0.06898818 0.077008925 -0.05779069 -0.0034884666
0.03722599 0.043846387 0.04367355 0.036920447 -0.0070971833 -0.048646316 0.0073653227 0.006978915
0.08390349 -0.02324213 -0.022681614 0.022317052 0.048296954 0.05738341 0.05203084 0.011495889
0.056117754 -0.057875272 0.048390966 0.074291974 -0.082427725 -0.06757956 -0.0707823 0.013268157
0.034358293 0.074559994 0.00702544 -0.07448364 -0.06718659 -0.06761488 0.07665523 0.02453609
0.05396929 0.0903518 0.015250541 0.015525528 0.04557883 -0.020342335 -0.0042021824 0.06902862
0.0029200146 -0.048432108 0.03999522 -0.08674629 0.0652744 0.09333529 -0.07404617 -0.037085503
-0.028404946 -0.026445854 -0.010313009 0.01969432 0.06757991 -0.052864123 0.07398056 0.07632554
-0.0494586 0.006102303 -0.053708605 -0.060380507 -0.054670352 -0.008676589 0.062328868 -0.0042687017
-0.026972312 -0.004422303 -0.03725243 0.05250026 0.00803743 -0.090024196 0.059551775 -0.06862569
-0.074710034 -0.039106645 0.052126437 0.06345673 -0.09088418 0.08082835 -0.0063857273 0.0020915281
-0.002212693 -0.05901406 -0.031179877 0.011385536 -0.05794225 -0.0209283 0.066861935 0.0142480545
0.06294759 -0.08610089 -0.041819885 -0.0118572 -0.10579238 -0.09173341 0.011819472 0.051209398
-0.011673383 0.043255128 -0.026993264 -0.043826893 0.0063994746 -0.105804384 0.009827293 -0.0033520437
-0.0644524 0.027883267 0.01781405 -0.08484968 0.051095583 0.05161961 0.08779547 0.024570113
-0.066633284 0.04797854 0.035721894 -0.06471369 -0.056349143 -0.057108432 -0.073405184 0.009152316
-0.02613505 0.024544735 -0.00083402987 -0.026863005 0.023231907 -0.041474357 0.054196674 -0.027574617
0.042659283 -0.04490644 0.012413261 0.012703906 0.08150619 0.050294142 -0.024140453 -0.023141732
-0.061414316 0.01765346 0.041150898 -0.09340235 0.05534552 -0.0770309 0.029127758 -0.08379494
0.03398967 0.031529248 0.07040156 -0.020552207 -0.041646153 -0.08371062 -0.0007011886 0.07965935
-0.08094129 -0.04762516 -0.03224231 -0.022679623 0.07799351 -0.025980745 -0.08510612 0.017236087
0.08374924 0.06918225 -0.046317138 -0.03149337 0.026403125 -0.07851156 0.02018734 -0.074080095
0.005008637 -0.028094677 -0.046481043 -0.034483716 0.06414689 -0.0012795839 -0.03914032 0.009842705
-0.017121188 -0.08298516 -0.032227766 -0.06874586 -0.07513364 0.057665434 -0.041151214 -0.01292351
-0.08918857 0.04852977 -0.0084136035 -0.020496411 -0.080661535 0.059439708 -0.04555112 -0.081930004

actor.2.bias f4 [64]
00000000: 2c14 d3bc c3e7 6cbd 472e 163d a329 64bd
00000010: c80c 6bbc 0382 fc3c f111 263d 0e5f 86bd
00000020: c354 e03c 2b9b 95bd 0e85 a43a a344 883d
00000030: 6ef7 81bd 733f ce3d 186d 8ebd 1fcb 83bd
00000040: 78af 633b efb3 523d f557 913d 6a40 923d
00000050: 6b28 313c 3ea9 74bd 06b8 933d 4107 a33c
00000060: 0aa6 89bd c3a4 653d b9ce 593c 28a9 1dbd
00000070: c6b9 173d f922 8f3d 2627 edbc 2e2b 3cbd
00000080: 19de 78bd e647 03bd 10e3 74bd 4178 4dbd
00000090: 902b be3c bb44 043d 9bb0 503d e27a 7cbd
000000a0: 9195 b5bd 9206 28bd b328 85bc 6135 983d
000000b0: f9d4 8e3d 7d26 c3bd f461 d43c a49c 85bb
000000c0: 39a7 41bd 4bac 7bbd ba01 e63d ed73 823d
000000d0: 39b8 a23d 9dfe e8bb 2a36 08bd 7992 cf3c
000000e0: 1600 8ebd 7c78 cf3c 3cc6 8a3c 05af 903d
000000f0: b163 593d 5015 6ebd fe0f 52bd 54e3 963b
-0.025766455 -0.057838213 0.036665227 -0.05570377 -0.014346309 0.030823713 0.040544454 -0.06561099
0.027384168 -0.073049866 0.001255186 0.066537164 -0.063460216 0.10070696 -0.06954402 -0.06435227
0.0034742039 0.05144113 0.070968546 0.07141192 0.010812859 -0.059731714 0.07212834 0.01990092
-0.067211226 0.056065332 0.013293915 -0.038491398 0.0370424 0.069890924 -0.028949331 -0.045939617
-0.060758684 -0.03205099 -0.059786856 -0.05016351 0.023214132 0.03229211 0.050949674 -0.061640628
-0.08866418 -0.04102189 -0.016254758 0.07432056 0.06974215 -0.095288254 0.025925614 -0.004077511
-0.047278617 -0.06144361 0.11230798 0.06369767 0.07945294 -0.0071104304 -0.03325478 0.025338398
-0.0693361 0.025326006 0.016940229 0.07064632 0.05307359 -0.058125794 -0.051284783 0.0046047363

actor.4.weight f4 [16, 64]
00000000: 9de3 df3d 757c c43d d87a b6bd f3fd 083c
00000010: 6036 eabd bb66 ccbd 2646 4eb9 1b52 c5bc
00000020: eeb6 f2bd 324d 1ebd bcb5 91bd 799b 3f3c
00000030: 264b 953c 14fa 0a3d 1c5d 863d 39bf e4bd
00000040: 35ed b03d bcdd 1f3d 15ce a2bd f115 cf3c
00000050: 829f e4bd c43c 8e3c b9bb 88bd 6eb6 01bc
00000060: 8bae fb3c c659 e5bd 7640 4d3d f1c2 fa3d
00000070: 2e7b 31bd 8b7a e9bc 752c 413c 797b e13d
00000080: 5a7a c2bd ae5f d2bd f789 9c3d 1797 db3d
00000090: d7e3 15bd 6d05 7a3d b666 bc3d 075d c63d
000000a0: 19be 493d 552a f73d 4b10 0b3d 4617 a93d
000000b0: b606 b9bd 6a91 02bb 5a3d b1bc 42be 86bb
000000c0: 8155 b9bd 6dfa 2e3d f686 9c3d 8dd1 743d
000000d0: 0f73 8cbd 54d4 5bbd 6bfd eabc 7176 a43c
000000e0: bb48 863d d911 083c 6d3c 9ebc e46c 5e3d
000000f0: 9c48 e03b 204e a8bd fe33 993d 7c73 fa3d
00000100: 21a7 3f3d a11a ac3d 3686 04bd 6a99 d83c
00000110: 2350 ac3c 0854 a33d 4df3 083e 6feb 0c3d
00000120: 4e39 523d 2e88 8b3d d530 63bd fb65 af3d
00000130: c706 e9bd 2f16 123c b2b6 8abd ab8f f63d
00000140: 4e9f 39bd ae1b 62bd dabf df3c 385f d83d
00000150: 7269 adbd a93c a53c b3f5 953d 3a06 7cbc
00000160: db04 2b3d 8346 cebd 782a f93d 35c6 323c
00000170: 15ad 73bd 8bb2 5a3d 8c22 93bd 1f5f c23d
00000180: 993b c4bd 7277 6fbd 010e f43d 8f49 a4bd
00000190: 86e4 25bd 0edd d9bd b960 0c3e d25c 9abd
000001a0: 5bd5 ab3d 76fd 083e b51d 00bd 76ea 3b3d
000001b0: 1833 e83d 0199 513d fca6 9f3d 6dea 88bd
000001c0: 5d90 c13d ceb0 8b3d f7ef 9d3d 0a1e 113d
000001d0: 6258 2abc 4bc4 66bd 2ef6 95bd df49 903c
000001e0: 862e 5e3d d89b 623d 7ca3 a93c 9b68 403d
000001f0: b6c5 d2bd 1167 8fbb 6e95 b83d c0e0 64bd
00000200: a3eb 7c3d 8e0f aebc c3ea 88bd e94c c1bd
00000210: e5ec 063d 6419 fcbd 9580 c7bd ccff a8bd
00000220: e43e bc3d 699e 61bc 95ee fa3d d023 25be
00000230: d04c eabd dad1 28bd c67a c93d f18f 90bb
00000240: 86c1 813a fcdb adbd 23ae 863c 59d9 47bd
00000250: 959b 9c3d d6f5 453d 2735 6a3b 9a0e 023d
00000260: 6c48 b03d 726d 093e a6c1 08be 64fb 81bd
00000270: e23e 933a 194f b4bd 7448 12bc b897 f33d
00000280: 1580 80bd d5f2 ef3d 551d 8b3c 0961 ab3c
00000290: 6522 c9bc ca3a e5bc 07a1 65bd 9f6b 6c3d
000002a0: 42bb 9dbd 4b60 b4bd 3e75 5c3c 0ae9 13be
000002b0: 8ee4 44bd f712 e9bc 1fe6 703d 0cda b43d
000002c0: 72ab 94bd 0b6c 77bd 1c95 903d 0dc7 9c3d
000002d0: cb42 a03d a60c 96bd 7cc2 debc 38a3 d93c
000002e0: 149b 46bd 3146 76bd 0385 c73d 52d7 cd3d
000002f0: f428 633d c19e cc3c 4a1d b93d 64a1 5f3d
00000300: 9817 aebd b7d6 34bd 4d38 9fbc 5c8c e13d
00000310: d1cd 843b bffe 933d 851c 1bbe 3889 bbbd
00000320: 9c3a cbbb 12c6 663b a902 46bc c287 793d
00000330: 170b 973d 0cf1 863c 784f fbbd 1921 e63d
00000340: 6af2 e3bd d8b3 ecbc d99c c8bd 30c3 9fbd
00000350: a0c8 fa3d cc41 5abd 9225 933d 1395 cf3d
00000360: d0a9 d53d 8f9e a63c d9c6 f8bd ad9c e7bd
00000370: c753 8e3d 18cd 133e e4cd ccbd 871e 8d3c
00000380: e3e5 bd3a 885a 673d b845 d53d 0a14 443d
00000390: 6bb2 a43c 4c7a a33d 2266 303c 8dc1 4dbd
000003a0: 4da6 a43d bd3f 62bd 462c 5ebd 2a10 ffbd
000003b0: 7d5f 273d 4d9e f73c 50bf 54bd 4e0f 62bd
000003c0: 21c9 babb 6576 3abd f1db cabd 603f c63d
000003d0: 7c7f b63c f8da 053d 3aa2 393d c2d0 bfbd
000003e0: a92b c13c ab29 6ebc 3504 c73d ee96 a33d
000003f0: 70d4 cbbc 862c c63d f83f 393d 561b 2a3d
0.10932086 0.09594051 -0.08910149 0.008361327 -0.114361525 -0.09980532 -0.00019671823 -0.024087003
-0.11851297 -0.038647838 -0.07114741 0.011694782 0.01822431 0.0339299 0.06560728 -0.11169285
0.08638994 0.03902982 -0.07949463 0.025279017 -0.11163236 0.01736296 -0.0667643 -0.00791703
0.030722877 -0.111987635 0.050110303 0.12244213 -0.043330364 -0.028500816 0.011790385 0.11009879
-0.09495993 -0.10272156 0.07643502 0.107221775 -0.036594238 0.06104033 0.09199278 0.09685712
0.049253557 0.12068621 0.033951085 0.08256392 -0.09034483 -0.00199231 -0.0216357 -0.004112036
-0.09049512 0.042719293 0.07642929 0.059770156 -0.06857883 -0.05366929 -0.028685292 0.020076009
0.06556841 0.008305036 -0.019315923 0.054303065 0.006844593 -0.08218026 0.0748062 0.12229058
0.046790246 0.084035166 -0.032354556 0.026440341 0.021034306 0.07975012 0.13374062 0.034404214
0.05132418 0.068130836 -0.05546649 0.08564373 -0.11378246 0.008916422 -0.067731276 0.12039121
-0.04531794 -0.05520218 0.027313162 0.105650365 -0.08467378 0.020170527 0.07322254 -0.015382344
0.041752677 -0.10072043 0.121663034 0.010911514 -0.059491236 0.053392928 -0.07184324 0.09490799
-0.0958168 -0.05846352 0.119167335 -0.08021843 -0.04050114 -0.10637866 0.13708772 -0.07537235
0.08390304 0.13377938 -0.03127833 0.045877896 0.1133787 0.051171307 0.077955216 -0.06685338
0.09451363 0.06820832 0.07711785 0.035429038 -0.010397049 -0.056339543 -0.07322346 0.01761335
0.054243587 0.055324405 0.020707838 0.04697476 -0.102916166 -0.0043763 0.090128765 -0.0558784
0.06174816 -0.021247651 -0.06685402 -0.094384976 0.032940764 -0.123095304 -0.09741322 -0.082519144
0.09191683 -0.013770678 0.12252537 -0.16126943 -0.11440432 -0.041215755 0.0983787 -0.0044116904
0.0009899593 -0.08489224 0.016440457 -0.048791263 0.076468624 0.04833015 0.0035737248 0.031752206
0.086075634 0.13420656 -0.13355121 -0.06346777 0.001123395 -0.08804149 -0.008928407 0.118941724
-0.0627443 0.117162384 0.01698176 0.020920293 -0.024552533 -0.027982134 -0.05606177 0.057719823
-0.07701732 -0.08807429 0.013455687 -0.14444366 -0.04806953 -0.028451426 0.05881321 0.08830652
-0.07259263 -0.060405772 0.0705969 0.076551534 0.0782524 -0.07326631 -0.027192347 0.026567087
-0.048487738 -0.060125533 0.09742167 0.10050835 0.055458978 0.024978044 0.090387896 0.054597273
-0.08500594 -0.04415008 -0.019436026 0.110130996 0.0040528555 0.07226323 -0.15147598 -0.09157032
-0.006202055 0.0035213274 -0.012085595 0.060920484 0.07375162 0.016472362 -0.12271017 0.112367816
-0.11130221 -0.02889435 -0.09795541 -0.07800901 0.122452974 -0.053285405 0.071849 0.101358555
0.1043278 0.020339279 -0.12147302 -0.113091804 0.06949573 0.14433706 -0.10000208 0.01722647
0.0014488067 0.05648282 0.104136884 0.047870673 0.020104608 0.07982311 0.010766538 -0.050233413
0.08039532 -0.055236567 -0.05424144 -0.12454255 0.04086255 0.03022685 -0.051940262 -0.055190377
-0.005700246 -0.045523066 -0.09905232 0.096800566 0.022277586 0.032679528 0.045320727 -0.09365989
0.02358039 -0.014536302 0.09717599 0.07987772 -0.024881572 0.09676461 0.04522702 0.041529976

actor.4.bias f4 [16]
00000000: 1ecc 42bd 60d5 8b3d e3a2 d239 dbb0 5fbc
00000010: 75b6 ad3d 7ffc d2bc c5ba 05be 67c3 bcbd
00000020: 7ece 1d3d ac7a 0a3d bef0 04bd 47c1 b8bb
00000030: a97f 5d3d 15bc 74bc e4e5 3cbc c1dc 24bd
-0.047557943 0.068278074 0.0004017568 -0.0136530055 0.084820665 -0.025755165 -0.13059528 -0.092169575
0.038527004 0.033808395 -0.032456152 -0.005638275 0.054076824 -0.01493742 -0.01152942 -0.04024959

critic.0.weight f4 [128, 81]
00000000: 627c bb3b 28e7 c3bc 2b3e 4d3d 622d 833d
00000010: 952e c7bd 9be3 59b9 d955 d33d 0372 7dbd
00000020: 722d c93d 057d 19bc e9dc 9cbd ca9e 7a3d
00000030: 3398 423d c654 9a3c 5e52 b93d db7e 303b
00000040: f4bb 8ebd d8a7 383b c8d7 c83d 25fd e13d
00000050: 4ed0 ec3d b21d 6c3d 4152 bebc 2810 1d3d
00000060: 2b49 b13d a3e9 4a3d e2a9 993c 1e57 46bd
00000070: 03c7 b0bd 82ec b4bd 8722 213c 6f6a f83c
00000080: 06ed 833d e14a 463d 3003 573d 835e 7ebc
00000090: 1fd8 013d 6bf8 893d 089b 423d e71b 473d
000000a0: 3764 a8bd 153c b63d 6945 8ebd 2d6d ba3d
000000b0: bcc9 d43d 9d19 1abd 1995 b1bd 55f6 013d
000000c0: 9b9f 49bd a677 a9bc 9aa9 29bd 860c 0d3d
000000d0: 1d33 91bd 62c8 843c f91b bfbd e281 303d
000000e0: 4d5c 113d bb75 a8bd 4f74 003e c79d b13d
000000f0: faa0 c03d 072e 8d3d 716c d4bd 1685 97ba
00000100: c020 4fbd a1bf d0bc 396a 43bd c476 6abd
00000110: d4b1 86bd 2903 733d cc34 a33d 18bf babd
00000120: 408f b33d e252 5bbc 82e2 7c3c 875b bfbb
00000130: 3710 663c babd 5abd 44eb 623d b574 67bd
00000140: 7836 2a3d 7d00 6dbd 619f c2bd b158 7a3c
00000150: 7c89 e7bc 118b fdbb 363a a1bd 7560 b6bd
00000160: 4fa2 d43d 12a6 24bc 0c38 853d d9c4 d23d
00000170: 46f3 bd3c 7e02 4c3d 04e6 56bd f473 e73d
00000180: 4806 afbd 59a8 073d ee12 9fbd eaa4 a9bd
00000190: fd19 41bc 8daf e1bd a1e1 9abc e445 9cbd
000001a0: 8742 6abd 3942 5bbd 0860 f9bc a32b 863d
000001b0: da62 5a3d ab42 ef3d 722b bf3d 644d a83d
000001c0: c50a 47bd 3d2b d5bd 1f22 653d 23e9 8d3d
000001d0: cb0e 50bd c29d 663b d5f9 80bd b0b0 cf3d
000001e0: be74 a63d 579a eb3c b1d7 4c3d 09f7 95bd
000001f0: 66cf 0fbd 840c a4bd d535 a83d cdc2 a03d
00000200: 32df 813c 0d8d b93d 5de7 2d3d eb8d a03d
00000210: 7876 4c3d 48bc bc3b 47ed 65bd 52e5 413d
00000220: 3729 7a3d 4200 933d e0a9 5abd ec08 8fbd
00000230: aea7 6cbd 27fc 99bc 8e34 75bb 6ce4 d63d
00000240: 44d9 dbbd b61c 8abd b427 863d bb38 393d
00000250: 1e65 7dbd d61f 6a3a 7e79 6ebd 87a3 41bd
00000260: 3889 82bd 6200 0f3d 8f9a 853d 3add c13d
00000270: a59c aabd a8f8 87bd f9ec 95bd 4e5d 963d
00000280: 84d2 0c3c 5cba 213d 3e6e bebd a7d0 1b3d
00000290: 7756 04bd 0ce8 3a3d 6129 373c fca0 7d3d
000002a0: a675 6c3d bd44 9a3d 29a4 92bd a876 8c3d
000002b0: a384 ddbd bb03 6a3d c633 493d 7313 88bd
000002c0: 452e cebd b49f 3c3d d705 46bd f2db d93d
000002d0: bc87 973d 0077 22bd 7b3d af3c 862a dd3d
000002e0: e06f c7bd 678b 34bc 4926 b83d afab 1fbd
000002f0: 87f7 0f3d abd9 873d 2a31 a63d 9f8c 04bd
00000300: 64b5 19bd 1a3d acbd 79c8 c3bd 71fb bc3d
00000310: 1340 a1bd df64 8bbc fda7 c9bd 3459 4abd
00000320: 55a3 073d f443 a43d 18c3 de3c 1745 113d
00000330: 7703 a2bc 84c6 583c 6c7c eebd 91fe ed3c
00000340: ad52 f43c d11e 163d efeb 8b3d 877a 01bd
00000350: a20e 87bc f829 38bd 8c7c 173c 700c 4939
00000360: 0dc3 ccbd 98f3 74bd 2385 67bd 851d 793c
00000370: dee1 e73c 60f9 92bd 966a f0ba 0f03 90bd
00000380: 25ab 8a3b b701 813d 8de2 78bd 4e7c ccbd
00000390: c63f abbd 8013 583d 0517 8abd d06d cdbd
000003a0: fde7 bfbd 6c88 043d 1bd9 a1bc 29d0 03bd
000003b0: 6856 a6bc 2a16 1b3d 6f7b f4bc 849d a2bb
000003c0: 1afd d2bd 93a8 95bd 5d1d 8bbd 3c64 8d3d
000003d0: ec24 923d bd44 79bd 4f78 01bd 21aa 95bd
000003e0: 5fd6 b53d c9d2 c63c b57e debd f68b d53d
000003f0: 9f14 1cbd fe69 253d 65cb dbbd eba7 90bd
0.0057216147 -0.023913935 0.050108116 0.064051405 -0.09725682 -0.00020779522 0.103191085 -0.06187631
0.09823121 -0.009368186 -0.07659323 0.06118659 0.04750843 0.018839251 0.090489134 0.002693108
-0.06969443 0.0028176215 0.09806782 0.110346116 0.115631685 0.057645507 -0.023232581 0.038345486
0.08656534 0.04953922 0.018757764 -0.048422925 -0.086317085 -0.08834173 0.009834892 0.030324189
0.06441693 0.048411254 0.052493274 -0.015525463 0.03170025 0.06736835 0.04751113 0.048610594
-0.082222395 0.088981785 -0.06946833 0.09102855 0.1039004 -0.037622083 -0.08671016 0.03172906
-0.049224477 -0.020686936 -0.04142151 0.03443577 -0.07089827 0.016208831 -0.09331507 0.043092616
0.035488416 -0.0822558 0.12544368 0.08672672 0.09405704 0.06893545 -0.10372246 -0.0011560048
-0.050568342 -0.025482 -0.047708724 -0.05724217 -0.06576887 0.059329186 0.079690546 -0.091184795
0.08767557 -0.01338646 0.015434863 -0.0058397683 0.014041952 -0.053403594 0.055400148 -0.056507785
0.04155585 -0.057861794 -0.09503055 0.015279935 -0.0282638 -0.0077375253 -0.07872431 -0.089051165
0.103825204 -0.01004936 0.06504831 0.10291452 0.02318729 0.049807064 -0.052465454 0.11301413
-0.0854612 0.033119533 -0.077672824 -0.08283408 -0.011785981 -0.11019812 -0.018906416 -0.07630518
-0.05719235 -0.05352995 -0.0304413 0.06551292 0.05331693 0.11682638 0.093344584 0.08217886
-0.048594255 -0.10408638 0.055940744 0.06929233 -0.050795358 0.0035189246 -0.06297652 0.10141122
0.081277356 0.028760118 0.050010387 -0.07322509 -0.0351099 -0.080102 0.08213393 0.07849655
0.015853498 0.090601064 0.042456973 0.07839569 0.049917668 0.0057597496 -0.05613449 0.047337838
0.06107446 0.071777835 -0.05338466 -0.069841236 -0.0577771 -0.018796993 -0.0037415358 0.10492787
-0.107347995 -0.067437574 0.065505415 0.045220118 -0.06186401 0.00089311355 -0.058221333 -0.047275092
-0.06373829 0.034912474 0.0652362 0.09466024 -0.08330659 -0.06639224 -0.073205896 0.07342015
0.008595113 0.039484367 -0.09298371 0.038040783 -0.03230902 0.045631453 0.011179299 0.061921105
0.057729386 0.07532642 -0.07160217 0.068585694 -0.10816314 0.057132464 0.04912164 -0.06644335
-0.10067419 0.046050742 -0.048345413 0.10637654 0.07398936 -0.03966427 0.02139162 0.10799126
-0.09738135 -0.011019564 0.08991677 -0.03898209 0.03514817 0.06633314 0.08114846 -0.03236067
-0.037526503 -0.08410092 -0.095597215 0.09227646 -0.07873549 -0.017015873 -0.09846494 -0.049401477
0.03311475 0.080207735 0.027192637 0.03546628 -0.019777043 0.013230924 -0.11644825 0.02905205
0.02982458 0.036650483 0.0683211 -0.03161099 -0.01648647 -0.0449619 0.009246003 0.00019173487
-0.099981405 -0.05980262 -0.056523453 0.015204792 0.028305944 -0.07176471 -0.0018342312 -0.070318334
0.004231828 0.06299155 -0.06076293 -0.09984647 -0.08361773 0.05275297 -0.06742672 -0.10030711
-0.0937042 0.032356665 -0.019756844 -0.03218094 -0.020304874 0.037862934 -0.029844014 -0.004962625
-0.103021815 -0.073075436 -0.0679271 0.06903884 0.071359485 -0.06085657 -0.031608876 -0.0730784
0.08878779 0.024270432 -0.10864011 0.10427086 -0.038105603 0.040384285 -0.10732154 -0.07063278

critic.0.bias f4 [128]
00000000: c783 d93d e8e2 a53d bd63 833d d4ab 62bd
00000010: 5e92 803d 6618 863d 313e 0ebd ddaa bbbd
00000020: 699f 223d 458a 9abd a046 3dbd bef4 0c3d
00000030: b374 abbd 9186 74bd 29e3 c3bd 6b34 c53c
00000040: 636c 543c 483d d7bd d0a6 a53d ff55 4c3c
00000050: f001 813d 5b1c 15bd b8a1 06bc 615d f23a
00000060: 33fe 103d edaa 353d 7992 ca3d 2102 d9bd
00000070: 8776 19bd 71b4 ecbb 91d0 4abd 91c5 bfbd
00000080: 31c6 d33c 6065 29ba bee3 7fbd cb23 1b3c
00000090: d217 993d 5a9e 8fbd ce3c a13d 522d d63d
000000a0: c200 df3d 40bd f9bc c19d 0fbc c2f2 4b3d
000000b0: bbad 4a3d 5360 a03d 128b 04bd aa25 95bd
000000c0: ed22 25bc 29db 043d cf24 c5bd 3c5c b43d
000000d0: df12 94bd 7bfd 103d de7d 813c 1af1 91bc
000000e0: 3084 313d 542c 84bd c760 843d a804 9dbd
000000f0: c099 813d 651f 25bd 0633 553d dbb5 95bd
00000100: e45c b03d 8800 c1bd 3c51 84bc 51c7 cc3b
00000110: 05ef 663d 2064 533d 1aad 5e3d 3b4b 9ebd
00000120: f9fb 8fbd f261 bd3d ff23 e43d 7a77 b93d
00000130: 7c79 a13d 7956 febb 0107 92bd 26b3 45bd
00000140: f11b bdbc 095e a5bc 3799 2fbd cc86 983b
00000150: 777d 963d 45c9 513d 016e dabc f028 80bc
00000160: f75c 973d 88bf c13d 5b77 a2bd 027b eabc
00000170: 804f bdbc 61c3 aabd a35e 8d38 f2ea a4bd
00000180: 59ac 893d 9d20 cf3a 7469 733d a667 bc3d
00000190: b743 ab3d 9ba7 613d 5074 d8bd bd1d 9dbd
000001a0: 03bb 583d 9827 823c 8ca2 d63d 5d8d 973d
000001b0: a019 93bd 711f 4d3b e550 76bd c238 a33d
000001c0: a489 273b 3d8e 87bd 7774 4c3d 8860 89bc
000001d0: cf58 953c 981e acbd 2f9e 333d 2345 52bd
000001e0: fed8 89bd 9375 c7bd 0a05 623b 7fb4 d23d
000001f0: 3b25 dabd 3001 5c3c 170c 8a3d 514f 95bd
0.10620838 0.080999196 0.06415508 -0.05533965 0.06277917 0.065476224 -0.03472728 -0.09163449
0.039702807 -0.07545904 -0.04620993 0.03441309 -0.08371868 -0.059698645 -0.09564812 0.024072846
0.0129652945 -0.10509735 0.080884576 0.012471675 0.06299198 -0.036403995 -0.008217268 0.0018490964
0.035398673 0.04435246 0.09891219 -0.10596109 -0.037466552 -0.0072236587 -0.04951531 -0.09363855
0.025851341 -0.00064619444 -0.06247305 0.009468983 0.074752465 -0.07012625 0.07872926 0.10457863
0.108888164 -0.03048575 -0.008765639 0.04979206 0.04948209 0.078308724 -0.03235919 -0.072825745
-0.010079128 0.03243557 -0.09626161 0.08806655 -0.07230162 0.035397988 0.015807088 -0.017815161
0.043338954 -0.064537674 0.06463771 -0.07666904 0.063281536 -0.040313143 0.052050613 -0.07310077
0.086114675 -0.094239295 -0.016152017 0.0062493463 0.05638029 0.05160916 0.0543643 -0.07729193
-0.07030482 0.09247197 0.11139678 0.090559915 0.078844994 -0.007761773 -0.07130242 -0.048266552
-0.023084613 -0.020186441 -0.042870726 0.004654741 0.07348149 0.051217336 -0.026663782 -0.01564452
0.073907785 0.0946036 -0.079329215 -0.028623108 -0.023109198 -0.08338047 6.7410314e-05 -0.08052625
0.06722326 0.0015802566 0.05942674 0.09199457 0.08362525 0.05509148 -0.1056906 -0.07671688
0.052912723 0.01588802 0.10480222 0.0740001 -0.07182622 0.0031299258 -0.06013574 0.0796981
0.0025564218 -0.06618927 0.049915757 -0.016769662 0.018230824 -0.08404273 0.043852028 -0.051335465
-0.06730841 -0.097392224 0.0034487867 0.10288333 -0.106516324 0.0134280175 0.06740587 -0.07290519

critic.2.weight f4 [64, 128]
00000000: f2cf 343d 75f4 2b3c 4ae0 c33c 7423 fa3a
00000010: d04b a7bd 32a7 a1bd 3322 87bd 5c9f 13bd
00000020: 4474 a9bc b359 883d 46ba 0abd fca4 35bd
00000030: 9312 28bd adf6 fcbc d2ca bbbd 778d 063d
00000040: 0b71 6dbc d9cd a2bc e011 963d 8a07 96bd
00000050: 0faf 82bd 02b1 47bd 1673 9fbd 64f1 f83c
00000060: bf5c 6ebd 5193 07bd 0770 cbbc 86d4 20bd
00000070: 1635 c9bb 3ab0 483d de93 653d f413 bc3c
00000080: 44e1 9e3a a61e 43bc 15b3 933d f844 a7bd
00000090: ef4d a23d 9b64 5a3d 63da 2abc fb5e ab3c
000000a0: bbfc 9c3d adb0 97bc c71a a33d 6361 d23c
000000b0: fb86 e7bb 3667 fe3c f044 5cbd 6b8e 943d
000000c0: 2f04 f8bc 7c90 eabc cddb ae3d b0dd e5bc
000000d0: 1b11 92bd 1033 46bd a1bd a3bc bfef 3bbc
000000e0: 2f52 a93c 4f93 68bd 5999 81bd e581 d23c
000000f0: 1df4 a7bd adaf 87bd 9cf1 e5bb d86d d8bb
00000100: 0f67 acbd 5ba7 be3b 1bfb 5d3d 9b02 a3bc
00000110: 8b4b 7abb f3d7 ec3c c7dc c93d 3d51 92bd
00000120: 978c fe3c 7958 a73d 2a7f 953d 3d99 04bd
00000130: 48d3 90ba 163e 103d d5a8 fcbc d6ba 5abc
00000140: a155 713d 07d5 adbd f081 ad3d 2194 afbd
00000150: 4eb5 b73d 38d3 9fbd aba9 c63a 6bab ac3d
00000160: 1488 463d d256 96bd 5e43 08bd d930 23bd
00000170: b8d1 98bd 8a6f 3c3d 08b6 7c3d a3e2 0f3d
00000180: 818d 3d3d 738b cfbb b738 813d 7124 123d
00000190: c172 9abd 99d6 0c3d 9faf a73d d1c9 05bd
000001a0: edae cebc 3edc cabc 27bc af3d b5d5 47bd
000001b0: 582d 8dbd 3c15 84bd 64f8 983d 2b9c cb3b
000001c0: 20b0 e63b e29c 98bc 29ac a13d fd0d d9bc
000001d0: d36d adbc bf5a cebd 2579 9cbd a6e8 cdbc
000001e0: 7a8b a4bc 58e5 46bd 08f1 873a cacb 263b
000001f0: def0 153d 6298 9fbd 8d46 bd3c 2d8c 803d
00000200: 7669 95b9 d7a2 25bd ccf8 703d a686 1dbc
00000210: 1f81 9f3d 056b 9c3b e12b 56bc 10cb a6bd
00000220: cbce a2bd 2f5f 763d d28a bbbd 0de8 8ebd
00000230: 8417 063d 0e42 81bd 87ad 903d cd8a 933c
00000240: 5450 eabb c9be 1dbd 0a8b a4bd e69c 423c
00000250: e0f7 763d 19df 9fbd 0ed0 a13d 4032 89bd
00000260: f93f 80bd 3bd1 723d ec92 043d 1110 dd3c
00000270: 2732 afbd 8bb4 28bd a146 6fbc 0a1a 223c
00000280: f56e 353c ddff 8bbc 6ec8 36bd 833f 66bd
00000290: 5d88 07bd dbd0 59bd e9d4 26bd 3208 04bb
000002a0: df78 3fbd 3dfa cf3c dcea d7bc b037 c3bd
000002b0: b0f3 4fbc 0934 44bd 7ea1 a2bd 94f6 183d
000002c0: eaf2 21bd 7bff e33c 5646 0cbd 9f24 a2bd
000002d0: 0bbd babc 78dc 763d 4da7 05bd 51c1 97bc
000002e0: 181e 61bd f08f b2bd 2cee 353d 8d89 6a3d
000002f0: 039e 9ebb 4042 7a3d e154 aebd b835 8c3d
00000300: 653b 7dbc 2c9e 9f3d 9c54 06bd f55d 1f3c
00000310: 4876 623d 1b4a 8ebd b768 173d 80cb 743d
00000320: 3245 df3c 0d18 5cbd 463c 883d bbca 7abd
00000330: e7cf a23b 9214 9e3d d25f 993d 16e0 59bd
00000340: b03f 173d 2743 993d be1d 893d 56cc 1e3d
00000350: c3af eabb 597f 5a3d fff2 8ebd 6449 613c
00000360: 99f6 df3b af2f b9bd 4c6d 38bd 5ec7 053d
00000370: 3d25 d93c cc6b 6e3b 96d5 843d aab4 333d
00000380: 32b8 7abd e084 7d3b 6543 a63c 1bcf c83c
00000390: a58c 0bbd c970 183d 787d 8e3c 27df 07bc
000003a0: 66b9 79bd eeaa 09bc 68e6 8a3b b30f 97bc
000003b0: 7e29 b63c d04a 243d ec87 883c 1cfa 71bc
000003c0: 0715 553c cf70 56bd 10d8 fc3c 3ce6 9bbd
000003d0: 118d 183d 7fef 893d f7fb 053d 8b9f 78bd
000003e0: f5dc 5dbd 19f5 d9bc 4c5a c3bd e2ca 153d
000003f0: 9eaf e63c 6425 6f3d a386 5d3d 46f3 183d
0.044143625 0.010495295 0.02391066 0.0019084052 -0.08168757 -0.07893218 -0.0659832 -0.03604065
-0.020685323 0.06657734 -0.03386905 -0.044346794 -0.04103334 -0.030879343 -0.09169544 0.032849755
-0.014492284 -0.019873546 0.07327628 -0.07325657 -0.06381046 -0.048752792 -0.07785623 0.030388542
-0.05819392 -0.033099476 -0.024833692 -0.03926518 -0.0061403615 0.048996188 0.05604922 0.022958733
0.0012121578 -0.011909163 0.072118916 -0.081674516 0.07925021 0.0533186 -0.010428044 0.020919314
0.07665392 -0.018516863 0.07964092 0.025681203 -0.0070656515 0.031055074 -0.05377668 0.072537266
-0.030275432 -0.028633349 0.085380174 -0.02805981 -0.07132169 -0.04838854 -0.019987883 -0.011470734
0.020669071 -0.05678111 -0.06328077 0.025696704 -0.08200858 -0.06625304 -0.0070173275 -0.0066048913
-0.08418094 0.00581829 0.05419455 -0.019898703 -0.0038192 0.028911566 0.09856563 -0.07144401
0.031072898 0.08171172 0.07299645 -0.032372702 -0.0011049295 0.03521546 -0.030842224 -0.013350209
0.058919553 -0.08487897 0.08472049 -0.08573175 0.08970128 -0.07803959 0.0015156766 0.08431133
0.048469618 -0.073407784 -0.03326737 -0.039841507 -0.07461876 0.04600481 0.061697036 0.035128247
0.046277527 -0.0063337623 0.063096456 0.035679284 -0.07541419 0.034384344 0.08187794 -0.03266317
-0.025229895 -0.024763223 0.08580809 -0.04878779 -0.06893414 -0.06449363 0.07469252 0.006213685
0.0070400387 -0.018629495 0.07894165 -0.026495928 -0.021170532 -0.10075902 -0.07640294 -0.02513535
-0.020086039 -0.048558563 0.0010371516 0.0025451058 0.036606662 -0.077927366 0.02310493 0.062767364
-0.0002849807 -0.0404385 0.05883102 -0.009614622 0.077883 0.0047735 -0.013071985 -0.081442
-0.07949599 0.060149368 -0.09157337 -0.06977854 0.03273727 -0.06311427 0.07064348 0.018010521
-0.007150689 -0.038512025 -0.08034332 0.011878228 0.060294986 -0.078062244 0.079010114 -0.066990376
-0.06262202 0.05928157 0.032366678 0.0269852 -0.08554488 -0.041187804 -0.014604242 0.0098939035
0.0110738175 -0.017089779 -0.04462474 -0.056212913 -0.03308903 -0.053177696 -0.04073039 -0.0020146486
-0.04674613 0.025387878 -0.026357107 -0.09532106 -0.012692377 -0.047901187 -0.079409584 0.03734453
-0.0395383 0.027831784 -0.034246765 -0.07917141 -0.02279522 0.06026885 -0.032630254 -0.018524798
-0.05496034 -0.0871886 0.04441659 0.057260085 -0.004840614 0.061098337 -0.08512283 0.068461835
-0.015456055 0.07793841 -0.032795534 0.009726991 0.055288583 -0.06947728 0.0369651 0.059764385
0.027254675 -0.053733874 0.06652121 -0.061228495 0.0049686315 0.07718767 0.074889794 -0.05319222
0.03692597 0.074835114 0.06695126 0.03876909 -0.0071620657 0.053344104 -0.069799416 0.013750408
0.0068348167 -0.09042298 -0.04502611 0.032660834 0.026507014 0.003638017 0.06486051 0.043873467
-0.06121082 0.0038683936 0.020295808 0.024512818 -0.034069676 0.037216935 0.017393813 -0.00829295
-0.060967825 -0.008402569 0.0042388923 -0.018440103 0.022236582 0.04011041 0.016666375 -0.014769103
0.013005502 -0.052353676 0.030864745 -0.07612273 0.037243906 0.067351334 0.032710996 -0.060699027
-0.0541658 -0.02660613 -0.09538707 0.036570437 0.028159913 0.058385268 0.054083478 0.03734138

critic.2.bias f4 [64]
00000000: 77be 61bd cdc7 22bd d8f2 393c 1182 423d
00000010: 8c07 b03d d949 93bd d4b4 cbbc 02af 59bc
00000020: d0dd 8abd 4236 753d 586a b8bc 0d86 393d
00000030: 64a0 943d 6669 a7bd 7c10 523d dd33 20bb
00000040: c802 8ebd 1f28 893d 5bd7 f4bc 4e7a 523a
00000050: 9e97 93bd 92d8 4cbc 0335 943c 030a aa3c
00000060: 31b7 f13c 2efe c93b c378 9e3d 7a28 133d
00000070: 0452 553d cf94 66bd 8c98 6a3c e9b3 7fbd
00000080: c034 9b3d 2117 a53d b246 24bd 6db1 19bd
00000090: fada 723c 20c6 a93b c8d1 36bd 750d 10bd
000000a0: b7a4 59bd 35bb 91bd e7ce c03d 0ca3 0d3b
000000b0: 588e 993c dd77 a9bd 13e2 813d 1cbd b1bd
000000c0: 144e 943d dd1d 313c 081f 80bd 4bd5 633c
000000d0: 8753 b7bc 3d73 503d 74f3 5dbd 6be2 dbbc
000000e0: ea74 7d3d 8b66 0cbd 8c64 003d 59a5 a0bc
000000f0: e876 01bd bd22 3cbd 998a adbd 9ba5 2abd
-0.055113282 -0.039741326 0.011349402 0.047487322 0.085951895 -0.0719182 -0.024866499 -0.013286354
-0.067805886 0.059866197 -0.022511646 0.045293856 0.072571546 -0.081744 0.051285252 -0.0024444975
-0.06934124 0.066971056 -0.029887846 0.0008029089 -0.07206653 -0.012502806 0.018091684 0.020756727
0.029506298 0.006164334 0.07737877 0.035927273 0.05208017 -0.05629426 0.014318597 -0.062427435
0.07578421 0.08061052 -0.040106483 -0.037522722 0.014822716 0.005181089 -0.044633657 -0.035169084
-0.0531356 -0.07115785 0.094144635 0.0021612076 0.018744633 -0.08274815 0.06341948 -0.08678648
0.07241455 0.010810343 -0.06255919 0.0139058335 -0.022378696 0.05089115 -0.054187253 -0.026841363
0.061879076 -0.03427748 0.03134589 -0.019610094 -0.03160754 -0.045931567 -0.08473701 -0.04166184

critic.4.weight f4 [1, 64]
00000000: 4929 f0bc 2859 793d d635 d33c 32ff 99bd
00000010: 5b34 5fbd d52d 0ebd f2d6 c03c 467e b33d
00000020: 7b7a 123d 26a1 1e3d 229f 263d b9a2 0fbd
00000030: 84ac f0bd c0fb 983c 0559 ddbd 0845 613c
00000040: 5e63 d6bd 6b85 073d f73b 97bd 02ba fd3d
00000050: d178 c13d 7f8d 8fbc 9f23 a33d a2b6 00be
00000060: c7c2 51bc 6616 99bd 79af 86bd a077 cf3d
00000070: 598b 613d 2a34 85bd 66fc f83d 5d72 9b3b
00000080: 5bae a73d d7c5 35bd e69f 843c 3f14 83bd
00000090: fdb2 a93d d731 a5bd bd36 2d3c f1fe db3d
000000a0: 931a f53a ab87 013b 824e cebd 1943 d8bd
000000b0: 1f02 963d e5d7 f9bd 62b7 cbbc ce2f 9d3b
000000c0: 6f0b 853d 5565 e83d 554f aabd 4fda 67bd
000000d0: f72e 4bbd 1541 2c3d 0258 e43d c11c bfbd
000000e0: 0638 633d 659c 333d 47c0 86bd f516 c4bd
000000f0: b44c cb3c 14c6 bb3d 4e1d 423c df97 3a3d
-0.029316561 0.06087604 0.025782507 -0.07519378 -0.05449329 -0.034711678 0.023539994 0.08764319
0.035761338 0.038727902 0.040679105 -0.035067294 -0.11751655 0.018674731 -0.10807995 0.0137493685
-0.104681715 0.03308622 -0.07384484 0.12388994 0.09446872 -0.017523525 0.079657786 -0.12569669
-0.012802786 -0.07474975 -0.065764375 0.101302385 0.055064533 -0.0650409 0.12157516 0.004743858
0.081875525 -0.044378128 0.016189527 -0.06400346 0.082860924 -0.08066147 0.010572133 0.107419856
0.0018699936 0.0019764702 -0.10073568 -0.10559673 0.07324623 -0.12199382 -0.024867717 0.0047969585
0.064963214 0.113474526 -0.08315913 -0.05660468 -0.049605336 0.042054255 0.11149599 -0.09331656
0.05547335 0.04385032 -0.06579643 -0.09574691 0.024816848 0.0916864 0.011847807 0.04555499
