output/ppo_model.pth (torch, 159267 bytes, 11 tensors)

actor.0.weight f4 [128, 81]
00000000: a25e e03c c1a4 c83d dbdc 10bd 3239 a73c
00000010: f4f2 7d3d 3fd5 e23d 4028 503c 1fab d53c
00000020: ed15 6fbd 4fdf a73d 9a30 9b3d ff54 e1bd
00000030: 9236 7c3d 40f0 85bb 5486 d23c 4e29 b3bd
00000040: 38c1 f1bc 4eac db3d cda5 85bd a2e2 85bd
00000050: 3648 65bd 8516 dcbd 34d1 6a3a a644 873c
00000060: eb73 403d 9058 f33c b76c d33d dd84 cabd
00000070: c92b 43bc b745 96bc 1ed9 0e3c 7596 963b
00000080: 17de 8cbd 6b3c 6cbd 1460 2b3d e5ee fdbb
00000090: b734 2f3d e47a d5bc b4da 953d b3ec 63bd
000000a0: 4e7c e6bd f947 923d 10f9 91bd c3ea 1abb
000000b0: 156f ee3c 02d9 993d e570 9ebd 47d5 7e3d
000000c0: f89a d9bd 04ad 0fbc 0be8 40bd 6a08 963d
000000d0: 5052 fa3b eead 87bd 60cc b03c 375b 1f3d
000000e0: 7f98 95bd 0fbd 793d d0af 553d 6489 833c
000000f0: 2137 d8bd 6baf e4bd 0302 ae3d 02c0 7fbd
00000100: ea5a 8dbd 2868 8f3d a101 85bd 97d3 d6bd
00000110: f253 bebd 7b18 9bbc 73b5 f53c c01c 41bc
00000120: 55ee d9bd 01a2 60bd 898e d7bd b855 a33c
00000130: e607 cb3d e435 ddbd d8d5 4a3d 5b72 193d
00000140: 2f00 1abc 4f1c c93d 8850 dbbc 5ecf 923d
00000150: 08c0 50bd 5f6c ac3d 9c63 643d 0338 1b3d
00000160: 3b45 c53d ed64 24bd 5123 a2bd adee a0bd
00000170: 98ac 9dbc dc45 ba3d 4aec 9bbd 0b98 bd3d
00000180: 5d2b 79bd 3a3b 263d 524d 1fbd 3fda b63d
00000190: b2b0 4f3c b104 c6bd 31f7 a43d 0e06 da3d
000001a0: 1704 68bd 87cb c33d 0c6b 34bd 1f12 afbb
000001b0: 48a5 3dbd c89f 913c 3fe3 b63d 9444 a3bd
000001c0: ecde cb3d 96d8 c2bd 89d9 cebc 0edc 7c3d
000001d0: d30c bdbd e82e bbbd 8f70 d5bd faba 343d
000001e0: 1f71 bcbd 27a8 bd3d 5e22 c6bd 7635 68bd
000001f0: d46b a2bd 6269 673d c63a 11bd fc2f 80bb
00000200: 35d3 cd3d 71e9 893c ea87 3d3d a8f3 e6ba
00000210: 3a04 a93d 2caf 6e3d e02d dfbc 283f acbc
00000220: ea1a bebd dd7b d23d 66e8 06bd 7b1a a2bd
00000230: a3db 463d 4257 a73d 97b8 c33d 4238 e2bd
00000240: fcd1 c3bc e2b9 15bd 5ba6 8abd 13f1 053d
00000250: 49ee 323d a4ee d53d a0f0 b3bd d8bd 363d
00000260: 9065 d03d cbf2 c73d f454 c13d 35c1 b6bd
00000270: ecbf d0bd 44e0 5abd 045a b23c aa53 90bd
00000280: 2380 a23d 57b6 9f3d a382 92bd 27ce c43d
00000290: 1ecf d6bd 338f 803d c498 5e3d 30f3 453d
000002a0: 86ec 623d 8655 b5bd f610 9b3d e5cc dbbc
000002b0: d067 cabc f015 93bd b297 4fbd 9085 21bc
000002c0: 5777 c33d 79c4 79bd b833 c4bc 303b d7bd
000002d0: 3bfe 293c 0e6d 2fbd b1ac fb3c a3a6 40bc
000002e0: 4db0 c8bb 466f 9f3d 57c2 47bc 272c cfbd
000002f0: 2c4e e23d ecfe c2bd 93ad 91bd 28da eebb
00000300: e57c 84bd b132 423c 83ba 983a 8318 923d
00000310: 301d a03d 2fe1 d6bd cae5 29bd 287b da3c
00000320: 4453 bb3d 1131 bb3d 14d8 f93c 5ce1 1dbb
00000330: 10cc fb3b 9918 0b3d 4564 f5bb 07a2 d53d
00000340: 7389 34bd 68e3 dc3d 9633 473d 8fa1 10bd
00000350: e01a 92bd be6d 89bc 35df afbd e73c 9f3c
00000360: c517 d63d 55ae 93bc e7bd 9abb b290 1f3d
00000370: ab95 223c fd81 983d 91ac a23d 903c b7bd
00000380: 5d5f 2ebb 6dd9 b2bd 76de 96bd 061f 1b3d
00000390: 3684 20bc ff79 003d e319 053c 282f e33d
000003a0: 15d7 dc3d 0738 de3d f72e 5b3b 0f83 8c3d
000003b0: 7807 b43d aec8 813c cb34 bebd aa4f a6bc
000003c0: a96f 993b 9ca5 76bc 65a8 c9ba 1aec 3bbd
000003d0: 18da 893d 4506 e13c f24b a1bd 2a80 11bd
000003e0: 04cb aa3b 88b6 e2bd 5828 37bd 82a4 c63d
000003f0: 9d44 9a3d dbc8 9b3d 9dc9 d0bd a40e 03bd
0.027388874 0.09797049 -0.035366874 0.020413015 0.061999276 0.1107583 0.012704909 0.026082573
-0.05837052 0.081968896 0.075776294 -0.1100254 0.06157548 -0.004087478 0.025698818 -0.087481126
-0.02951108 0.10726224 -0.065257646 -0.065373674 -0.05597707 -0.10746483 0.00089575653 0.016512226
0.046985548 0.029705316 0.1032347 -0.09888623 -0.011912295 -0.01834379 0.008718757 0.0045955726
-0.06878298 -0.057674807 0.041839674 -0.0077494257 0.042774882 -0.026059575 0.07317105 -0.055645656
-0.11254178 0.07142634 -0.07127583 -0.0023638464 0.029105702 0.07512094 -0.07736377 0.062215116
-0.10625261 -0.0087692775 -0.047096293 0.073258236 0.007639207 -0.06624971 0.021581829 0.03890535
-0.07304477 0.060971316 0.05216962 0.016056724 -0.1055739 -0.11166271 0.084964775 -0.062438972
-0.06902106 0.07002288 -0.06494451 -0.10489576 -0.09293355 -0.018932572 0.029993748 -0.01178664
-0.10641161 -0.054842 -0.10525233 0.019938335 0.09913616 -0.108012944 0.049520344 0.037462573
-0.009399458 0.098198526 -0.026771799 0.071684584 -0.050964385 0.08419108 0.055759057 0.037895214
0.09632345 -0.040135313 -0.07916892 -0.07858024 -0.019247338 0.09095356 -0.07613428 0.092575155
-0.06083237 0.040583827 -0.038892098 0.08928346 0.012676405 -0.096688636 0.080549605 0.10645686
-0.056644525 0.09560304 -0.0440474 -0.0053427364 -0.046300203 0.017776385 0.089300625 -0.079720646
0.09954628 -0.09513967 -0.025250213 0.061733298 -0.09230962 -0.09139806 -0.104218595 0.044123627
-0.09201264 0.09260588 -0.09674524 -0.05669161 -0.07930723 0.056496985 -0.03545644 -0.00391197
0.1005005 0.016834946 0.046272196 -0.0017620223 0.08252759 0.058272526 -0.027243555 -0.021026209
-0.09282477 0.10277531 -0.032936476 -0.07915207 0.048549306 0.0817094 0.09556692 -0.110458866
-0.02390384 -0.036554225 -0.06770011 0.03270061 0.043684278 0.10445908 -0.0878613 0.044614643
0.101756215 0.09763106 0.09440032 -0.0892357 -0.10192856 -0.053436533 0.021771438 -0.07047208
0.079345964 0.077984504 -0.07153823 0.09609633 -0.10488723 0.06277313 0.054344907 0.048327625
0.055401348 -0.08854203 0.075715944 -0.0268311 -0.024707705 -0.071819186 -0.050681777 -0.009858504
0.09544247 -0.060978387 -0.023950443 -0.10509336 0.010375555 -0.042828612 0.030721994 -0.011758479
-0.0061245323 0.077848956 -0.01219233 -0.10115843 0.11050066 -0.09521279 -0.07113185 -0.00728919
-0.06469134 0.011852906 0.0011652265 0.071335815 0.07818067 -0.10492169 -0.04147891 0.026670054
0.09146741 0.09140218 0.030498542 -0.0024090623 0.0076842383 0.033959005 -0.0074887597 0.10431295
-0.044076394 0.10785562 0.04863318 -0.035310324 -0.07134032 -0.016775962 -0.08587495 0.01943822
0.104537524 -0.018027464 -0.004722345 0.03895635 0.009923379 0.07446668 0.07943071 -0.08947098
-0.0026607134 -0.08732877 -0.0736665 0.037871383 -0.009797147 0.031366345 0.008123848 0.11092979
0.10783211 0.1085053 0.0033444741 0.06860935 0.08790487 0.015842762 -0.09287413 -0.020301659
0.0046825004 -0.015054133 -0.0015385268 -0.04587946 0.06731051 0.02746881 -0.078758135 -0.035522617
0.0052121896 -0.11069971 -0.04471621 0.09699346 0.07532618 0.076066695 -0.10194705 -0.031996384

actor.0.bias f4 [128]
00000000: 3455 8a3b 2d17 f5bc ba06 2bbd 07e0 60bd
00000010: 781c cd3d 5bb1 d93d aa6c c0bd f5f8 14bd
00000020: 8274 c03d aa90 9f3d 0dcd 063b 40a1 5a3d
00000030: a541 453c ec23 c1bd 71a4 e7bd 647b 353d
00000040: c5a6 9539 597c a13c 599c 89bd e6d4 b13c
00000050: aca7 5d3b d97a 533d d896 6f3c cc79 963d
00000060: 496a 8d3d cb1c a1bd 9c6b f7bc 2fc5 033c
00000070: 5615 dd3a ce59 93bd 2cfd 50bd 3b8f 38bd
00000080: 85d7 d93d 4dac bf3c 7ff1 77bd e5f3 273d
00000090: 6056 27bd ae25 50bd e21a 98bd 4e99 2abd
000000a0: 82fd 67bc 2de9 983b 4bca 3f3c 0899 9d3d
000000b0: ac4e d0bd a502 58bd a792 39bd bf33 d93d
000000c0: bcb4 27bd b7a4 98bd 1a2b 83bd 35f3 25bd
000000d0: b7c4 9b3d 12fa db3d ae76 e23c 705f ba3d
000000e0: 2d81 33bd 5e25 8dbd 7a60 a8bd 7e87 84bd
000000f0: 836e 833a d012 603d 3a8d 103d f2ed 103d
00000100: 1e1f dcbc a167 903d 455b 64bd 578c 113d
00000110: 9c25 d0bd 57c2 28bd bbd2 d5bd 8bd4 13bd
00000120: c18e 81bd 4542 b93c 4d6f a53d c0d5 1c3d
00000130: 6542 72bd 5725 1fbd 507d 083d 1cc8 c13d
00000140: a654 ddbd 3095 1c3d 38b9 a63d 183d 423d
00000150: 2e01 babd d996 98bd f845 c83d 876f 053d
00000160: 47df 6a3d b549 bfbd 0d3f a73d c2c7 dd3d
00000170: 66f2 353d 9d9b d53c 86ec 423d 7fd9 553d
00000180: 1b78 cb3d cbea 4a3c a335 8fbd fa44 d43d
00000190: 8804 20bd f847 b83c 1921 dbbc 916e 6f3c
000001a0: ec01 d9bc c213 983d 22f7 1c3c 8c76 30bd
000001b0: 86f2 f83b bc06 a53d 49cc 823d 19dd dfbd
000001c0: b74a db3d ee0a 313d 6188 91bb 6953 7b3d
000001d0: 65f4 bebd 5afe 153b 76d3 0dbd ef54 583c
000001e0: be60 933d edd9 2b3c fc65 41bd a85a 85b8
000001f0: b3df 86bd 4c63 02bd fdae 98bd 575f a4bd
0.004221583 -0.029918278 -0.04175446 -0.05490115 0.100151956 0.10629531 -0.09395726 -0.036370236
0.09397222 0.07791264 0.0020568997 0.053376436 0.012039577 -0.0943068 -0.113106616 0.044307128
0.00028543748 0.019712614 -0.06719274 0.021707963 0.0033821864 0.05163083 0.014623366 0.0734745
0.06905038 -0.0786682 -0.03020268 0.008042618 0.001686732 -0.07194863 -0.051022694 -0.04505847
0.1063681 0.02339759 -0.060533043 0.04100408 -0.040853858 -0.050817184 -0.074270025 -0.04165011
-0.014159562 0.0046664686 0.011705945 0.07695204 -0.101712555 -0.052736897 -0.045305874 0.10605573
-0.040943846 -0.07453292 -0.06404705 -0.040515143 0.0760588 0.107410565 0.027644482 0.091002345
-0.043824363 -0.06891893 -0.082215264 -0.064711556 0.0010027442 0.05470544 0.035290934 0.035383172
-0.026870307 0.07051016 -0.055751104 0.03553423 -0.101634234 -0.041200962 -0.10440584 -0.03609137
-0.06326056 0.022614608 0.080778696 0.038289785 -0.05914535 -0.03885397 0.033322632 0.09461996
-0.10807161 0.038228214 0.081407964 0.047421545 -0.09082256 -0.07450647 0.097789705 0.032577064
0.05734184 -0.093402304 0.08166323 0.108291164 0.044420622 0.026075179 0.047588848 0.052209374
0.09935018 0.012385081 -0.06992652 0.10364719 -0.03906682 0.022495255 -0.02674918 0.014613763
-0.026490174 0.074256435 0.009580405 -0.043081805 0.0075972704 0.08057925 0.063866206 -0.10930843
0.1070761 0.043223314 -0.0044413065 0.061358843 -0.09323958 0.00228872 -0.034625493 0.0132038435
0.071961865 0.010488969 -0.0472164 -6.35882e-05 -0.06585636 -0.031832978 -0.07455251 -0.08025997

actor.2.weight f4 [64, 128]
00000000: c121 f2bc 3dd1 9c3d 3aeb a9bd 032d a6bd
00000010: d4dc 843d b696 233d 60dd b3bd 5df5 fdba
00000020: 03a6 63bd 6071 4c3d 5815 623d 7b75 533d
00000030: b063 743d 9338 88bd b825 85bd f151 2e3d
00000040: 5d5c ea3c df97 b7bd faae 953d 816c 40bd
00000050: bb44 5d3d d921 6b3d 0551 813d 33ec b13c
00000060: 2ce6 9cbd c9f0 0cbc bfed dabc 4a09 ab3d
00000070: 686a 5b3d 2f6b d7bc 2c9e c9bc 465e adbd
00000080: 1bf4 61bd 40d2 99bd 3a02 4abd 30a1 d5bc
00000090: 8596 993c 2f6d 2a3d 2c93 573d d423 843b
000000a0: c6fe 35bd e4e8 e23c f9a7 4f3d f8ff 10bd
000000b0: c173 b43c 8bcd b0bd 67df 91bd 52b5 433d
000000c0: fda6 f53c 3c8e 263c 2bc6 813c 0741 a7bd
000000d0: d293 acbd eabc 2d3d 9614 6d3d 0fc6 103d
000000e0: 46bc debc 8b66 893c 1a7d 1c3d dfa0 1a3d
000000f0: ff3e b53d d35f 803d 869c b03d 6705 4cbd
00000100: 71cb 2fbd 1130 543c 9f8b 2b3d e24f 88bb
00000110: aaec b03c 0e40 b73d 6c5e 6a3d aa87 a33c
00000120: c9cc 84bd dacb 883d 3ae7 0abd b382 02bd
00000130: be49 2a3d 5c01 af3d 6f4f 84bc 2969 793d
00000140: 593f 753b e275 34bd 951d 0f3d b92e bbbc
00000150: 478a 6ebd 872e 33bd cfd1 9ebc dff8 2f3b
00000160: f999 77bc 66b4 a5bb bdcc a53d 7532 1c3d
00000170: e703 d8bc 1f11 4dbd 8e77 1f3d 6a6d 97bd
00000180: c773 8b3c 1602 ea3a 6cd8 95bd 6261 6ebd
00000190: b8df 743c 821b 41bd 8032 6c3b 2577 25bd
000001a0: 0441 f23c 9445 9b3d 3e14 26bd db48 51bd
000001b0: e31b 60bc 953d 3d3d a764 333d d084 cb3c
000001c0: 97e0 9f3d c4d5 4d3d a164 07bd 89bb b33d
000001d0: 0b2b 433d baea 833c 2ae7 0cbd 0247 783d
000001e0: 6dab edbc cf97 173d 7a41 a23c 4a6e a7bd
000001f0: fbe1 59bd 7f10 bfbb d6b8 a6bd dc56 9c3d
00000200: 57ff dfbc c24f 8bbd 865c 27bd 2f68 3c3d
00000210: d59d 8abd e8cf babc 243a 023c 899f 983d
00000220: 084f 523d 912d 8cbd 2db5 5d3d 7777 d73c
00000230: 7c4b 953d aa97 9fbd b7b8 903d 3e01 7c3d
00000240: 0e6b 9fbd c86e 0f3c cc60 7ebd bf7e 973d
00000250: d78a 953d 1b23 b2bd 86df 2e3d 2d4a a1bd
00000260: 25a2 9b3d afc7 9cbd c090 e63b 3f41 4b3d
00000270: 4376 7d3d 9177 a13d fdc5 f93c 6521 45bc
00000280: 5f3c 873d 691a 153c bd88 0fbd 3431 b23d
00000290: cdd2 98bc 7217 3fbd d237 5d3d e797 26bc
000002a0: bc7c b83c af5b 9c3d abd2 6e3d 3d78 60bd
000002b0: 4d9c 823d ea3c 35bd 5337 af3b f28c 903d
000002c0: 81c2 54bd 6007 993d 2746 a2bd 8fa5 293d
000002d0: c162 27bc 59cf a9bd 5f4b febc 0d22 8cbd
000002e0: 3031 03bc caf8 8fbd d0d1 3ebc c1cf fc3c
000002f0: d496 92bc 7906 693d 7bb6 83bb facc 8abd
00000300: 5bd5 663d 629a f6bc d7bb bdbb 516c e0bc
00000310: c367 353d b0d9 723d 9e8b 9c3d 7f03 213d
00000320: 37b9 8a3d e1ae 9f3d 48fb 83bd 6a85 db3c
00000330: a95f 9e3d 3bbe c0bb ba3d 153d 108e aabd
00000340: f3b3 91bd 2c2b a7bb d005 22bd 103f 1abd
00000350: a486 a93d b74a 6cbd 27ef 9a3d e7f7 32bc
00000360: 6b7e 663d 8c84 6cbd 1fc8 febc 5e71 a63d
00000370: 846b 5c3c 9b8d 07bd c072 663b 9c7c 4f3d
00000380: feba b5bc 9b96 593d 615d 713d e5cd 47bd
00000390: 5515 3fbd 86b2 9cbd 19fd e9bc 3c7f 9bbd
000003a0: c89f 933c 1fa3 06bd 5402 6c3c 5d18 b6bc
000003b0: 9600 01bd 1d41 71bd 6a2d e53c 77b9 353d
000003c0: 94ab 00bd 3a0d 8e3d c046 073d 46fe 953d
000003d0: 4c4b 09bd d392 ee3b afab a4bd e08f 963d
000003e0: d73b 823c 7599 853c 9d1d b0bd 6deb 8a3c
000003f0: d59e 4ebd 2947 94bd 4a88 5c3c c0ce 813c
-0.02955711 0.076570965 -0.08296819 -0.08114054 0.06487432 0.03993865 -0.08782458 -0.0019375492
-0.055578243 0.04991281 0.055196136 0.05162571 0.059665382 -0.06651416 -0.06501335 0.042558614
0.028608495 -0.08964514 0.07308765 -0.046978477 0.054020625 0.057405327 0.063142814 0.021719074
-0.07661089 -0.0086023295 -0.026724694 0.08351381 0.053568274 -0.026296226 -0.024611555 -0.08465247
-0.055164438 -0.07510805 -0.04931853 -0.026077837 0.018748531 0.04160803 0.05263059 0.0040325914
-0.044432424 0.027698942 0.0506973 -0.03540036 0.022027852 -0.08632954 -0.07122689 0.047780342
0.029986853 0.010165747 0.015841564 -0.081667 -0.08426632 0.04241649 0.05788096 0.035345133
-0.027189385 0.01677253 0.038205244 0.037751075 0.08849906 0.06268277 0.086236045 -0.04980984
-0.042918626 0.012950913 0.0418812 -0.0041599134 0.021597225 0.08947764 0.057218954 0.01996215
-0.06484372 0.066795066 -0.03391192 -0.031862926 0.041574232 0.08545181 -0.016151158 0.060891304
0.0037421791 -0.044057734 0.03494032 -0.022849428 -0.05823734 -0.043745544 -0.019387154 0.002685122
-0.015112394 -0.0050569056 0.08095691 0.038134057 -0.026369048 -0.050065156 0.038932376 -0.07393916
0.01702298 0.0017853405 -0.0731667 -0.05819834 0.014945917 -0.047145374 0.0036040843 -0.04039683
0.029572017 0.0758163 -0.04054665 -0.05109487 -0.013678524 0.046201307 0.04379716 0.024843603
0.07806509 0.05025269 -0.03305495 0.08776004 0.04764847 0.016103137 -0.034400143 0.060614593
-0.029012406 0.03701001 0.019806612 -0.08175333 -0.053194027 -0.005830824 -0.081407234 0.076337546
-0.027343435 -0.06802322 -0.04085972 0.045997795 -0.06768385 -0.022804216 0.007948432 0.07452304
0.0513449 -0.068446286 0.05412786 0.026302082 0.07289788 -0.077925995 0.070664816 0.061524622
-0.07784091 0.00875444 -0.06210403 0.07397222 0.07301872 -0.08698102 0.042693637 -0.07875476
0.07599286 -0.07655274 0.0070362985 0.04962277 0.06188036 0.078841336 0.030489916 -0.012031888
0.06603312 0.009100535 -0.035042513 0.08700791 -0.018655205 -0.04665322 0.054008313 -0.010168052
0.022520415 0.07634675 0.058306377 -0.05480217 0.06377468 -0.044247545 0.0053471713 0.07058133
-0.051943306 0.0747211 -0.07923537 0.041417655 -0.010216416 -0.082915016 -0.0310418 -0.06842432
-0.008007333 -0.070298746 -0.011646703 0.030860784 -0.017894186 0.05689094 -0.004019556 -0.067773774
0.056355815 -0.030102912 -0.0057902145 -0.0273954 0.044288408 0.059289634 0.07643817 0.039309975
0.06773608 0.077970274 -0.064444125 0.026797015 0.077330895 -0.0058820522 0.03643582 -0.083278775
-0.07114401 -0.005101582 -0.039556324 -0.037657797 0.08277634 -0.05768844 0.07565146 -0.010923362
0.056272905 -0.057743594 -0.031101285 0.08127092 0.013453368 -0.03309403 0.0035163611 0.050655946
-0.022183891 0.053122144 0.058926944 -0.04878034 -0.046651203 -0.07651238 -0.02856307 -0.075926274
0.018020526 -0.03287041 0.014404852 -0.022228414 -0.0314947 -0.058899987 0.027975757 0.044366326
-0.03141363 0.069361165 0.033026457 0.073238894 -0.033519074 0.0072806864 -0.080405585 0.07351661
0.015897674 0.016308526 -0.08599398 0.016957963 -0.050444443 -0.07240135 0.013460228 0.015845656

actor.2.bias f4 [64]
00000000: 799c 84bd 116b 253c 5f23 70bd 2577 33bc
00000010: bfd4 8ebc 2b59 363d 6bde b73d 4c04 b73c
00000020: 545d 9b3b 7df3 1bbd aae0 b5bd 16ec 63bd
00000030: 858e 4e3b 7938 babc 5a0b 743d f339 9c3d
00000040: 043f 36bd 9206 ab3d fe67 99bc d6e6 9ebc
00000050: e629 da3c 3cf1 a33d 75ca aebd 89ce 543c
00000060: a489 adbd 9f4f 9e3c 07fb e0bc 1b17 68bd
00000070: e723 b63b 547f e03b 6628 483d 958f 113c
00000080: 794e 913d 81bb c33c 8f45 09bd f3d1 323d
00000090: 3722 7fbd c651 adbc b7f5 e1bb 47a6 2d3d
000000a0: 31cb a5bd 7812 93bd 68d0 7ebd daff 7dbd
000000b0: 938e 653c d0b8 853d dc24 083d 4c8e b6bd
000000c0: ef6f ae3d 0d1b 43bd 9b0e a4bc 62f8 92bd
000000d0: de06 4e3d a6d9 3abd a531 873d 1902 cd3c
000000e0: 4f7c 8ebd c119 2dbd a1b0 363d f2d3 983b
000000f0: db99 943d e5a2 efbc fd77 43bd bb71 5bbd
-0.06475157 0.010096327 -0.058627483 -0.010953699 -0.01743543 0.04451863 0.0897797 0.022340916
0.00474135 -0.038074005 -0.08880742 -0.05564507 0.0031518054 -0.022732006 0.05958114 0.076282404
-0.04449369 0.083508626 -0.018726345 -0.01939718 0.026631307 0.08004996 -0.08534709 0.012988695
-0.084735185 0.019325076 -0.02746345 -0.05666266 0.005558479 0.006851116 0.048866652 0.00888433
0.070950456 0.02389312 -0.033513602 0.043657254 -0.06228849 -0.021157157 -0.0068957466 0.042394903
-0.08095396 -0.07181257 -0.06221047 -0.062011577 0.014011043 0.06529391 0.033238277 -0.0891386
0.085174434 -0.04763322 -0.020026496 -0.071762815 0.050299518 -0.045617722 0.06601266 0.025025414
-0.06957304 -0.04226089 0.04460204 0.0046639377 0.07255908 -0.029252479 -0.04772185 -0.05357526

actor.4.weight f4 [16, 64]
00000000: 34fd b83d cd47 b9bd 070f 063d 0959 a93d
00000010: 0eda 4a3d 2378 1bbd cfe8 003e c4d1 5b3d
00000020: f55e d33c 3430 19bd 258f 17bc cd67 94bd
00000030: fb72 caba ace0 95bd 861d b5bd 355a 1abd
00000040: 08aa fb3c 08bb 9ebd d850 85ba e0e0 a3bc
00000050: b406 d33c 9d09 653d 0c3c 77bd 1351 7d3d
00000060: 1c91 593d 3cee af3d bf26 77bd aa6a a33d
00000070: 1d59 a9bd c31e dbbd 4792 e13d 6cb8 ab3c
00000080: e31e 51bd 3d01 6fbd 6920 e03d e3c4 fa3d
00000090: 8904 b73b 419e 153d 70f1 69bd bb3a 4abc
000000a0: d229 1f3d 4133 fdbb 559c 93bd 1b4b b73c
000000b0: f9d7 09bd f885 413d fc17 6ebd cf33 f2bd
000000c0: 3795 6b3d eca1 163d be48 9c3d 62ef 06bd
000000d0: d350 b13d 5976 873d 7fd5 003e c07b 19bd
000000e0: b4a4 e2bd 632b ecbd bbd9 7fbd cd05 1d3c
000000f0: b85a 1a3d ef22 7c3d f16d a7bd 3a2d ebbd
00000100: 9252 563d 2ec1 24bd 0e0b 40bc 89d0 46bb
00000110: 6f8f 263d 5dcc 89bd eb58 debd e2c4 4b3c
00000120: 70e0 e03c cafa 8dbd 5632 34bd 425c a6bc
00000130: 029b b73d 5920 1a3d 2c7f 02bd 1126 88bd
00000140: 18b0 293d 9b16 a83d 77f4 c33d e8ed cb3d
00000150: b87f 823d 90d8 c33c 7837 95bd 1525 f5bd
00000160: 84a5 6fbd dac3 a33d eeb0 963d 3cab d63d
00000170: 7d42 883d 5abc cbb9 740c 853d 263c b4bd
00000180: a6aa e53d 74a2 0abc d828 9f3d 29d8 c73d
00000190: 0465 fa3d f1df e9bd d973 be3d a7e6 28bd
000001a0: 0f6d c13c e8e9 85bd 4633 cd3d d53f f23d
000001b0: 8f4d 133d e8c7 dd3d 7c95 8bbc 927c 813d
000001c0: 1f5b ea3d 6252 923d 696a fcbd 1e93 ef3c
000001d0: cf2d abbd 49b9 753d cea7 ca3d fb7e 4bbd
000001e0: 20d1 3bbd 1ed1 183b 7280 8d3d b4ca c3bd
000001f0: 484f c13d 5de2 d33d 7daf 92bd e8ca 8b3d
00000200: d1ac aa3d 2e18 a33c 306d ff3d 5af0 993d
00000210: fd86 e73d 61d5 c2bc 470b b8bd e8f9 963d
00000220: 0cb3 633d 6a7f 0e3d ffab e53c b1c6 e9bd
00000230: 1143 9e3d 9e33 edbd 24bd 81bd 495b a93d
00000240: 0601 ac3d 7dda a8bd 5183 e43d 158c e83c
00000250: f0c0 f03d 9f2c 0abd 7c44 c4bd 6c6f 5c3d
00000260: c807 76bd 7139 f13c 76ff e9bb 1ca2 88bc
00000270: b51c b8bd 20ea 76b9 cb0a 6cbc 36c6 b2bc
00000280: 8efc b4bb 9818 84bb 290f 893d 3ed4 283c
00000290: 5c54 d13d 293f 873d f06b babd 83fb 0ebc
000002a0: c8f1 ebbd 3a2c 7c3b 18e3 9d3d 4c7a c83d
000002b0: 8fc9 c0bc c2c8 d63d 0d53 d03d a874 a43d
000002c0: ce9e 84bd 85b8 e6bd 8dc2 79bd c666 f0bc
000002d0: b15d 9ebd 9661 253d df1c 8fbc a753 4d3d
000002e0: 6399 073d 7b36 f7bd b309 ebbd 914c 3cbd
000002f0: c02b 873d b2b5 e83d 8a2c a93d 2329 28bd
00000300: cd10 f2bc 2473 083d d668 50bd 13c6 393d
00000310: 9f22 773d 4c0c c7bd 6955 7d3d 7930 393d
00000320: 124e e8bc 4ca2 f53c 2db0 5f3d 52ca 223d
00000330: 6bda 253d 332c 7ebd 7472 e4bd ac1c 343d
00000340: 804f 9f3a 4349 eb3d 854d b83d 0a73 8cbd
00000350: a3db 4a3d 745d 4a3c b063 bebc 1bab d93d
00000360: c02a 9ebb 7f8e ca3d b926 f33d aee7 ac3d
00000370: e40e e53c 109c 553c 851b c1bd 584a 433d
00000380: f5f8 0ebd 6395 f4bd 92ed 773b 9bd6 7abc
00000390: d867 dbbd 8172 b83d 33c5 cf3d 9843 d03d
000003a0: d92d c3bd 31b5 bebd 044f 6a3b ce4a 903d
000003b0: 50b1 aebd 50e1 ee3d 7a0e ac3c 87fb 873d
000003c0: 5872 80bd 8501 d03d a8e8 afbd 74da 4c3d
000003d0: 7d97 923d 38c7 533c aae4 063d 846c dc3d
000003e0: 51d5 e2bb d80b a4bc bd8f fb3b a5e1 39bc
000003f0: 0c32 813d 6869 99bc d6f2 5abb e351 893d
0.0903267 -0.09046898 0.032729175 0.08268935 0.04952436 -0.03795637 0.1258881 0.053666845
0.025802115 -0.037399486 -0.009250437 -0.07246361 -0.0015445644 -0.073182434 -0.08843522 -0.037683684
0.030720726 -0.07750517 -0.0010171188 -0.02000469 0.025760032 0.05591737 -0.06036 0.061844897
0.053116903 0.085903615 -0.060339686 0.07979329 -0.0826895 -0.10699227 0.11014228 0.020961963
-0.051054846 -0.05835079 0.10943682 0.122445844 0.0055852574 0.036527876 -0.05711502 -0.012343104
0.038858242 -0.007727057 -0.07207552 0.02237468 -0.033653233 0.047246903 -0.058128342 -0.11826288
0.05751535 0.036775514 0.07631062 -0.032943137 0.08657994 0.0661437 0.12581442 -0.037471533
-0.11066571 -0.11531713 -0.062463503 0.009583903 0.037684172 0.061556753 -0.081752665 -0.11483236
0.05232484 -0.040223293 -0.011721386 -0.00303367 0.040664133 -0.06728432 -0.108568035 0.012437077
0.02745077 -0.069326 -0.043993317 -0.020307664 0.08965112 0.037628505 -0.03185956 -0.066478856
0.0414277 0.08207437 0.09568112 0.099574864 0.06372017 0.023906976 -0.072859704 -0.119699635
-0.058507457 0.0799634 0.073579654 0.10481879 0.06653307 -0.0003885951 0.06496516 -0.08800535
0.11214189 -0.008461583 0.07771462 0.09758026 0.122262985 -0.114196666 0.0929944 -0.041235592
0.023611574 -0.06538755 0.10019545 0.11828581 0.035962638 0.10829145 -0.017039053 0.06322588
0.11443161 0.071446195 -0.123249836 0.029244956 -0.08358347 0.059991155 0.098952875 -0.049681645
-0.045853734 0.0023318003 0.069092646 -0.09560147 0.0943895 0.1034591 -0.07162378 0.06825811
0.08333743 0.01990899 0.12471998 0.075165465 0.11305044 -0.023783388 -0.08986526 0.073718846
0.055590674 0.03478948 0.028036116 -0.114148505 0.07727636 -0.11582111 -0.06334904 0.082693644
0.08398633 -0.08244798 0.11157859 0.028387109 0.1175555 -0.03373396 -0.09583375 0.053817198
-0.060066015 0.029446336 -0.007141049 -0.016678862 -0.089898504 -0.00023547607 -0.01440687 -0.02182303
-0.005523271 -0.004031252 0.06692345 0.010304509 0.102211684 0.06603844 -0.09102619 -0.008726957
-0.115207255 0.003847851 0.0770933 0.09788951 -0.02353361 0.1048751 0.10172091 0.08030063
-0.06475602 -0.11265663 -0.060976554 -0.029345881 -0.07732714 0.04037627 -0.017469821 0.050128605
0.033105265 -0.12070938 -0.11476459 -0.045971457 0.066001415 0.11362781 0.08260448 -0.041054856
-0.029549027 0.03331293 -0.05088123 0.045354914 0.06033575 -0.09719142 0.06184903 0.045212243
-0.02835754 0.029984616 0.054611374 0.03974373 0.040491503 -0.06205387 -0.11154643 0.043972656
0.001215443 0.11488583 0.08999161 -0.068578795 0.04952587 0.0123513825 -0.023240894 0.10628339
-0.0048268735 0.0989046 0.1187262 0.08442627 0.027961202 0.0130376965 -0.09429077 0.04767832
-0.034905393 -0.11942556 0.0037830812 -0.015309955 -0.10713166 0.09006215 0.10145035 0.101691425
-0.09530229 -0.09311903 0.0035752663 0.07045518 -0.085299134 0.11664069 0.021002997 0.06639772
-0.06271809 0.1015654 -0.085892975 0.05001302 0.071578 0.012925915 0.032932915 0.10762885
-0.006922402 -0.020025179 0.007677047 -0.011345302 0.06308374 -0.01872702 -0.0033408902 0.06705072

actor.4.bias f4 [16]
00000000: 23ef 50bd a678 adbd 6a34 ce3d b19d e4bd
00000010: 57d6 4d3d f2d3 87bd 8cd4 70bb a683 9ebd
00000020: bfa0 503d 24d5 16bc 9c88 8fbc 1f01 de3d
00000030: ba32 693d fb94 e9bd 16a5 e13a fb2e cbbb
-0.05100931 -0.084702775 0.10068591 -0.1116289 0.05025324 -0.06632222 -0.0036747782 -0.07739954
0.05093455 -0.00920609 -0.017521195 0.108400576 0.056933142 -0.11405369 0.0017215337 -0.006200669

critic.0.weight f4 [128, 81]
00000000: 757b a2bd 9950 c43c 292c ad3d bdeb 40bd
00000010: 350d 10bd 7df7 66bd f031 9ebb f59f 333d
00000020: 1a36 d7bd ca0d 943d ad7a 943d d781 ffbc
00000030: 228d 363d 700b 91bb 5216 dcbd acc6 aabc
00000040: eefa dabd b14c 99bd 7eae 223c 9847 63bd
00000050: ed20 60bd 6f01 15bd 289d 3cbc 74c5 7b3d
00000060: 4510 953d 60ce 6ebd 1b7f e0bd da70 9cbd
00000070: 66bc e63c 5d7a 78bd ed11 61bd 7da2 a5bc
00000080: 638a 863d 5279 e13d 1fa5 853d 06d3 80bc
00000090: eedf 723d 3462 d8bd 93f1 d63d d1aa 5cbd
000000a0: bb8b abbd e5a5 a43d f33b 54bd d0a7 86bd
000000b0: 4271 6b3b 45ca c83d 1dbc 853d 22df 503d
000000c0: f94d 863d b5ce b3bc 965f 403d 7dbe 7d3c
000000d0: 9be6 7f3d 412b 7a3d e47c bdbd d3ef 893d
000000e0: 0bb2 c0bd 1601 7a3d 4326 c93d a544 dbbd
000000f0: 29fd 20bd b31f 58bc 7dbb efbc 3309 5f3d
00000100: 1f9e 8ebd 0d52 78bc 2de8 f5bc a7f5 00bd
00000110: 9849 c6bd 3e88 183d a3c8 07bd 7872 63bd
00000120: 4a9b 833d a38a 66bc 8051 c23d c18f 8cbd
00000130: ae3a 6a3c 5ef2 873d 0e68 c9bd a915 b53d
00000140: 0ce9 87bd ac99 acbd 3e22 b9bd 8918 33bd
00000150: a0a1 06bc 994e 25bc e533 cdbd 61f1 ffbc
00000160: 9d7e b7bd 2478 f63c f579 da3d fe63 c73d
00000170: 2326 3dbd 33d3 313d 70e6 57bc 5402 a7bd
00000180: 86d6 3d3d 27e0 a63d 27bf d6bc 174e 88bd
00000190: f46d 8fbc d6a4 73bd 78bf 633b 16b7 80bd
000001a0: 6aab 7cbc 0efc 623d dc66 5bbc e143 a2bd
000001b0: 34a6 b33d 2ebc 54bc 64ff 98bd f325 c6bd
000001c0: 3acc 6bbc f352 28bd 7ea2 5cbc e72b ce3c
000001d0: 110b cd3c 6779 0e3c 71a2 ad3d 05e1 373d
000001e0: ec76 903d 832d 28bc bcfd 01bb 018e a6bd
000001f0: f107 8fbc f8fe 933d 7c3c 783d f50a 8a3d
00000200: b31d da3d 429c 703d 89b2 99bd b514 82bd
00000210: ebc3 09bd 82e0 9f3d 6b34 e53d 224b 7cbd
00000220: 6317 c33d ed6c d83d 3365 9b3d 7bac 45bd
00000230: b240 45bd 418d 99bd 0324 283d dbfb cf3d
00000240: 3b70 143c cfaf bebb d967 ac3d 15af 87bd
00000250: a9a3 c63d 5a76 aa3d 2779 4dbd f4b8 cc3d
00000260: d565 d1bd 796b 48bc bd82 eabc 85e1 47bc
00000270: 1dc8 d7bd 1bac 0e3d 5a77 e83b 8a35 a13c
00000280: 15ef ca3d 9f32 d3bd 6af7 d13c 7c39 f43c
00000290: 43d3 e0bd 5f7b bcbd 1240 a9bb 594e 9c3c
000002a0: dfb9 af3b a359 5b3d e289 b8bd 6d69 9a3d
000002b0: 8f85 10bc 1ed8 e4bc f8da ac3d 4560 dbbd
000002c0: 80b9 79bd 4746 a1bd 37be c3bd 5036 d5bd
000002d0: b64c 50bd 7bce a5bd 7c03 533d 150a 2ebd
000002e0: 4b74 2c3d a32e 03bd 94c7 753d 1a9c db3d
000002f0: 0198 7b3d 91fc 533c a22d 2fbd e237 c23d
00000300: a9e0 ccbc aca8 943d 6f0b b53d 562b d63d
00000310: f780 1bbd 29c4 71bd f3f7 893d ea8c c6bc
00000320: 0d43 d3bd 0f4c b2bd 01d8 3d3d 63e6 3fbd
00000330: 3595 74bd 641b bc3c 065e b6bc 2725 e03d
00000340: a873 c63d d7d8 803d 799c dfbd e630 40bd
00000350: 3e10 1e3d 3937 2dbd 5d84 b03d ca3d 883c
00000360: dad9 51bd f5c6 b73d ff95 1d3d aeee 3c3d
00000370: a791 febc 2d8b 593d 9c48 dbbd 14a8 a03d
00000380: 9908 f93c 7ce6 073c 262d cbbd 0bc7 c2bd
00000390: 46b1 4bbd e19a 833d 09e1 7f3d ab35 b23d
000003a0: c1d7 eb3c b9da d33d 33a0 b93d 91e7 ffbc
000003b0: 6dfa 3abc 1288 8f3d 7049 c03b ec94 aabd
000003c0: 7925 08bc 9897 263d 53f7 5cbd c0a9 7cbb
000003d0: 68bc 01bd a6e4 c2bd 98c5 21bd 58b1 75bc
000003e0: 8eb5 a1bd 06f7 b6bd b91b 86bd 96d5 5c3d
000003f0: 823f 1c3d ae62 83bd 7924 813d 405b d4bb
-0.07933704 0.023964213 0.084556885 -0.047099818 -0.035168845 -0.056388367 -0.0048277304 0.04385372
-0.10508366 0.072291926 0.07249961 -0.031189842 0.04456819 -0.0044264123 -0.10746445 -0.020846687
-0.10692392 -0.07485331 0.0099292975 -0.0554882 -0.0547189 -0.03637832 -0.011512078 0.061467603
0.07278494 -0.058302283 -0.109617434 -0.07638712 0.028166007 -0.06066357 -0.054948736 -0.020219082
0.06569364 0.11009468 0.06525635 -0.015725624 0.059295587 -0.10565606 0.104952954 -0.05387384
-0.08376261 0.08039454 -0.051814985 -0.065749764 0.0035925661 0.09804205 0.065300204 0.050994046
0.06557841 -0.021949152 0.046966158 0.0154873105 0.062475782 0.061076406 -0.092523366 0.06735196
-0.09408959 0.061036192 0.09821751 -0.10706452 -0.039303932 -0.013191151 -0.029264206 0.054452132
-0.06963753 -0.015156281 -0.030017937 -0.031484272 -0.09682006 0.037239306 -0.033150326 -0.055529088
0.064261034 -0.0140711395 0.09488201 -0.068633564 0.014296217 0.06638025 -0.098343 0.08842022
-0.06636247 -0.08427748 -0.09039734 -0.04372457 -0.008217245 -0.01008954 -0.10019664 -0.031243028
-0.089596964 0.030086584 0.10667793 0.09735869 -0.046178948 0.043414306 -0.013177499 -0.08154741
0.046347164 0.081482224 -0.026214195 -0.066555195 -0.017508484 -0.05948337 0.0034751575 -0.06284921
-0.015421728 0.05541616 -0.013391223 -0.07923103 0.08771935 -0.012984319 -0.07470587 -0.09675207
-0.014391953 -0.04109473 -0.0134664755 0.025167419 0.025029691 0.008695937 0.08478249 0.04489233
0.070539325 -0.010264757 -0.0019835075 -0.08132554 -0.017459841 0.07226366 0.060604557 0.06740371
0.10650196 0.05874277 -0.07504756 -0.06351606 -0.033634108 0.07806493 0.111916386 -0.06159509
0.09525945 0.10567651 0.075876616 -0.048260193 -0.0481574 -0.07497645 0.04104997 0.101554595
0.009059961 -0.005819298 0.08418245 -0.06625191 0.096991844 0.08323355 -0.050164368 0.099962145
-0.10224501 -0.012232655 -0.028626794 -0.012199764 -0.105362155 0.0348321 0.007094306 0.01967885
0.099088825 -0.103123896 0.025630672 0.029812567 -0.10977795 -0.09203219 -0.0051651085 0.019080328
0.0053627337 0.05355228 -0.09010674 0.075396396 -0.008820905 -0.027935084 0.084402025 -0.10711721
-0.060967922 -0.078747325 -0.09557765 -0.1041075 -0.050854407 -0.08096024 0.051516995 -0.042490084
0.042103093 -0.032026898 0.060004786 0.107231334 0.06142426 0.0129386345 -0.04276813 0.09483315
-0.02500947 0.07258734 0.088400714 0.104574844 -0.037964787 -0.059024964 0.06736746 -0.024237115
-0.10315523 -0.08705913 0.046348576 -0.046850573 -0.059712607 0.02296228 -0.02226163 0.10944586
0.096900284 0.06291359 -0.10918517 -0.046921633 0.03858971 -0.042288993 0.08618996 0.016631026
-0.05123315 0.08973495 0.038473126 0.04612606 -0.031075312 0.053111244 -0.107072085 0.07844558
0.030399607 0.008294698 -0.09920721 -0.09510621 -0.049729608 0.06426025 0.06247047 0.087016426
0.028789403 0.103444524 0.09063759 -0.03123835 -0.011412245 0.07008375 0.0058681294 -0.08329186
-0.008309715 0.040671915 -0.053946804 -0.0038553327 -0.03167382 -0.095162675 -0.03949508 -0.014995895
-0.07895957 -0.08933835 -0.065482564 0.05391463 0.038146503 -0.06415306 0.06305785 -0.0064806044

critic.0.bias f4 [128]
00000000: 6797 8fbd 9a5f 243d aa3e 55bd d25f 7b3d
00000010: 9f24 d4bd 5567 bb3c 2112 33bd 7457 5ebd
00000020: 9355 713c 0410 913c 35b1 42bd dc25 8a3b
00000030: 2547 c3bd 484e 93bc 17d7 cdbd b502 b7bd
00000040: 3efe beba 8405 7d3c 7cac babd 552e 4bbd
00000050: 0e43 d53d 2353 d63c b2f6 d93d 41d8 debd
00000060: db74 cc3d eae0 df3d b282 a93d 7c43 3dbd
00000070: 9216 8ebd 2d4d 603d 5c78 48bd b851 243d
00000080: fad0 50bc f8cd e5bc 850d b2bd 56c2 ac3d
00000090: bf00 44bc 062a a1bd 4c9a 91bd edde b13d
000000a0: c3ab acbd c52f 673d 0c4c dcbd b8f4 a4bd
000000b0: 6b8e 963d 374d a1bd e7d0 d4bd 35e4 04bd
000000c0: ea1c c0bc 80ff 663d d066 903d b858 3f3d
000000d0: 0a58 2fbc 3eb4 d43c b6d2 143d a522 c5bd
000000e0: 3053 5c3d 6077 9fbd f2d5 143d 74ff a93d
000000f0: f8f1 2dbd b2a4 afbd 5d41 08bc 626b cc3d
00000100: 85ca 83bd e699 3bbd 3548 853d beba 39bd
00000110: f02c b83b 8404 8a3d a932 0dbc 19d1 a4bb
00000120: 9267 9e3d ec2e f83c 217f dd3d 97ea 1fbd
00000130: 0d57 5a3d a668 953d 385e b33d a9b9 a1bd
00000140: 8e11 8ebd c0fa 5abd 0a51 c73d 0812 9abd
00000150: 9411 f7bb 865d 923b 908f 913d 8b89 cfbd
00000160: e677 adbc f3f7 98bd a021 b93d 93d5 e1bd
00000170: 47eb acbd dbb7 3d3d 8c42 a83d 91eb 8f3a
00000180: 577b 9d3d 77e6 a4bd 84b4 963d 9534 e4bc
00000190: 3b94 ba3c 72ff ad3c c30f 863d 1ecc a43d
000001a0: a4b1 cf3d 0f4f 3ebd 4408 c2bd 5ebc d63c
000001b0: 71cd 9dbd 7ec8 a3bd a811 a03d 65af 0bbd
000001c0: 3fbd 773d a005 47bc 1874 a03d 429b e13c
000001d0: c684 1dbc 1607 8d3d bdbe cf3d 7ef9 84bc
000001e0: e1fe a3bd ba88 afbd f697 d6bd c330 a1bc
000001f0: ee67 d7bd 721c b3bc 8c0d bd3d 113e 243d
-0.070112996 0.040130235 -0.052061714 0.06137068 -0.103585474 0.022876421 -0.04371846 -0.05428262
0.014729875 0.017707832 -0.04753228 0.004215939 -0.09535054 -0.017981663 -0.10050791 -0.08936063
-0.001457162 0.01544321 -0.0911493 -0.049604733 0.1041318 0.02616269 0.106427565 -0.10881091
0.09983226 0.10931571 0.08276881 -0.046206936 -0.06937899 0.0547611 -0.04894291 0.040116996
-0.012745136 -0.028052315 -0.08693985 0.08435504 -0.0119630685 -0.078693435 -0.07109508 0.08685098
-0.084311984 0.05644204 -0.10756692 -0.08054489 0.07351383 -0.07876056 -0.103914075 -0.032444198
-0.023451287 0.056396008 0.0705086 0.04671547 -0.0107021425 0.025964852 0.036333762 -0.096257485
0.05379027 -0.07786441 0.036336847 0.08300677 -0.042467088 -0.08576335 -0.008316365 0.09981419
-0.06435112 -0.045801066 0.06507913 -0.045344107 0.0056205913 0.067391425 -0.008618035 -0.005029809
0.07734598 0.030295812 0.108152635 -0.03904208 0.053305674 0.07295351 0.08758205 -0.0789674
-0.06936942 -0.05346179 0.09732254 -0.075229704 -0.0075399373 0.0044667153 0.071074605 -0.10133656
-0.021175336 -0.074691676 0.090396166 -0.11027064 -0.08443313 0.046317916 0.08215818 0.0010980238
0.07689541 -0.0805177 0.073586494 -0.027857104 0.02277576 0.02123997 0.06545975 0.08046745
0.10141304 -0.046462115 -0.09474233 0.026212867 -0.077052005 -0.07997225 0.07815868 -0.034102816
0.060483214 -0.012147337 0.07834643 0.027539853 -0.009614175 0.06886117 0.10143802 -0.016232248
-0.08007599 -0.085710004 -0.10478203 -0.019676572 -0.1051787 -0.02186415 0.092310995 0.040098254

critic.2.weight f4 [64, 128]
00000000: 0767 7e3d 5fa1 953c 75ae a43c c46e 1fbd
00000010: 8fa6 ce3c bac4 203c 3389 9cbd c99e 223d
00000020: db8a 913d 5182 5f3c 4cc2 353d 0669 a8bb
00000030: 2d5f 8ebd 80bf a8bc 6c02 b9bb 85ac 2e3d
00000040: 2608 2b3b 7d0a 0abd 9b80 253d 27a6 883d
00000050: ad97 ddbc f924 98bd bcd7 993d a382 60bd
00000060: f558 a53d cb6b 86bd 9edb a73d 6407 bf3c
00000070: 28a2 66bd 84ed 843c 90d0 95bd 2c22 c63b
00000080: aedd 603d b46a 1a3d dab9 9b3d 4996 913d
00000090: fd9c 163d a0cd b3bb da7c 59bb bc5b 9bbd
000000a0: 93b1 aabd 79bf 323d 0be4 a73c c6de a5bd
000000b0: 79cd 08bd 9860 b4bd cb98 423d 2dbb 43bd
000000c0: 50ce 88bd ed4e 363d 8b6d 893d 27c1 62bd
000000d0: 5a61 76bc 2bac 7e3d 0f30 83bc 6848 463d
000000e0: 461e 0aba ff09 c4bc 24dc 1cbb 2c5b 6dbc
000000f0: d5a0 3bbc b6d7 993d 50ed 073a 08eb 223d
00000100: 3f29 803d 418f 19bd 0380 593d 3a2d e0bc
00000110: e824 debc 9207 5abd 4a4c 8dbb 6c58 903d
00000120: e019 1bbc c155 8a3d d5a0 863d a3a2 f53c
00000130: db68 433d 3f66 b3bd 5922 b3bd d4f0 f63c
00000140: 57d6 2abd 6432 90bc 382b 08bc 6e72 81bd
00000150: 3e91 643d 2709 d13c 829b c4bc 06e7 97bd
00000160: ba2a 8b3d 26de 7b3d ac5d 79bd e64e 763d
00000170: a1b4 5d3d 1cac 14bd f0a4 7bbc 0b09 11bd
00000180: 5794 933d b751 963c efaa caba 9ba4 a23d
00000190: 5a0d 16ba 7b90 d53c a3d2 a03d 74da 303c
000001a0: 9146 b2bd 51b6 b13c ce1b a4bd 50ab 7c3d
000001b0: 9018 533b 3833 a53d c696 903d 9af0 11bd
000001c0: 02b4 073d d196 063d 0b3f 34bd 2cc0 af3d
000001d0: 32c2 bdbc d4b2 06bd e10c 9ebc 9d48 133d
000001e0: 00df 33ba a51d 4bbd 7916 743d 0916 b8bc
000001f0: 3676 09bd 3385 30bd 685d 94bc b1d1 50bd
00000200: 56ae 523d cdd1 8ebc 2d5f 0b3d 4ae9 713d
00000210: 0a66 8cbd 0c91 583d 7ea6 11bd 3b3a b03d
00000220: 233d 9abd bcd6 3f3d 8e22 9e3c d5c1 2cbd
00000230: 752d 883d 206b 3d3b 6ef2 f7bc befa 6abd
00000240: c674 73bb d01b 013d 053d 8c3c c380 b73c
00000250: ce91 003d 8dbe 48bd 8475 573d a8d4 773c
00000260: 4840 493d a392 6a3c 06b4 913d a779 ac3d
00000270: 53d4 7f3c 5290 ae3c a219 17bd 090e ab3d
00000280: a0cb 113d cdee 74bd 4ad1 a9bd 0e20 86bc
00000290: b97d 3abc 9860 19bc b89b 96bd 8fff 753d
000002a0: 46ac ae3d 186e 39bc def7 273c 6a0c b9bc
000002b0: 7fd3 293d 953f 3abd d1c0 72bd b55a 413d
000002c0: 32c9 96bd d0f9 93bd 750e adbc bfd1 333d
000002d0: 756a a43b 3b99 e23a c8aa a9bd 09c6 9b3c
000002e0: 0b3f 1b3d 791b 48bd f3e7 dbbc d67f 8dbd
000002f0: 93c4 4d3d c045 b3bd 865f ef3c e964 aebd
00000300: 57fd 363d 5b01 373c 57d1 93bd d8cc 70bd
00000310: acb5 9f3d 28c6 82bd d45d 95bd 28c0 2bbc
00000320: 841a 84bc adb9 833d 6832 a3bd 6d57 0c3d
00000330: da06 a23d ef44 333d 5198 103d d3e8 4d3c
00000340: aaf4 69bb f4ba 34bc df69 54bd c6ae 8cbc
00000350: efcc d6bc c722 91bd 0bde 17bd 0bd8 96bd
00000360: 9893 06bd 5062 d23c b961 823d 3143 fcbc
00000370: 6b92 bf3b d320 4dbd e82e 0cbd 952c 063d
00000380: 8e23 0a3d 04ca 40bd 8508 1abd f803 13bd
00000390: a80b ab3d b971 b13d 6468 093d af16 753d
000003a0: 37a4 e43c 1fbc 773c e724 813d 3c25 3cbd
000003b0: 0587 463d df88 b0bc 30da 26bc 024b 333c
000003c0: ef10 5b3b b825 d6bb 1aa6 813c e751 843d
000003d0: 6926 b93c 602e 353c 420c 293c 668a 3cbd
000003e0: e73d 19bd 2ba6 7ebc df9e 1bbd df9c fe3c
000003f0: 33dd 843d 0ce7 a9bd 06ab 333d e4f5 943c
0.062109973 0.018265424 0.020102719 -0.038923994 0.025225906 0.009812528 -0.07643356 0.03970221
0.07106563 0.01364191 0.04437475 -0.005139473 -0.06951747 -0.020599127 -0.0056460407 0.042644996
0.0026097386 -0.03370141 0.04040585 0.06672316 -0.027049864 -0.07428927 0.07511851 -0.054812085
0.08073608 -0.065635286 0.081961855 0.023318954 -0.056306988 0.016226538 -0.07315171 0.006046554
0.05489891 0.037699416 0.07603808 0.07108743 0.03677081 -0.005487159 -0.003318599 -0.07585856
-0.08334651 0.043639634 0.020494482 -0.08099131 -0.03339908 -0.08807486 0.047508996 -0.047785927
-0.06679976 0.044508863 0.06710347 -0.055359986 -0.015037859 0.06217591 -0.016014127 0.048408896
-0.00052687933 -0.023930548 -0.0023934925 -0.014487069 -0.01145192 0.07511847 0.00051852036 0.039774925
0.06257867 -0.037490133 0.053100597 -0.027365316 -0.027117208 -0.053229876 -0.004312073 0.07048115
-0.009466618 0.067546375 0.06573645 0.029984778 0.04770742 -0.08759736 -0.08746786 0.030144133
-0.041708317 -0.017602153 -0.008311085 -0.06320654 0.055802576 0.02551706 -0.023999933 -0.07417111
0.06795259 0.061491154 -0.060880348 0.060133837 0.05412734 -0.03629695 -0.015359148 -0.035409015
0.07206028 0.018349512 -0.0015462319 0.07941552 -0.00057240354 0.02606987 0.07852676 0.010794271
-0.08704866 0.02169338 -0.08013116 0.061686814 0.0032210685 0.0806641 0.07060008 -0.035629846
0.033130653 0.032858673 -0.044005435 0.08581576 -0.023163889 -0.032885388 -0.01929325 0.03595792
-0.00068615377 -0.049588818 0.059591744 -0.022471445 -0.03356 -0.04309578 -0.018110946 -0.050981227
0.05143579 -0.017434025 0.034026314 0.059060372 -0.068554 0.052872702 -0.03555917 0.086048566
-0.07531192 0.046835646 0.019303586 -0.04217704 0.06649295 0.0028902963 -0.030266967 -0.057368033
-0.003714846 0.031520665 0.01711894 0.022400266 0.03138905 -0.04900985 0.052602306 0.015126385
0.04913357 0.0143171875 0.07114415 0.08421641 0.015614587 0.021309052 -0.03688968 0.08352286
0.035594583 -0.05979805 -0.08291872 -0.016372707 -0.011382514 -0.009361409 -0.0735392 0.060058173
0.08528952 -0.011317752 0.010251967 -0.022588927 0.041461464 -0.045470793 -0.059265915 0.047205646
-0.07362594 -0.07225382 -0.021125058 0.0439012 0.0050175735 0.0017288098 -0.08284527 0.019015329
0.03790192 -0.048854325 -0.026844 -0.069091484 0.050236296 -0.08753538 0.029220354 -0.08515341
0.044675197 0.011169757 -0.07217663 -0.058789104 0.07798323 -0.063854516 -0.07293287 -0.010482825
-0.016125925 0.06431899 -0.079685986 0.034263063 0.07911463 0.043766912 0.03530151 0.012567717
-0.003569881 -0.011030901 -0.05185878 -0.017173182 -0.026220767 -0.070867114 -0.03707699 -0.07365426
-0.0328556 0.025681645 0.06366295 -0.030793758 0.005846312 -0.05008013 -0.03422442 0.03275736
0.033725314 -0.047067657 -0.03760578 -0.035892457 0.08351833 0.08664269 0.03354682 0.059836086
0.027910335 0.015120535 0.06305867 -0.045933947 0.04846861 -0.02154964 -0.010183856 0.010943176
0.0033426841 -0.006535258 0.015826274 0.06460934 0.022601323 0.01105842 0.010317864 -0.046030425
-0.03741255 -0.015542547 -0.03799331 0.031080661 0.06487503 -0.08296022 0.043864273 0.018183656

critic.2.bias f4 [64]
00000000: 8f14 573d 6a01 693c 9488 29bc e61d 65bb
00000010: d552 42bc 98b3 a73d 4b8f a2bd eed5 7f3d
00000020: 2dd3 053d 9037 cc3c 689c 2bbc 72cb 6fbc
00000030: 2eb8 273d c50e 863a db1c 25bd b04f 2f3d
00000040: a4b3 f23c 7051 b13d 374e cd3c fc41 253d
00000050: 3ca2 fe3a 3d28 18bc 39b9 0d3d e3eb 32bc
00000060: 3b76 9f3b 29a9 3b3c 43db 493d 444d a7bc
00000070: 9869 813d 0ccc 83bc 8f4e 92bd f7ea 08bd
00000080: 35bd ae3d 8dad 3d3d ca3d 1bbd 43c3 e23c
00000090: 1884 9f3b cb96 05bd 9704 ad3d 83ff 34bd
000000a0: d06c b4bc f0d9 243d 3dcf 833d 5d1b e7b8
000000b0: 3e6b b13c 5a4a 3abb af73 8e3d fe64 323d
000000c0: cdc2 ff3b 99f8 e53c c002 113d 6cf6 46bd
000000d0: a05b c73b cdad 96bd 74f0 5cbd f3c0 4cbc
000000e0: 7829 96bd c80a 44bd a0cb fcbc 00d3 fabc
000000f0: b152 eebc 362f 0bbd 078f a53d 49c0 863d
0.05250984 0.014221529 -0.010347504 -0.0034960448 -0.011860569 0.08188552 -0.07937487 0.06245988
0.032672096 0.024928838 -0.010474302 -0.0146359075 0.04094713 0.001022779 -0.04031072 0.042800605
0.029626675 0.08658111 0.02506171 0.04034613 0.0019427012 -0.009286937 0.03460047 -0.010920498
0.004866389 0.011453905 0.04928137 -0.020422585 0.063189685 -0.016088508 -0.0714389 -0.033427205
0.08532182 0.04630809 -0.037900724 0.027680999 0.0048680417 -0.03261451 0.08448141 -0.044188987
-0.022024542 0.040246904 0.06436012 -0.00011020035 0.021657582 -0.0028425665 0.06955659 0.043553345
0.0078052045 0.028072642 0.035403013 -0.04857485 0.0060839206 -0.073573686 -0.05394025 -0.012497175
-0.07332128 -0.047861844 -0.030858815 -0.03061819 -0.029092165 -0.03398057 0.08083921 0.06579644

critic.4.weight f4 [1, 64]
00000000: 1195 cc3d 5194 a83d 3c44 acbd b187 90bd
00000010: 2d88 453d bc11 6f3d bb43 113d 32bd e8bd
00000020: 46ab c5bd 80c2 753b 170f e33d 12a0 aabd
00000030: 00e2 12ba 3288 ddbc 3b06 463d 66dd 71bd
00000040: d42d 123d ae26 16bd 9c77 98bd 6539 b7bd
00000050: 30e9 80bd 68e6 933c cb69 a03d 8134 c2bb
00000060: a4de 603d c70d 973d f0dc d03d a0b9 b1bc
00000070: bfa0 4d3d 1fc0 273c 1701 693d 08c1 a0bc
00000080: d511 ee3b 1ae0 b9bd 9ecc 2c3c 279c e13c
00000090: 2f4c 243d ee29 94bd 59cc 98bd 8163 da3d
000000a0: f39e 9bbc 738b 5abd 1ba1 89bc 8243 9d3d
000000b0: f260 213d 9c61 acbc 5068 dcbd 110d e03d
000000c0: 2dc8 0d3d f366 9a3d 92c9 c4bd efc3 f5bd
000000d0: a8f4 dabc 126a a4bc 60a1 3ebd 3e6f 4bbc
000000e0: 56b4 debb 2c35 233d b570 b93d fd76 d1bc
000000f0: 2fcf 3d3d 64fa 7c3d 488a fb3d a02b 63bc
0.0998937 0.08231414 -0.08411452 -0.07057131 0.04822557 0.058366522 0.035464983 -0.11364211
-0.096518084 0.0037499964 0.110868625 -0.08331312 -0.00056031346 -0.027042482 0.048345786 -0.059049033
0.035688236 -0.03665798 -0.07444689 -0.08946494 -0.06294477 0.018054202 0.078326784 -0.005926669
0.054899827 0.07375675 0.101983905 -0.021694958 0.050202128 0.010238676 0.056885805 -0.019623294
0.0072653093 -0.09075947 0.010546831 0.02754028 0.040111717 -0.0723456 -0.07460851 0.1066351
-0.018996691 -0.053355645 -0.016800454 0.07678892 0.039399095 -0.021042638 -0.107620835 0.10939992
0.03461473 0.07539167 -0.09608759 -0.12000262 -0.02672799 -0.02007011 -0.046540618 -0.012416659
-0.0067964 0.03984563 0.090547 -0.025569433 0.046340164 0.06176223 0.122822344 -0.0138653815
