output/ppo_model.pth (torch, 91134 bytes, 12 tensors)

log_std f4 [6]
0.0 0.0 0.0 0.0 0.0 0.0
00000000: 0000 0000 0000 0000 0000 0000 0000 0000
00000010: 0000 0000 0000 0000

actor.0.weight f4 [128, 18]
-0.1649051 0.09714082 -0.09058047 0.20151703 0.15550438 0.07917041 -0.19305219 -0.22721602
-0.01626796 -0.0456552 0.18865792 0.22393773 -0.09928808 -0.18873353 -0.15662235 -0.056283146
0.046174414 -0.1698967 0.16145776 -0.020037621 0.19606273 0.12016965 0.116900034 0.07550706
0.2087858 0.042508543 0.013499365 0.011139287 -0.21446006 0.026640514 -0.15746365 0.021448707
-0.017372377 -0.18404394 -0.05001012 -0.1503248 0.2307576 0.09631471 0.07250401 -0.14291926
-0.08121505 -0.1623109 0.1983909 0.047707282 0.12094294 -0.14424893 -0.23693283 0.24152951
0.11232654 -0.079039425 0.22590022 -0.099762514 -0.18147849 -0.05705584 0.19783254 0.18108158
0.19178778 0.013791135 -0.069997914 -0.030772923 0.077340044 -0.022351624 0.063901365 -0.027185516
-0.106967494 0.060829457 0.054021627 -0.052370902 0.23772113 -0.055755936 -0.06117971 0.18284719
0.21655652 0.20733067 0.07367614 -0.22749457 -0.09029783 -0.21262856 0.12422424 0.17924422
-0.060278922 0.13895729 -0.2201591 -0.029694647 -0.17449294 -0.049048934 0.19004466 -0.15316671
0.011475766 0.17190118 -0.096569546 0.058855113 0.17102861 -0.050533246 -0.16793595 0.019702706
-0.064465754 -0.19690399 0.23938656 0.12445606 0.1404314 0.08786384 -0.033019543 0.08492965
0.032451253 0.04642364 -0.00029087535 -0.15628694 -0.088187315 0.0017708977 -0.22712307 0.16685258
-0.17872907 -0.083077244 -0.013884065 0.04309059 0.12953116 0.20879702 -0.07769233 -0.029243993
0.08743271 0.009316702 0.20848052 -0.1732472 0.11323848 -0.1198211 0.118852064 0.15927392
-0.08453217 -0.028054703 0.04418301 -0.043004695 0.08593623 -0.21440518 -0.19531879 -0.07621647
0.22716479 0.08294241 0.19539057 -0.15910283 0.1109179 -0.19520667 0.015101641 -0.058458105
0.11203349 -0.0871088 0.21892498 -0.01150753 0.056883626 -0.065823875 0.11691425 -0.024296174
0.12845784 -0.15585034 0.07206143 -0.046563115 -0.04220036 0.13176697 -0.21317153 -0.06748711
-0.09543417 -0.21413623 -0.16604349 -0.16556825 0.014912839 -0.07043193 -0.08545933 0.11989196
0.15827273 0.21202661 -0.009772804 0.19075297 -0.039760873 -0.027436761 -0.04100874 0.051679503
-0.15301968 0.19740091 0.048226073 0.015355471 -0.069692984 -0.1722977 0.08780071 0.07978791
-0.17625986 -0.16101632 -0.15456633 0.18318698 0.1770505 0.15454629 -0.088530496 -0.16783363
-0.052686013 0.02944636 -0.18457386 0.064338766 -0.07808189 0.035663925 0.04150013 0.18112177
0.026194455 -0.14198437 -0.19486898 0.15814322 -0.18067619 -0.066002704 0.003616715 0.16061126
-0.0026127056 -0.22148809 -0.12419113 0.22017479 -0.023789737 0.19727147 -0.010550385 0.09196228
-0.01760871 -0.10690502 0.0973959 -0.19997129 0.21079127 0.1426213 0.20608637 0.0482764
-0.18843539 0.07446553 0.0838086 0.018954981 0.23368594 0.03858752 -0.14677714 0.16395094
0.01065627 -0.07099561 0.2288464 0.13924502 0.21479656 0.18395585 0.10985623 0.105989516
0.20064378 0.11832203 0.20207022 -0.040003337 0.14251713 0.18271814 -0.20166811 0.14503886
-0.07432647 0.106482655 -0.11324442 0.18733628 0.05501733 -0.09315067 0.002825402 0.1860562
00000000: e2dc 28be c4f1 c63d 4182 b9bd 7b5a 4e3e
00000010: 8a3c 1f3e 1924 a23d 79af 45be 51ab 68be
00000020: 6344 85bc f200 3bbd 8b2f 413e ef4f 653e
00000030: 8d57 cbbd 5d43 41be 9c61 20be 2889 66bd
00000040: 6221 3d3d 67f9 2dbe 2f55 253e f025 a4bc
00000050: abc4 483e 811b f63d 4969 ef3d 72a3 9a3d
00000060: f2cb 553e 701d 2e3d 712c 5d3c 8e81 363c
00000070: 6b9b 5bbe 353d da3c 273e 21be 33b5 af3c
00000080: 8450 8ebc 0476 3cbe 69d7 4cbd bfee 19be
00000090: b84b 6c3e a640 c53d fb7c 943d 6d59 12be
000000a0: 1354 a6bd d434 26be fc26 4b3e b668 433d
000000b0: efb0 f73d feb5 13be 859e 72be 8353 773e
000000c0: 750b e63d 6cdf a1bd 6352 673e 4a50 ccbd
000000d0: 7fd5 39be 62b3 69bd 9d94 4a3e 736d 393e
000000e0: 0464 443e 36f4 613c 115b 8fbd 7f17 fcbc
000000f0: 7564 9e3d c11a b7bc b8de 823d 29b4 debc
00000100: c611 dbbd 4f28 793d c845 5d3d df82 56bd
00000110: 2b6d 733e 5660 64bd 9397 7abd 4b3c 3b3e
00000120: fec0 5d3e 7e4e 543e 84e3 963d 56f4 68be
00000130: 12ee b8bd 4dbb 59be 4769 fe3d cc8b 373e
00000140: 08e7 76bd d24a 0e3e 6371 61be 3042 f3bc
00000150: 47ae 32be 89e7 48bd 119b 423e bcd7 1cbe
00000160: da04 3c3c dd06 303e 41c6 c5bd 0f12 713d
00000170: 2022 2f3e f3fb 4ebd 67f7 2bbe 9267 a13c
00000180: 9f06 84bd 33a1 49be c021 753e d2e2 fe3d
00000190: 40cd 0f3e f5f1 b33d 803f 07bd 99ef ad3d
000001a0: 9beb 043d b726 3e3d a180 98b9 af09 20be
000001b0: 8d9b b4bd 771d e83a f392 68be 67db 2a3e
000001c0: c104 37be 6724 aabd fd79 63bc c27f 303d
000001d0: d1a3 043e e3ce 553e 281d 9fbd 1991 efbc
000001e0: ec0f b33d 15a5 183c eb7b 553e b767 31be
000001f0: 94e9 e73d c464 f5bd b668 f33d b418 233e
00000200: 341f adbd fad2 e5bc 3ef9 343d b125 30bd
00000210: 56ff af3d 088d 5bbe a601 48be 6117 9cbd
00000220: e39d 683e b6dd a93d 7714 483e daeb 22be
00000230: ed28 e33d 42e4 47be e06c 773c c471 6fbd
00000240: d071 e53d 1966 b2bd df2d 603e 148a 3cbc
00000250: cefe 683d abce 86bd bd70 ef3d c508 c7bc
00000260: 748a 033e 3b97 1fbe f194 933d f7b8 3ebd
00000270: 49da 2cbd eced 063e a349 5abe af36 8abd
00000280: fd72 c3bd 8746 5bbe 4e07 2abe b98a 29be
00000290: fb54 743c 9e3e 90bd 4d05 afbd ea89 f53d
000002a0: 3f12 223e 811d 593e 1c1e 20bc bf54 433e
000002b0: 4cdc 22bd 0fc3 e0bc c8f8 27bd e3ad 533d
000002c0: 31b1 1cbe 7723 4a3e b488 453d 8395 7b3c
000002d0: 32bb 8ebd cf6e 30be dcd0 b33d d867 a33d
000002e0: 777d 34be 76e1 24be a346 1ebe 5e95 3b3e
000002f0: ba4c 353e 6241 1e3e 7a4f b5bd 94dc 2bbe
00000300: 4acd 57bd 7e39 f13c ee00 3dbe 0bc4 833d
00000310: 66e9 9fbd 5614 123d 0afc 293d fc77 393e
00000320: c195 d63c 5a64 11be bc8b 47be 4cf0 213e
00000330: 2e03 39be 6d2c 87bd 6906 6d3b 4777 243e
00000340: ed39 2bbb c6cd 62be eb57 febd 8075 613e
00000350: b2e2 c2bc 8801 4a3e 86db 2cbc b856 bc3d
00000360: 2440 90bc 05f1 dabd 8077 c73d 46c5 4cbe
00000370: abd9 573e 510b 123e 4e08 533e 79bd 453d
00000380: 35f5 40be 6281 983d d8a3 ab3d 7a47 9b3c
00000390: 5e4b 6f3e f30d 1e3d bf4c 16be c1e2 273e
000003a0: a397 2e3c 2566 91bd b656 6a3e 3f96 0e3e
000003b0: a1f3 5b3e ec5e 3c3e 4efc e03d 0811 d93d
000003c0: 9075 4d3e d252 f23d 7feb 4e3e 8ada 23bd
000003d0: 03f0 113e 771a 3b3e 1682 4ebe 1185 143e
000003e0: 7a38 98bd 9413 da3d b1ec e7bd 15d5 3f3e
000003f0: da59 613d c7c5 bebd 612a 393b 8485 3e3e

actor.0.bias f4 [128]
-0.046838973 -0.010629828 0.17928274 -0.20448858 0.17022789 0.026658846 -0.16466267 -0.17617989
0.21610945 -0.22567572 0.20341769 0.15120232 0.02262763 -0.21791676 0.21336502 -0.15989995
-0.084459215 -0.04239155 -0.13124779 -0.17139877 0.20141464 0.01000582 0.08752121 -0.17219831
-0.17198329 -0.047419958 -0.18916091 0.106882654 0.009250972 -0.07396119 0.19667353 -0.01114045
0.035865474 0.2042994 0.12829816 -0.07033539 -0.19210616 0.13201481 -0.13220486 -0.11741263
0.17747189 -0.2068407 -0.23649701 -0.12173202 -0.07721098 0.08680259 -0.22170849 0.23242697
-0.035079185 -0.009443924 0.1785894 -0.16476303 -0.16307372 0.11345824 0.14550626 -0.058866967
-0.14811811 -0.11222386 -0.2140247 -0.13497768 6.222843e-06 0.028648017 0.05509931 0.077896915
-0.07395774 0.11638219 0.024377415 0.016370079 0.04648574 -0.13400592 0.1930697 -0.13504045
0.060006812 -0.21031205 -0.09161506 0.0013267207 0.14966969 0.044306017 0.17911908 0.06989898
-0.13680176 -0.14678259 0.012664495 0.124206595 0.18971229 0.096293375 0.23319145 -0.20551409
-0.11362126 0.06138514 -0.011201195 -0.17200413 0.17492193 0.16240956 0.23129539 -0.0855687
0.106721945 -0.012882855 -0.1483104 0.123701 -0.15488242 0.076788254 -0.100076385 0.20824753
0.21507007 -0.11759666 0.020570388 -0.14326508 -0.10269998 -0.22586875 0.18529783 -0.0629372
0.15137629 -0.05732624 -0.20777662 0.20715813 0.11922289 -0.12438829 0.1765196 0.11482067
-0.095751084 -0.17589922 0.17773396 -0.053037778 0.20447443 0.15856895 0.16857077 -0.12722047
00000000: 39da 3fbd bb28 2ebc e595 373e 7465 51be
00000010: 3850 2e3e a763 da3c 559d 28be 8068 34be
00000020: cc4b 5d3e 8917 67be ba4c 503e c8d4 1a3e
00000030: 945d b93c 9225 5fbe 5c7c 5a3e d0bc 23be
00000040: f4f8 acbd c3a2 2dbd d265 06be 2983 2fbe
00000050: a43f 4e3e 73ef 233c 523e b33d c154 30be
00000060: 631c 30be 6e3b 42bd 66b3 41be 4be5 da3d
00000070: 6491 173c f778 97bd c964 493e 6f86 36bc
00000080: ade7 123d dd33 513e 9860 033e 000c 90bd
00000090: 7ab7 44be e42e 073e b660 07be 0876 f0bd
000000a0: 31bb 353e 0cce 53be 462c 72be a34e f9bd
000000b0: ca20 9ebd 8ec5 b13d 8d07 63be 5601 6e3e
000000c0: 31af 0fbd b0ba 1abc 24e0 363e a4b7 28be
000000d0: ccfc 26be cb5c e83d 98ff 143e 7d1e 71bd
000000e0: 46ac 17be a0d5 e5bd 4a29 5bbe 9737 0abe
000000f0: d0cd d036 3faf ea3c d0af 613d 6b88 9f3d
00000100: 2877 97bd c959 ee3d 25b3 c73c 8b1a 863c
00000110: d567 3e3d d938 09be 10b4 453e 0b48 0abe
00000120: b4c9 753d 0b5c 57be ada0 bbbd 5ce5 ad3a
00000130: 0343 193e 3a7a 353d fe6a 373e 3227 8f3d
00000140: c315 0cbe 2d4e 16be be7e 4f3c 0760 fe3d
00000150: f043 423e 7635 c53d bdc9 6e3e 4972 52be
00000160: 43b2 e8bd fc6e 7b3d 3885 37bc da21 30be
00000170: bc1e 333e b14e 263e b3d8 6c3e a53e afbd
00000180: 0991 da3d 9c12 53bc aede 17be f356 fd3d
00000190: 7f99 1ebe 2943 9d3d d9f4 ccbd d73e 553e
000001a0: 543b 5c3e 85d6 f0bd 3b83 a83c 15b4 12be
000001b0: 5e54 d2bd 234a 67be b7be 3d3e 38e5 80bd
000001c0: 6302 1b3e ebce 6abd 65c3 54be 4321 543e
000001d0: 212b f43d 4abf febd 8ec1 343e 1927 eb3d
000001e0: 2519 c4bd ed1e 34be e4ff 353e 243e 59bd
000001f0: bf61 513e e65f 223e d19d 2c3e 1546 02be

actor.2.weight f4 [64, 128]
0.043519355 -0.012906911 0.07146172 0.08417193 -0.055443507 -0.057415474 -0.049820255 0.08355759
0.049164653 0.0025606635 0.008082904 0.033141736 -0.058397174 0.0040024836 0.03267759 -0.08745663
0.026401186 -0.07027669 0.07964857 0.05156927 -0.019649439 -0.0005258412 0.076205194 0.073916115
0.006758279 0.0045608496 0.0066614035 0.03437464 -0.08245978 -0.072392344 0.09119817 -0.028549116
-0.034269366 -0.026190089 0.083272696 0.002368033 0.010223223 0.07642538 -0.061382186 -0.08725496
0.028304128 -0.08805764 0.07214035 0.059785668 0.026863415 0.016782483 -0.07300146 0.03768061
-0.09262825 -0.01626818 0.0823256 0.005608419 0.05002193 -0.015849952 0.05459294 -0.046642773
0.014612639 -0.037370287 -0.049627457 0.064757235 -0.076944016 0.026346426 -0.031742312 0.036742073
-0.049353216 0.012050079 0.053190112 0.0066287303 -0.01908522 -0.048404586 -0.02897301 0.04841048
-0.042724803 -0.08954275 0.032362387 0.0029445398 -0.044350702 -0.02521149 0.027445987 0.043425966
-0.03273951 -0.018235344 0.0082715405 0.03765445 -0.028031303 0.0049940334 -0.034528043 0.020948289
-0.035462946 0.064146385 -0.054980073 0.06356765 -0.081158 -0.06744141 0.02997338 0.06439823
0.048774313 0.071629666 -0.06862719 0.049523126 0.001085947 -0.08611661 -0.032043397 0.048537403
-0.049260918 -0.024705337 0.08368486 0.02117878 -0.023966538 -0.05483758 -0.040057287 0.057573818
0.06657567 -0.04104725 -0.050768573 -0.010886667 0.07676271 0.01992983 -0.0244538 0.08634253
0.011870835 -0.045490842 0.05862459 0.06751984 0.05151973 0.015944194 -0.082142405 0.038626388
-0.03288652 0.022346415 0.085127234 0.0045894114 -0.016141767 -0.06769661 -0.03825486 -0.035130765
0.08903985 -0.026893089 0.04216169 0.05443698 -0.05008626 0.06651071 0.005372574 -0.019139059
0.04361444 0.039876193 -0.08978393 0.029352691 0.010850019 0.05981339 -0.03539252 0.056347094
0.0058577843 -0.00291534 0.0029699984 0.04081954 0.054132085 0.056110807 -0.014231318 -0.032750834
-0.0687008 -0.03212604 -0.060375854 -0.06141613 -0.072956435 0.026933823 -0.04753404 0.067103095
0.07931216 0.038417615 0.060247354 -0.06905781 0.048466727 -0.034586396 -0.027245974 0.0016734678
0.0038654513 0.06369477 -0.07694458 -0.0636312 0.066339724 -0.061057124 0.05933728 0.07600962
-0.031168306 -0.035413235 0.0020374432 0.041409973 0.066580154 0.08601149 -0.027580557 0.060738485
-0.06950836 -0.015567304 0.045576446 0.07500279 -0.079742886 -0.081360646 -0.0001226444 0.0146393925
0.07983712 -0.07502306 0.03379288 0.05949829 0.052475397 0.04914163 0.05446747 0.08520876
0.011966245 -0.06179647 0.058541104 -0.05086705 -0.08112227 0.06545034 -0.007145676 0.02898669
0.081870645 0.047409754 0.08342653 -0.08547302 0.012813065 0.07882865 -0.062365577 -1.9029518e-05
0.034564424 0.07233623 -0.017943472 0.016156387 -0.020541443 0.08132836 -0.046468217 -0.029713836
0.074145615 -0.08658528 0.056660354 -0.025221258 0.04667473 0.075235024 0.0272026 -0.076741256
-0.049478766 0.06923268 -0.038126364 -0.06821184 0.07388906 0.082976565 0.026417788 0.043538686
-0.00074648997 0.018294862 -0.053526193 -0.032036476 -0.023477582 0.07696813 -0.008319161 0.0007484633
00000000: 5a41 323d 8277 53bc 865a 923d 5562 ac3d
00000010: bb18 63bd 7d2c 6bbd 5310 4cbd 3e20 ab3d
00000020: e060 493d ced0 273b 286e 043c a1bf 073d
00000030: e031 6fbd 4427 833b f0d8 053d 761c b3bd
00000040: 4d47 d83c 3aed 8fbd ca1e a33d 4d3a 533d
00000050: dcf7 a0bc 9bd8 09ba 7811 9c3d 5561 973d
00000060: 8e74 dd3b 2e73 953b e747 da3b 6ccc 0c3d
00000070: ace0 a8bd 7042 94bd 1bc6 ba3d d6df e9bc
00000080: 095e 0cbd 998c d6bc e08a aa3d 0031 1b3b
00000090: 4e7f 273c e984 9c3d e36b 7bbd bab2 b2bd
000000a0: 0fde e73c 9057 b4bd 52be 933d d1e1 743d
000000b0: aa10 dc3c 6b7b 893c ca81 95bd fc56 1a3d
000000c0: e1b3 bdbd d944 85bc 539a a83d d4c6 b73b
000000d0: cce3 4c3d c2d7 81bc d99c 5f3d 7e0c 3fbd
000000e0: da69 6f3c 9611 19bd 2946 4bbd 719f 843d
000000f0: d394 9dbd 76d4 d73c 3a04 02bd db7e 163d
00000100: 9926 4abd b26d 453c e0dd 593d d235 d93b
00000110: 9b58 9cbc e343 46bd ce58 edbc 114a 463d
00000120: 3400 2fbd 3062 b7bd 6c8e 043d 2ef9 403b
00000130: 15a9 35bd 5488 cebc 68d6 e03c 6ddf 313d
00000140: dd19 06bd 4a62 95bc 5b85 073c 8d3b 1a3d
00000150: e7a1 e5bc fda4 a33b 476d 0dbd bf9b ab3c
00000160: 9841 11bd 2e5f 833d c932 61bd c22f 823d
00000170: 2a36 a6bd b91e 8abd bc8a f53c 38e3 833d
00000180: 93c7 473d 93b2 923d 6a8c 8cbd c3d8 4a3d
00000190: 5656 8e3a e85d b0bd f03f 03bd 28cf 463d
000001a0: d1c5 49bd d962 cabc f862 ab3d 1f7f ad3c
000001b0: 7955 c4bc 5f9d 60bd 1c13 24bd 86d2 6b3d
000001c0: d358 883d 2921 28bd b5f2 4fbd fe5d 32bc
000001d0: c535 9d3d e243 a33c 5653 c8bc 5ad4 b03d
000001e0: e47d 423c 9b54 3abd 5720 703d d847 8a3d
000001f0: 5a06 533d 669d 823c 473a a8bd b436 1e3d
00000200: 04b4 06bd d40f b73c 3057 ae3d c662 963b
00000210: bd3b 84bc 85a4 8abd 21b1 1cbd 47e5 0fbd
00000220: 865a b63d e54e dcbc bcb1 2c3d 50f9 5e3d
00000230: 4027 4dbd c436 883d 6b0c b03b 84c9 9cbc
00000240: 0ea5 323d 3855 233d a3e0 b7bd 0e75 f03c
00000250: 47c4 313c e3fe 743d bff7 10bd 36cc 663d
00000260: a8f2 bf3b 4a0f 3fbb 4ea4 423b 6432 273d
00000270: 9bb9 5d3d 72d4 653d 792a 69bc bd25 06bd
00000280: 01b3 8cbd 9896 03bd ac4c 77bd 7b8f 7bbd
00000290: 2f6a 95bd 52a4 dc3c 0eb3 42bd 596d 893d
000002a0: 6a6e a23d ca5b 1d3d eec5 763d 2e6e 8dbd
000002b0: 0c85 463d 77aa 0dbd f332 dfbc 4358 db3a
000002c0: 8353 7d3b 6772 823d 1f95 9dbd 1351 82bd
000002d0: 1fdd 873d 0917 7abd a60b 733d efaa 9b3d
000002e0: ad54 ffbc 780d 11bd a086 053b 819d 293d
000002f0: 2d5b 883d cb26 b03d 9ff0 e1bc ebc8 783d
00000300: 665a 8ebd 010e 7fbc 5eae 3a3d 109b 993d
00000310: 3d50 a3bd 69a0 a6bd 1b9a 00b9 10da 6f3c
00000320: a581 a33d b1a5 99bd 676a 0a3d 7bb4 733d
00000330: 71f0 563d bc48 493d 4819 5f3d ee81 ae3d
00000340: 120e 443c 4c1e 7dbd ccc8 6f3d f859 50bd
00000350: 6f23 a6bd d40a 863d 4626 eabb 7f75 ed3c
00000360: ccab a73d bb30 423d 87db aa3d 7b0c afbd
00000370: e4ed 513c ea70 a13d 0c73 7fbd 94a1 9fb7
00000380: 6d93 0d3d 0425 943d 30fe 92bc 665a 843c
00000390: 8746 a8bc 7c8f a63d 7555 3ebd 6e6a f3bc
000003a0: a8d9 973d a053 b1bd b014 683d d09c cebc
000003b0: 002e 3f3d d214 9a3d fdd7 de3c 852a 9dbd
000003c0: 3faa 4abd ddc9 8d3d 642a 1cbd a6b2 8bbd
000003d0: 2653 973d 9eef a93d 1e6a d83c 9f55 323d
000003e0: 18b0 43ba 1bdf 953c 483e 5bbd ae38 03bd
000003f0: 0f54 c0bc 78a1 9d3d 174d 08bc 8634 443a

actor.2.bias f4 [64]
0.07741908 0.07184848 -0.038519286 0.0768206 -0.010522631 0.055001583 0.040648066 0.012786209
0.07343208 -0.034894716 0.045788344 0.009583426 -0.03277238 0.055053253 -0.029916305 0.0010058532
0.042091716 -0.034250528 0.045510236 -0.01579669 0.06604565 -0.03855265 -0.06682883 -0.052781064
0.072446644 0.07567956 -0.010236636 -0.0064867693 0.07925276 0.009599676 0.022215547 -0.062439986
0.029480027 -0.029003644 0.024127556 -0.08060423 -0.080936044 -0.011045762 -0.053585332 -0.052432697
-0.052854642 0.07741439 -0.037294365 0.084717646 -0.004031183 -0.054871712 0.052309085 -0.00028570576
-0.06019667 0.024523295 0.07943192 -0.009315385 0.008075183 0.06548667 0.043994095 -0.036496513
-0.037617933 -0.037528846 0.055797257 -0.05338895 -0.004859778 0.080128446 0.08036855 0.038624577
00000000: e58d 9e3d 4c25 933d 66c6 1dbd 1e54 9d3d
00000010: 1d67 2cbc 5749 613d 967e 263d 3f7d 513c
00000020: 8f63 963d c3ed 0ebd 8f8c 3b3d cd03 1d3c
00000030: 553c 06bd 857f 613d 0a13 f5bc d5d6 833a
00000040: 5d68 2c3d 484a 0cbd f168 3a3d 0f68 81bc
00000050: f142 873d 62e9 1dbd 8edd 88bd f530 58bd
00000060: e85e 943d e3fd 9a3d 90b7 27bc f78e d4bb
00000070: 454f a23d f647 1d3c 61fd b53c 12c1 7fbd
00000080: 1980 f13c 0d99 edbc 27a7 c53c d513 a5bd
00000090: ccc1 a5bd 49f9 34bc 4b7c 5bbd abc3 56bd
000000a0: 1c7e 58bd 708b 9e3d fac1 18bd 7280 ad3d
000000b0: 0418 84bb 29c1 60bd 0d42 563d c7ca 95b9
000000c0: c990 76bd 14e5 c83c 34ad a23d 8e9f 18bc
000000d0: c64d 043c e01d 863d 2733 343d 5e7d 15bd
000000e0: 4315 1abd d9b7 19bd aa8b 643d 5fae 5abd
000000f0: c63e 9fbb 621a a43d 4498 a43d ce34 1e3d

actor.4.weight f4 [6, 64]
-0.11945049 0.030552302 0.020178482 -0.00014243145 0.09989983 -0.018163268 0.09725857 -0.08304403
0.016046947 0.04567577 0.10717172 0.030164426 0.082102366 -0.06015296 -0.02740691 -0.007116449
-0.058716763 0.016432896 -0.093084484 -0.071934946 -0.015054644 -0.10173605 0.11670018 -0.088473335
0.11794515 -0.031708185 -0.091110416 -0.098017715 0.03345202 -0.097494476 0.028499534 -0.08008537
-0.108723894 -0.04872958 -0.10575482 0.058614556 0.020737225 0.040512897 -0.001700108 -0.02106257
-0.08882983 0.048035312 -0.026923973 0.02694329 -0.020375902 -0.09806615 -0.12347315 0.09126429
-0.032436218 -0.11553895 -0.084574595 -0.049335666 -0.074559145 0.08973999 0.08814617 0.055167794
0.02580622 -0.021070138 0.024031898 0.0104153715 0.11900871 -0.04687168 -0.12437232 0.024292795
0.08880337 -0.09956377 0.045337383 0.1205076 0.042496037 -0.106403194 -0.026423385 0.021748303
-0.0011858286 0.07896645 0.08417644 -0.10425133 -0.062708065 -0.08803101 -0.058879934 0.05382575
0.0496509 -0.070691735 0.0005508144 0.018704565 0.033230778 -0.10564752 -0.057709336 -0.10248278
-0.12285009 0.09787777 0.100060254 -0.04558814 -0.108170494 0.09431986 -0.023011966 -0.11905937
-0.06555319 -0.038450427 -0.010868151 0.052930217 0.12647505 0.076346725 -0.033964828 -0.0068615745
0.028822504 -0.07664758 0.090579905 0.003171111 0.03128672 0.0030231911 0.032142904 0.10340196
0.06902093 -0.0086542675 0.11671342 -0.10772224 0.00964259 0.06584335 0.109268285 -0.05973097
0.05391285 0.1035903 0.12671138 -0.1152791 0.0976696 -0.10556991 0.081843875 0.0019765901
-0.11851716 -0.07076133 0.059537657 -0.09823716 0.09095505 0.06578488 -0.09406256 -0.0007896956
0.07404158 -0.102884606 0.03407632 -0.111049585 -0.015187542 0.06694995 -0.022745488 0.11549046
-0.034352735 -0.07125199 -0.03154951 0.06892702 0.032796994 -0.016755996 0.023493687 -0.09331263
-0.05584519 0.098877236 0.011769459 -0.07274875 -0.04773657 0.061537083 0.06816624 0.07845976
0.045026295 0.038296156 0.079603165 0.124383464 -0.0032403334 -0.0874259 0.04719632 -0.11432081
-0.1134194 0.030018535 -0.030647244 0.07800442 0.00068973965 0.053420886 0.07357791 -0.09714313
0.07738368 -0.11442376 0.09042391 0.11643592 0.11570407 0.10123746 0.024953311 -0.033603143
0.078814305 -0.05632068 -0.013443524 -0.11896726 -0.01656572 0.018340772 0.09012204 -0.028434604
-0.004536804 0.0069325906 0.11902048 -0.048986983 -0.062020827 0.10664312 -0.015341407 0.09968203
-0.051817268 -0.015980538 -0.039419938 0.0817457 0.11312339 -0.117942445 0.066141054 -0.016324883
-0.025795981 -0.0010659418 0.094437785 0.021971546 0.030975902 0.07213356 -0.101949595 0.0012420389
0.10603386 -0.09431084 -0.026857616 0.12360557 -0.052667566 0.02839673 -0.003056282 0.11661258
0.060871877 0.06918074 0.06028805 0.10878595 0.039528526 -0.08605868 0.06853274 -0.07533017
-0.08190267 -0.022509975 0.033472892 -0.10019428 -0.032417968 0.015659444 0.06299824 0.0338251
0.00031090365 -0.045764875 0.021240707 0.05093313 0.08635845 0.030149395 -0.02883768 -0.0714883
0.058714677 -0.0067333137 -0.10948853 0.120780416 -0.023060104 0.122246586 0.11482103 0.052568343
00000000: 75a2 f4bd d248 fa3c 584d a53c a759 15b9
00000010: 4898 cc3d 22cb 94bc 802f c73d fd12 aabd
00000020: e374 833c 8416 3b3d d97c db3d 631b f73c
00000030: 4925 a83d f362 76bd 7584 e0bc 1a31 e9bb
00000040: fd80 70bd 489e 863c 14a3 bebd a152 93bd
00000050: c1a7 76bc fd5a d0bd 8100 ef3d 8231 b5bd
00000060: 3a8d f13d 71e0 01bd 1998 babd 83bd c8bd
00000070: fc04 093d 2fab c7bd db77 e93c cc03 a4bd
00000080: a2aa debd ab98 47bd fc95 d8bd d115 703d
00000090: 1de1 a93c daf0 253d 29d6 deba 698b acbc
000000a0: 6aec b5bd adc0 443d aa8f dcbc 2db8 dc3c
000000b0: 5deb a6bc e8d6 c8bd 7edf fcbd c6e8 ba3d
000000c0: d7db 04bd af9f ecbd 7235 adbd 3214 4abd
000000d0: 77b2 98bd 9ac9 b73d fb85 b43d a0f7 613d
000000e0: 9167 d33c 489b acbc 8bde c43c 3ca5 2a3c
000000f0: d7ba f33d 85fc 3fbd eab6 febd af01 c73c
00000100: 8bde b53d 17e8 cbbd b1b3 393d b0cc f63d
00000110: 5310 2e3d ebe9 d9bd db75 d8bc 7f29 b23c
00000120: ce6d 9bba 2ab9 a13d b364 ac3d b981 d5bd
00000130: 166d 80bd 9a49 b4bd 162c 71bd 6478 5c3d
00000140: be5e 4b3d d4c6 90bd 8764 103a 513a 993c
00000150: ff1c 083d ba5d d8bd a060 6cbd 7ee2 d1bd
00000160: d498 fbbd 2474 c83d 64ec cc3d a1ba 3abd
00000170: 7e88 ddbd c52a c13d 9783 bcbc 66d5 f3bd
00000180: c040 86bd 327e 1dbd 5410 32bc 5bcd 583d
00000190: ad82 013e ac5b 9c3d b41e 0bbd 0fd7 e0bb
000001a0: 2c1d ec3c 68f9 9cbd f581 b93d 6ad2 4f3b
000001b0: 8126 003d bb20 463b 47a8 033d 68c4 d33d
000001c0: d85a 8d3d a1ca 0dbc 7207 ef3d 7a9d dcbd
000001d0: f4fb 1d3c e1d8 863d 0dc8 df3d 76a8 74bd
000001e0: b8d3 5c3d 2727 d43d a1c0 013e 7317 ecbd
000001f0: 0007 c83d 0935 d8bd c39d a73d ae89 013b
00000200: 20b9 f2bd 51eb 90bd c2dd 733d 9030 c9bd
00000210: a446 ba3d 39ba 863d dfa3 c0bd 9303 4fba
00000220: 1da3 973d 2ab5 d2bd 9c93 0b3d f76d e3bd
00000230: 2bd5 78bc 0e1d 893d bf54 babc 4386 ec3d
00000240: 74b5 0cbd 90ec 91bd 0f3a 01bd 9c29 8d3d
00000250: 2456 063d df43 89bc d575 c03c b11a bfbd
00000260: edbd 64bd 2680 ca3d b0d4 403c 4cfd 94bd
00000270: 6c87 43bd 4f0e 7c3d be9a 8b3d 83af a03d
00000280: 7e6d 383d 6edc 1c3d fc06 a33d c2bc fe3d
00000290: c65b 54bb 5a0c b3bd ee50 413d 0721 eabd
000002a0: 6e48 e8bd 6ee9 f53c ee0f fbbc c8c0 9f3d
000002b0: a5cf 343a dccf 5a3d 04b0 963d faf2 c6bd
000002c0: 567b 9e3d 0157 eabd 2c30 b93d f575 ee3d
000002d0: 41f6 ec3d 9655 cf3d e36a cc3c 73a3 09bd
000002e0: 6569 a13d 83b0 66bd 3a42 5cbc 1ba5 f3bd
000002f0: d5b4 87bc 633f 963c e791 b83d b0ef e8bc
00000300: 78a9 94bb c92a e33b 02c1 f33d 93a6 48bd
00000310: 8d09 7ebd b567 da3d 865a 7bbc 1826 cc3d
00000320: 583e 54bd 9ee9 82bc cd76 21bd 4a6a a73d
00000330: 3cad e73d cf8b f1bd f674 873d c3bb 85bc
00000340: 1852 d3bc 12b7 8bba 9968 c13d acfd b33c
00000350: 2dc1 fd3c c3ba 933d f3ca d0bd e9cb a23a
00000360: 4828 d93d 0b26 c1bd 8104 dcbc eb24 fd3d
00000370: f2b9 57bd 42a0 e83c e74b 48bb 94d2 ee3d
00000380: ca54 793d a2ae 8d3d 9af0 763d 2bcb de3d
00000390: aae8 213d 893f b0bd e55a 8c3d b446 9abd
000003a0: 96bc a7bd d766 b8bc df1a 093d a932 cdbd
000003b0: b4c8 04bd 3c48 803c 3905 813d 308c 0a3d
000003c0: c800 a339 f373 3bbd fe00 ae3c 429f 503d
000003d0: b3dc b03d ddfb f63c 003d ecbc 7568 92bd
000003e0: cd7e 703d 21a3 dcbb 863b e0bd b95b f73d
000003f0: 8be8 bcbc 6b5c fa3d 4a27 eb3d e751 573d

actor.4.bias f4 [6]
-0.04996316 0.07611556 -0.09783938 -0.0088207675 -0.10203068 -0.0139683075
00000000: 2ca6 4cbd 7ae2 9b3d 0360 c8bd fb84 10bc
00000010: 76f5 d0bd 54db 64bc

critic.0.weight f4 [128, 18]
-0.23947962 -0.22830784 -0.19849713 -0.16726983 -0.09005116 0.20178702 0.09381547 0.08594051
0.20030655 -0.02269266 0.029873928 -0.114544064 -0.07177818 0.17097095 0.10436135 -0.18412611
0.20229639 -0.14491048 -0.1314645 -0.02902967 0.060804456 -0.0021288912 0.18768588 0.1602112
0.019779945 -0.22766148 -0.15492871 0.110506296 -0.17302021 -0.052551135 0.0061582485 -0.16350389
-0.2256645 0.1976559 -0.05055674 0.05504752 0.014799383 -0.08379296 0.04589842 0.21735346
-0.030642772 0.17865357 -0.21350068 -0.13267927 0.13211308 -0.012289111 -0.061331112 0.091795795
0.005875552 -0.031069066 0.020369405 -0.06929613 -0.062156696 -0.06505908 -0.19144742 -0.192387
0.22233176 0.16878997 -0.10486662 -0.048840635 -0.09262685 -0.08196192 -0.16439377 0.065454684
-0.041380107 0.22954318 0.1302725 -0.23330234 -0.041200746 -0.14520743 -0.12997761 0.1349139
0.125317 -0.133379 0.011194169 0.14066738 -0.09812758 -0.120229654 -0.22058202 0.044295162
0.13531765 -0.15780972 0.085915275 -0.18036944 -0.061181027 0.10953095 0.08438684 -0.16739784
-0.13557985 0.1299988 0.01683654 0.018249959 0.024586692 0.027099367 -0.009959014 0.21804985
0.042067915 0.108937085 -0.071570635 -0.23615953 0.21522237 0.22540379 0.1872932 0.07410395
-0.0796962 -0.21560961 -0.0842132 -0.18296963 0.15355855 0.12867753 0.13599409 -0.13283932
0.009158387 0.10030596 0.052602276 -0.14477675 0.17620744 0.18821913 0.13752203 0.027215343
-0.1435494 0.11376423 0.17434491 0.19236569 0.063406885 0.043213975 -0.09554185 -0.075935714
0.040723044 -0.21192388 -0.08717207 -0.108794555 0.15365234 -0.112876184 -0.08257688 0.12812996
-0.076479726 -0.21163116 -0.103373595 -0.01575061 0.18055959 -0.2134068 0.1434934 -0.067279756
0.11913968 0.1347568 0.08071809 0.22715698 -0.0065895985 -0.13449664 0.02502199 0.1423235
0.15438919 0.16310991 -0.075332485 0.029490465 0.019699333 0.21875364 -0.14453416 -0.1162191
0.040745046 -0.21723409 0.1647157 0.1861865 -0.21121815 0.12074287 0.05362479 -0.14792742
0.10938283 0.16771308 -0.044994716 -0.090030715 -0.04084766 -0.19209099 0.18954296 -0.0068827257
0.14528953 0.08933236 0.081963055 0.22575481 -0.106895626 -0.06747613 0.07954288 -0.14655139
0.13336398 0.12115807 -0.16555242 -0.045990158 -0.076009065 0.16134968 0.22514695 -0.094772905
-0.17846261 -0.13444947 0.1116023 -0.09548303 0.000616116 -0.21134822 -0.0910747 -0.14074112
-0.15258612 -0.017582405 -0.058070414 -0.20624556 0.13251248 -0.22897844 -0.1967839 -0.0967472
-0.065013245 0.11682252 0.17207524 0.097235784 0.1231719 0.028813543 0.016157907 0.2112614
-0.0047686296 0.22653969 0.09199971 0.1379395 0.14438443 -0.21110766 0.03412707 0.029012833
0.09168875 -0.023699021 -0.021580575 -0.033661544 -0.17290768 0.2201736 0.032708578 0.12872073
0.09637087 0.20956632 0.047947813 -0.16646044 -0.03818503 0.056068808 -0.06999438 -0.024698472
0.19516692 0.04221097 -0.035635337 0.19452932 0.1468533 0.24221088 -0.072497234 -0.20813027
-0.16047044 0.06850198 -0.16300173 -0.102375545 0.20228232 -0.21883872 -0.09804225 -0.11515097
00000000: 253a 75be 88c9 69be d542 4bbe c848 2bbe
00000010: be6c b8bd 42a1 4e3e 5322 c03d 9401 b03d
00000020: 291d 4d3e f5e5 b9bc 2bba f43c 1496 eabd
00000030: 7000 93bd 0213 2f3e 67bb d53d 8e8b 3cbe
00000040: c926 4f3e 6a63 14be a19e 06be a1cf edbc
00000050: 180e 793d de84 0bbb ba30 403e 680e 243e
00000060: 8d09 a23c 1720 69be a2a5 1ebe 2051 e23d
00000070: 362c 31be dc3f 57bd 22cb c93b 906d 27be
00000080: 9814 67be 4f66 4a3e 9614 4fbd 8279 613d
00000090: 1c79 723c a59b abbd fbff 3b3d e891 5e3e
000000a0: 8d06 fbbc f6f0 363e ec9f 5abe 13dd 07be
000000b0: a748 073e 4458 49bc 5536 7bbd 6fff bb3d
000000c0: b487 c03b 8e84 febc bddd a63c 21eb 8dbd
000000d0: 0598 7ebd b23d 85bd cb0a 44be 1901 45be
000000e0: f0aa 633e 47d7 2c3e 4fc4 d6bd 1e0d 48bd
000000f0: 25b3 bdbd a7db a7bd d756 28be 1b0d 863d
00000100: 307e 29bd 5e0d 6b3e 2766 053e cfe6 6ebe
00000110: 1dc2 28bd 42b1 14be da18 05be df26 0a3e
00000120: 1a53 003e 8194 08be bf67 373c 1c0b 103e
00000130: 1df7 c8bd f73a f6bd 41e0 61be d86e 353d
00000140: b690 0a3e df98 21be 59f4 af3d c4b2 38be
00000150: f598 7abd c351 e03d 02d3 ac3d 576a 2bbe
00000160: 72d5 0abe 681e 053e c9ec 893c f080 953c
00000170: 086a c93c 7eff dd3c 222b 23bc 7648 5f3e
00000180: 684f 2c3d 681a df3d a093 92bd ced3 71be
00000190: 4163 5c3e 40d0 663e cac9 3f3e d0c3 973d
000001a0: c337 a3bd c4c8 5cbe f877 acbd 645c 3bbe
000001b0: 743e 1d3e 0bc4 033e 0942 0b3e 0807 08be
000001c0: 0f0d 163c 366d cd3d 7c75 573d 5b40 14be
000001d0: b96f 343e 84bc 403e 93d2 0c3e b6f2 de3c
000001e0: 9dfe 12be 38fd e83d 7987 323e 83fb 443e
000001f0: 78db 813d 2301 313d 72ab c3bd 2f84 9bbd
00000200: 35cd 263d 9302 59be 4587 b2bd aecf debd
00000210: 0a57 1d3e a12b e7bd 111e a9bd 8034 033e
00000220: 67a1 9cbd d7b5 58be 89b5 d3bd 6c07 81bc
00000230: 9de4 383e 5087 5abe efef 123e f8c9 89bd
00000240: 81ff f33d b0fd 093e 874f a53d d79b 683e
00000250: 8fed d7bb 7db9 09be ebfa cc3c 40bd 113e
00000260: 3318 1e3e 4906 273e eb47 9abd fd95 f13c
00000270: 7f60 a13c f400 603e c300 14be 4804 eebd
00000280: 47e4 263d 9d72 5ebe 3cab 283e ada7 3e3e
00000290: 9249 58be 0a48 f73d aba5 5b3d 497a 17be
000002a0: 1b04 e03d fabc 2b3e 614c 38bd 0662 b8bd
000002b0: e04f 27bd 80b3 44be 8d17 423e 7d88 e1bb
000002c0: c7c6 143e e2f3 b63d 3fdc a73d 452c 673e
000002d0: 18ec dabd ed30 8abd 61e7 a23d 9111 16be
000002e0: 9190 083e b921 f83d 9386 29be 2d60 3cbd
000002f0: a4aa 9bbd da38 253e ec8c 663e 4c18 c2bd
00000300: e7be 36be 1fad 09be bf8f e43d 9b8c c3bd
00000310: d882 213a ab6b 58be 5f85 babd 711e 10be
00000320: 893f 1cbe fa08 90bc 3edb 6dbd 0932 53be
00000330: 5ab1 073e 5379 6abe b881 49be 6523 c6bd
00000340: aa25 85bd a540 ef3d 7e34 303e 8e23 c73d
00000350: 8d41 fc3d 610a ec3c 965d 843c e954 583e
00000360: 2a42 9cbb 05fa 673e 586a bc3d 0340 0d3e
00000370: 83d9 133e 9b2c 58be d4c8 0b3d 52ac ed3c
00000380: 50c7 bb3d 7324 c2bc bfc9 b0bc b0e0 09bd
00000390: b60e 31be 3075 613e 6ef9 053d 5ecf 033e
000003a0: 175e c53d 8e98 563e ed64 443d 9b74 2abe
000003b0: e867 1cbd 68a8 653d 3759 8fbd 7354 cabc
000003c0: d6d9 473e 69e5 2c3d 5cf6 11bd b232 473e
000003d0: b660 163e 2106 783e 6e79 94bd 1a20 55be
000003e0: 5d52 24be c44a 8c3d ede9 26be 45aa d1bd
000003f0: 1923 4f3e 4217 60be 60ca c8bd 46d4 ebbd

critic.0.bias f4 [128]
0.0014413084 -0.15900028 -0.12482462 -0.20257476 -0.04551505 0.026835447 -0.041464124 -0.14987601
-0.11070413 0.17781891 0.13334543 0.03559647 -0.08265583 0.17753196 -0.10445692 0.022425724
0.12066428 -0.086380616 0.14290947 0.057000246 0.019474529 -0.18008332 0.11931091 -0.17157383
0.16842328 -0.1711268 -0.15451506 0.07633588 -0.21635701 -0.05561669 0.0036974545 0.114939846
0.09527972 0.03935983 0.22408088 -0.12463932 0.048286807 -0.17115198 0.13567299 -0.061735313
-0.19896793 -0.2088549 0.10140738 -0.17177042 -0.16835077 -0.040623646 0.22392574 0.16100018
-0.103538774 -0.06767744 0.20705803 -0.048961733 -0.18677357 0.1375877 -0.21214555 -0.106520005
-0.21038742 -0.11320005 -0.24099314 0.023966204 0.15211573 -0.0046998244 0.013024393 0.025564555
0.20576034 0.015764637 -0.056881785 0.18332551 0.12387869 -0.19229361 -0.04647168 0.2031388
-0.15626869 -0.15883684 0.19869502 0.21293749 0.03189196 0.15477042 0.1291865 0.073152274
0.08359524 -0.11985329 0.059844807 0.11324385 -0.16053203 -0.09148051 0.00030574747 0.14020003
-0.052839 -0.19572605 -0.07484626 0.24271911 -0.20157059 0.20281386 0.112558015 -0.06868262
-0.0978916 -0.16395962 0.1682477 -0.0011621589 -0.09568853 0.12132068 0.18637897 0.046536725
-0.16652036 0.20721562 -0.19898392 0.15577942 -0.055975616 -0.074253425 0.05033127 -0.17358929
-0.17458503 0.035467885 -0.07546457 -0.12309692 -0.020727294 -0.2317617 -0.09166352 -0.14036746
0.2042209 0.04529934 -0.012477696 -0.1522902 -0.071018904 0.10120918 0.18619578 0.12737522
00000000: 49ea bc3a f8d0 22be 0da4 ffbd c26f 4fbe
00000010: fd6d 3abd 03d6 db3c 49d6 29bd 1979 19be
00000020: d9b8 e2bd 2916 363e b48b 083e 9bcd 113d
00000030: 7647 a9bd f0ca 353e 82ed d5bd 27b6 b73c
00000040: d61e f73d 52e8 b0bd dc56 123e 1779 693d
00000050: 0c89 9f3c c367 38be 4759 f43d 0db1 2fbe
00000060: 2777 2c3e dd3b 2fbe 3239 1ebe fc55 9c3d
00000070: b18c 5dbe 54ce 63bd fe50 723b 9565 eb3d
00000080: 0422 c33d c637 213d 7575 653e e642 ffbd
00000090: 63c8 453d 7742 2fbe dced 0a3e 2bde 7cbd
000000a0: 40be 4bbe 0fde 55be acae cf3d 96e4 2fbe
000000b0: 2564 2cbe fb64 26bd ca4c 653e 3bdd 243e
000000c0: 230c d4bd 789a 8abd 0507 543e 198c 48bd
000000d0: 9241 3fbe cae3 0c3e af3c 59be 2927 dabd
000000e0: cd6f 57be 6ed5 e7bd e8c6 76be c654 c43c
000000f0: 3ac4 1b3e fc00 9abb 4364 553c c26c d13c
00000100: d7b2 523e d724 813c e0fc 68bd afb9 3b3e
00000110: 1cb4 fd3d 9ee8 44be 1759 3ebd 9e03 503e
00000120: e604 20be 20a6 22be b576 4b3e 490c 5a3e
00000130: 25a1 023d 237c 1e3e 7749 043e dcd0 953d
00000140: fb33 ab3d a475 f5bd d41f 753d 64ec e73d
00000150: 8262 24be 225a bbbd bb4c a039 9990 0f3e
00000160: b56d 58bd 696c 48be ff48 99bd 5c8b 783e
00000170: 8568 4ebe 70ae 4f3e d184 e63d 79a9 8cbd
00000180: 647b c8bd 08e5 27be 2049 2c3e 9553 98ba
00000190: 59f8 c3bd fa76 f83d 21da 3e3e 4b9d 3e3d
000001a0: 5084 2abe 5530 543e 71c2 4bbe a484 1f3e
000001b0: b046 65bd 2e12 98bd 2928 4e3d 64c1 31be
000001c0: 6bc6 32be c646 113d 2b8d 9abd 3d1a fcbd
000001d0: 49cc a9bc f052 6dbe 15ba bbbd 7dbc 0fbe
000001e0: 491f 513e cd8b 393d 406f 4cbc f6f1 1bbe
000001f0: 5c72 91bd c246 cf3d 1baa 3e3e a66e 023e

critic.2.weight f4 [64, 128]
-0.004365495 -0.01250092 0.014942872 -0.0534194 0.033987153 -0.025951663 -0.05071505 0.07527265
0.019940292 0.0020438805 -0.022825897 0.051680185 -0.04660085 0.021971444 -0.035605308 0.07316179
0.08277366 -0.07688184 -0.02906016 0.07130931 -0.013356777 0.061177902 -0.062076733 0.096861735
0.03249021 -0.061131097 -0.04379198 0.020082729 -0.058113027 -0.061126936 -0.0052181827 -0.024699632
0.06005964 -0.020021057 0.06919312 0.09022146 -0.07021312 0.09393607 0.04359173 -0.06321416
-0.034034766 0.007877156 0.046630118 -0.07655672 -0.035678484 0.08615396 0.0149241835 0.015351344
-0.078621134 -0.051826224 -0.021029959 0.043049037 0.06594666 0.07995768 -0.05682761 -0.01045491
0.019609706 0.09587732 -0.04286133 -0.06288339 0.03744002 0.007761071 -0.05866076 0.06090384
-0.0642194 0.019049702 0.064291224 -0.021645486 0.031433657 0.025877142 0.047877036 -0.07700908
0.03921622 -0.033521842 0.07848108 0.014103571 0.04135587 0.024979336 0.05995298 0.07264807
0.05276552 0.09507208 -0.0331131 0.04343901 0.06269133 -0.025141753 -0.05124465 0.016587382
0.07555206 0.03992107 0.0040729847 0.07164234 0.0611825 7.9726604e-05 0.041434232 0.07855321
0.020710645 0.049381323 0.0018674084 0.054407362 0.08511377 0.0022948545 -0.076338984 0.033456936
0.061207153 0.019449303 0.074324824 0.05629294 0.06915539 -0.023799231 -0.046623982 0.031885732
0.018365966 0.029968472 0.07362282 0.026842035 -0.049106203 -0.011874001 0.0057007945 -0.04324832
0.015566983 -0.039711643 0.036238216 0.081713125 -0.051099163 0.05751778 0.0034334993 0.06041999
-0.008704187 0.07038833 0.083532825 -0.04073899 0.050923996 0.017117461 -0.037956234 -0.056358695
-0.04989334 0.07465812 0.00029546476 0.032587767 0.053714935 -0.03800073 -0.020425493 -0.024645433
-0.04310164 -0.05337287 -0.046760183 -0.06369892 0.0063817706 0.050695956 -0.073583245 0.023692448
-0.05172296 0.07851416 0.007890624 -0.021878581 -0.0069571566 -0.036720537 -0.04447072 -0.015680699
0.06981468 0.021990212 -0.06341364 0.03745704 -0.0056079994 -0.017227111 0.024406305 -0.023168383
0.04713094 -0.039451193 0.055882458 0.0042231353 0.081610054 -0.03716168 0.0680588 -0.07002012
0.074931435 -0.023309674 0.02437828 -0.02699918 0.08569839 0.024215138 -0.053234078 0.032345142
-0.012050563 -0.06577857 0.03793447 0.054019075 -0.07395741 -0.019892639 -0.027388675 0.028274063
-0.06169043 0.09654351 -0.0077747703 0.015058374 0.009551897 0.0083473455 0.047461763 0.027782155
0.077807724 0.041191515 0.013980213 -0.07205115 -0.07290657 0.05089134 -0.06283325 -0.019897113
0.059282802 0.087628536 0.09817249 0.040857542 -0.061804473 0.035902876 0.06253547 -0.0026334857
0.083325356 0.009588516 -0.06201892 -0.07297983 0.045789383 0.0031295505 0.083075486 0.0021681665
-0.014644792 0.07875921 -0.04799441 -0.070290424 -0.039758764 -0.07422326 0.06335104 -0.061868735
0.05700978 -0.022074673 -0.06224838 -0.07337619 0.030569758 -0.036659982 0.0014768064 0.00840163
0.06285688 -0.0005816457 -0.037380923 0.096738674 -0.0046191723 0.0034416865 0.023452694 0.061141033
-0.07105072 0.04368175 0.056769665 0.090499215 -0.073006116 0.051060993 -0.07324454 0.056857057
00000000: 6d0c 8fbb a9d0 4cbc f3d2 743c 4dce 5abd
00000010: 1d36 0b3d 9598 d4bc 96ba 4fbd 8c28 9a3d
00000020: d359 a33c a0f2 053b 60fd babc 9aae 533d
00000030: 88e0 3ebd 75fd b33c dfd6 11bd d9d5 953d
00000040: 3d85 a93d 3a74 9dbd 930f eebc 9e0a 923d
00000050: 62d6 5abc ae95 7a3d 2c44 7ebd 725f c63d
00000060: 7414 053d 9a64 7abd 385f 33bd 8984 a43c
00000070: ed07 6ebd 3d60 7abd 4afd aabb e256 cabc
00000080: 1901 763d 3303 a4bc 1fb5 8d3d 07c6 b83d
00000090: e5cb 8fbd 8e61 c03d 3e8d 323d 6d76 81bd
000000a0: 0a68 0bbd 300f 013c 39ff 3e3d c5c9 9cbd
000000b0: 9a23 12bd 7d71 b03d 9084 743c 3484 7b3c
000000c0: 1e04 a1bd bc47 54bd 0547 acbc 3054 303d
000000d0: 0b0f 873d dac0 a33d 11c4 68bd 124b 2bbc
000000e0: 89a4 a03c 545b c43d 5d8f 2fbd 02c9 80bd
000000f0: b55a 193d 9550 fe3b 4446 70bd 4e76 793d
00000100: 7685 83bd 1f0e 9c3c 1eab 833d e051 b1bc
00000110: 94c0 003d 4dfc d33c b61a 443d f0b6 9dbd
00000120: 30a1 203d 334e 09bd b0ba a03d aa12 673c
00000130: c664 293d 77a1 cc3c 4291 753d 83c8 943d
00000140: a820 583d 27b5 c23d 9aa1 07bd 1aed 313d
00000150: 5064 803d 14f6 cdbc e9e5 51bd 43e2 873c
00000160: 0abb 9a3d 4784 233d ac76 853b 38b9 923d
00000170: 809a 7a3d e532 a738 f1b6 293d 81e0 a03d
00000180: 5fa9 a93c 1244 4a3d d4c3 f43a 41da 5e3d
00000190: 2150 ae3d 4565 163b 9d57 9cbd 240a 093d
000001a0: 5ab4 7a3d 2554 9f3c 9d37 983d 6d93 663d
000001b0: 57a1 8d3d 9bf6 c2bc caf8 3ebd 9d9a 023d
000001c0: 3974 963c 7180 f53c 90c7 963d d4e3 db3c
000001d0: 9623 49bd 2b8b 42bc bbcd ba3b 2725 31bd
000001e0: a90c 7f3c ada8 22bd 866e 143d 3659 a73d
000001f0: 5b4d 51bd c497 6b3d 8f04 613b f47a 773d
00000200: 029c 0ebc c227 903d 4213 ab3d eddd 26bd
00000210: ae95 503d eb39 8c3c ff77 1bbd 60d8 66bd
00000220: f55c 4cbd 5be6 983d 9ce8 9a39 c07a 053d
00000230: 3104 5c3d a7a6 1bbd 5d53 a7bc 38e5 c9bc
00000240: 588b 30bd 839d 5abd 9b87 3fbd 9474 82bd
00000250: 2c1e d13b 90a6 4f3d d0b2 96bd aa16 c23c
00000260: 74db 53bd 08cc a03d ad47 013c b63a b3bc
00000270: dcf8 e3bb 4668 16bd ee26 36bd cf74 80bc
00000280: 00fb 8e3d d124 b43c 03df 81bd 8e6c 193d
00000290: 4fc3 b7bb df1f 8dbc bbef c73c 9fcb bdbc
000002a0: 5f0c 413d 9397 21bd 01e5 643d 3a62 8a3b
000002b0: 2c23 a73d d936 18bd 6a62 8b3d b566 8fbd
000002c0: a775 993d eef3 bebc f5b4 c73c 622d ddbc
000002d0: a382 af3d d35e c63c fa0b 5abd 577c 043d
000002e0: b96f 45bc eab6 86bd 2d61 1b3d 1b43 5d3d
000002f0: fc76 97bd e3f5 a2bc 375e e0bc 029f e73c
00000300: 1baf 7cbd 9bb8 c53d 80c3 febb 66b7 763c
00000310: 8f7f 1c3c 4ec3 083c 4467 423d 6797 e33c
00000320: a859 9f3d 6fb8 283d 430d 653c 8e8f 93bd
00000330: 0a50 95bd 7073 503d b8ae 80bd 45ff a2bc
00000340: 86d2 723d 9776 b33d a90e c93d 3d5a 273d
00000350: b026 7dbd e50e 133d 9912 803d 8f96 2cbb
00000360: 7ca6 aa3d 2719 1d3c 8d07 7ebd 7376 95bd
00000370: a68d 3b3d 2519 4d3b 7b23 aa3d cc17 0e3b
00000380: b6f0 6fbc 824c a13d c995 44bd 6df4 8fbd
00000390: 16da 22bd 5d02 98bd 31be 813d 126a 7dbd
000003a0: 1683 693d f2d5 b4bc 28f8 7ebd 4246 96bd
000003b0: 6e6d fa3c c728 16bd 6691 c13a fea6 093c
000003c0: 1cbb 803d 9579 18ba bd1c 19bd ed1e c63d
000003d0: 6d5c 97bb eb8d 613b dd1f c03c 056f 7a3d
000003e0: 0a83 91bd a2eb 323d 4f87 683d a757 b93d
000003f0: 3b84 95bd 5525 513d 3c01 96bd f2e2 683d

critic.2.bias f4 [64]
-0.0077112825 -0.023914346 0.06552414 0.029309237 0.01204202 -0.07143882 0.0189866 -0.09096923
-0.037799988 -0.037466895 -0.093168244 -0.07728759 0.0633695 0.02530328 0.04155729 0.03296654
-0.06077413 0.07163263 -0.07755366 0.021448946 -0.050928164 -0.061718345 0.061384715 -0.04690833
0.06055676 -0.07818097 0.04100873 0.068167455 -0.03830482 0.009820504 -0.010524191 -0.07421604
-0.07096854 0.025879927 -0.06106471 0.06352188 0.08263421 -0.049916945 -0.06085224 0.047298368
-0.06600326 0.03818926 0.08704765 0.021291278 0.018595506 0.09452866 0.032965425 0.021779263
0.06990714 0.049187865 0.029757766 -0.044740267 0.042983733 0.08687691 -0.05648702 0.09245065
0.06792592 0.05423289 0.07078558 -0.053552408 -0.008976434 -0.0011118161 0.037694734 0.01707043
00000000: edae fcbb 05e8 c3bc 8531 863d ed19 f03c
00000010: e54b 453c 844e 92bd c989 9b3c 134e babd
00000020: 29d4 1abd e376 19bd fece bebd f548 9ebd
00000030: dec7 813d d348 cf3c fa37 2a3d ec07 073d
00000040: 4bee 78bd 21b4 923d 74d4 9ebd b3b5 af3c
00000050: 0d9a 50bd 60cc 7cbd 8a6e 7b3d f322 40bd
00000060: 5d0a 783d 581d a0bd c5f8 273d 619b 8b3d
00000070: 84e5 1cbd 2ee6 203c a86d 2cbc 94fe 97bd
00000080: f457 91bd 2402 d43c fd1e 7abd c217 823d
00000090: 203c a93d b675 4cbd 3340 79bd efbb 413d
000000a0: b82c 87bd 576c 1c3d 0a46 b23d 0c6b ae3c
000000b0: 9a55 983c 3e98 c13d c106 073d 6d6a b23c
000000c0: 7a2b 8f3d 3779 493d 8fc6 f33c 9241 37bd
000000d0: b60f 303d 85ec b13d ef5e 67bd c456 bd3d
000000e0: bf1c 8b3d 4f23 5e3d 08f8 903d c559 5bbd
000000f0: e511 13bc 5cba 91ba cb65 1a3d 49d7 8b3c

critic.4.weight f4 [1, 64]
-0.068619974 -0.047433928 0.061839487 0.045871593 0.0042088353 -0.10184294 0.10596699 0.05378356
-0.010793195 0.006841799 0.00791287 -0.085120775 -0.08882881 -0.11930693 -0.09751253 0.08537819
-0.11456928 -0.055374425 -0.06846165 0.010964579 -0.11844303 0.04637051 0.09872984 -0.13499798
-0.11912592 0.029824898 -0.09605811 -0.028237097 0.06686211 -0.03441615 -0.016210621 -0.12937877
-0.0893785 0.033499997 -0.09654414 -0.026464319 -0.052509617 -0.1296229 0.048318215 -0.13107911
0.10314765 -0.07223672 -0.098822474 0.047714643 0.116448365 -0.08902358 0.07465488 0.0921702
0.0028680395 0.007990942 -0.060146444 0.003338666 0.0834908 -0.13090566 0.03977775 -0.08741841
0.085836805 -0.082678996 -0.022908326 -0.038517028 -0.088698864 -0.13329199 -0.09928371 0.07682579
00000000: a188 8cbd 144a 42bd 674b 7d3d dae3 3b3d
00000010: 45ea 893b 0893 d0bd 3905 d93d 264c 5c3d
00000020: f1d5 30bc 2b31 e03b fba4 013c cd53 aebd
00000030: e1eb b5bd 3157 f4bd a6b4 c7bd c3da ae3d
00000040: 4ca3 eabd 4bd0 62bd 9f35 8cbd c7a4 333c
00000050: 4292 f2bd 01ef 3d3d df32 ca3d e93c 0abe
00000060: 4af8 f3bd 5853 f43c 1dba c4bd 7c51 e7bc
00000070: 00ef 883d f3f7 0cbd 23cc 84bc de7b 04be
00000080: 130c b7bd 4b37 093d efb8 c5bd b3cb d8bc
00000090: 5314 57bd debb 04be 52e9 453d 9a39 06be
000000a0: 133f d33d d8f0 93bd 7063 cabd 6e70 433d
000000b0: 7b7c ee3d ff51 b6bd a8e4 983d bbc3 bc3d
000000c0: b8f5 3b3b 71ec 023c 1e5c 76bd 85cd 5a3b
000000d0: 39fd aa3d 220c 06be feed 223d 6c08 b3bd
000000e0: 35cb af3d 9b53 a9bd 3eaa bbbc 08c4 1dbd
000000f0: c0a7 b5bd b27d 08be 4255 cbbd d756 9d3d
